actor_checkpoint1.pth (torch_old, 163787 bytes, 10 tensors)

fc1.weight f4 [256, 24]
000000 c8 02 14 3e 88 35 08 3e 42 0c 55 bd 4c ce a9 3e
       0.14454186 0.1330167 -0.052013643 0.33165205
000010 0f 5a ed bd e6 26 a8 3c 46 1d d4 bd db 2d 87 3e
       -0.11589443 0.02052636 -0.10357146 0.26402172
000020 e5 63 ed 3d 45 a7 33 be a4 a8 13 3e 44 a0 bc 3d
       0.11591319 -0.17544277 0.144198 0.09210256
000030 a2 bd d3 3d 3b eb a2 3d 50 88 85 3d 3e 72 cd 3c
       0.10338904 0.07955023 0.0652014 0.025078889
000040 65 b3 cd 3d 8e 3c 2d 3d c5 26 a5 bd 8a e1 92 3d
       0.100439824 0.042294078 -0.08064035 0.071719244
000050 05 53 dd bd 94 ec 29 3d c6 c8 8b bd 07 d2 1e 3e
       -0.1080685 0.041485384 -0.06825404 0.15509807
000060 0b f3 f6 bd b0 86 e2 bd 13 94 3f be 8e 23 06 be
       -0.120580755 -0.11060846 -0.1870883 -0.130995
000070 2c 6c 77 bd f3 72 a4 be 04 db 60 3d 1f 04 3a be
       -0.060405895 -0.3211895 0.05489637 -0.18165635
000080 22 94 1f 3e a5 af 73 bd 4e 02 a8 bd a8 5c cb 3d
       0.15583852 -0.05949368 -0.082035646 0.09929782
000090 66 e0 04 bd bb 12 11 3e b4 f0 d6 3b f3 cf ba bd
       -0.032440566 0.14167301 0.006559456 -0.091216944
0000a0 d6 b2 88 3d 1a 9b 18 be 18 34 ad bb 93 31 5b 3e
       0.06674735 -0.14902917 -0.005285751 0.2140563
0000b0 e9 39 3e 3d 11 9d dc bd 4e 3d da 3c 46 f2 8b 3d
       0.046441946 -0.107721455 0.02664056 0.06833319
0000c0 73 c5 08 3e 46 6c fa bd fd db 6c be f7 3d 14 be
       0.13356571 -0.12227683 -0.23130794 -0.14476763
0000d0 6c 58 54 be 88 0f 83 3d 60 0e f2 3c 0d c4 98 3c
       -0.20736855 0.06399447 0.02954787 0.018648172
0000e0 e1 d4 ce 3d e9 ae aa 3c 0c c6 03 3e 0f 00 b3 bd
       0.10099197 0.020835357 0.12868518 -0.087402456
0000f0 a7 00 49 bd 7e 65 89 be e5 91 02 3d 1e 80 4f bc
       -0.049072888 -0.26835245 0.031877417 -0.012664823
000100 c6 54 e2 3d 77 38 28 bb 34 e5 7c 3d 71 8d fe bd
       0.110513255 -0.0025668421 0.061742023 -0.124293216
000110 d8 25 3a be 19 03 88 be 7e bb 9b 3d 25 8a 84 3d
       -0.18178499 -0.26564863 0.07604121 0.064716615
000120 42 0f 2d 3e ba 18 34 bd 3c 39 30 be b1 7f 20 be
       0.16900352 -0.043968894 -0.17209333 -0.1567371
000130 b3 cf b6 bd 7d b5 99 bd b6 e4 d3 3d 3d b7 30 3e
       -0.08926334 -0.07505319 0.103463575 0.172574
000140 b0 47 e8 bd 4e 0e e2 3c 85 a8 b3 3c ae e7 c8 bd
       -0.11341798 0.027594712 0.021930942 -0.098098144
000150 da 6c 2b 3e 26 2c 82 be 92 00 f9 3c 4b 5e 32 be
       0.16740742 -0.25424308 0.03039578 -0.17418782
000160 a9 7c 07 be 66 12 4c 3e bb 58 3e 3d 75 36 e8 bd
       -0.13231148 0.19928893 0.04647134 -0.11338512
000170 af 95 66 3e d2 49 99 bc 45 2e 14 be ba 67 2e be
       0.22518037 -0.018711958 -0.14470775 -0.17031756
000180 96 17 c5 3d 09 f6 85 bd c4 8f b3 bd df 88 71 be
       0.09623639 -0.06541068 -0.087676555 -0.23587368
000190 f5 41 14 be 55 49 90 3d 71 12 2d bd 9b 03 3f be
       -0.14478286 0.07045237 -0.042253915 -0.18653719
0001a0 7f c9 51 bd 20 13 15 be 51 b3 4e be 97 bd 0e be
       -0.051217552 -0.14558077 -0.20185591 -0.1393951
0001b0 51 13 5d be 0e 42 33 be 51 93 33 3e 1c 6d 3d 3c
       -0.215894 -0.17505667 0.17536665 0.011561658
0001c0 4c c0 fa 3c 8b ae 54 be 39 d1 f8 bc ac 68 16 bd
       0.030609272 -0.20769708 -0.030373203 -0.036720917
0001d0 0f c3 21 bd 00 5c 97 be 49 ef 80 3c 67 53 ba bd
       -0.039492663 -0.29562378 0.0157391 -0.09097939
0001e0 07 7d 5c bd e3 b1 f8 bd b0 39 91 bc 1c 9b 44 be
       -0.053830173 -0.12143304 -0.017727703 -0.19199795
0001f0 5e 2c 25 be 87 c5 ec bd 51 6f 96 bd ca f1 5b be
       -0.16130206 -0.11561113 -0.07345451 -0.21478954
000200 e3 55 ea 3d 52 01 b2 bd 97 8e 19 3e 82 cd 17 3e
       0.11442163 -0.08691658 0.149958 0.14824489
000210 b6 62 1f be 0d 07 16 3e 28 98 a7 bd 42 a7 d1 3b
       -0.15564999 0.14651127 -0.081833184 0.0063981125
000220 1e da 72 be 25 15 82 be ae 2d 3a bd b7 03 8c bd
       -0.23716018 -0.25406757 -0.04545372 -0.06836646
000230 bd 0b a5 3d b1 7e 36 be 2e 59 43 3d 0e c8 31 be
       0.080588795 -0.17821766 0.04769247 -0.17361471
000240 16 7f 89 bd 57 98 a5 bd 9a ec 05 3e 15 0d f5 3d
       -0.06713693 -0.08085697 0.13078538 0.11965386
000250 ad e8 33 3e 5f 99 d3 bd 0c 3d 9d 3d eb 20 08 be
       0.17569228 -0.103319876 0.076776594 -0.13293807
000260 3d 80 ab bd 43 c1 88 be 95 1e f1 3d 9d 2a 11 be
       -0.08374069 -0.26709947 0.11773411 -0.14176412
000270 97 a6 0d 3e 17 98 40 3e f7 54 f4 ba 86 85 d1 bd
       0.1383308 0.18808018 -0.0018641044 -0.10230546
000280 f3 ff 0d 3e 2d 13 b2 39 e2 37 77 3d a7 fb b1 bd
       0.13867168 0.00033965093 0.06035603 -0.08690577
000290 9a a5 03 3e f6 6b 9d 3d 60 5f 73 bd 4b 60 89 3e
       0.1285614 0.076866075 -0.05941713 0.26831278
0002a0 3e ae b0 3d 3b 60 a3 bd 10 9c 94 bd 55 22 17 be
       0.08626984 -0.07977339 -0.07256329 -0.1475919
0002b0 ba bd 0f 3e d5 76 f0 bd fe 8b af bd c0 ba 54 be
       0.14037219 -0.117414154 -0.08571623 -0.20774364
0002c0 34 f5 f0 bd 49 86 aa 3d 02 8c de 3d 4d 93 17 be
       -0.11765519 0.08326394 0.10866548 -0.14802285
0002d0 b0 81 ee 3d b3 09 f9 3d ca e0 49 bc a9 d8 e9 bc
       0.1164583 0.12160053 -0.01232166 -0.028545694
0002e0 0b 3e 18 3e 1e 7b 23 3e fb 8d 80 3c da 19 dd 3d
       0.14867418 0.15964934 0.015692702 0.107959464
0002f0 42 0d f9 3c e5 8f 80 3d 63 07 c6 bd 6d fb a9 3d
       0.03040183 0.06277446 -0.09669378 0.08299909
000300 4e 64 25 3e 9a eb 79 3e 07 61 95 bd be f7 a7 3c
       0.16151544 0.24406281 -0.07293897 0.020503875
000310 e8 6e b7 bc eb 7f e2 bd 53 b0 6f bb f9 bd fc 3d
       -0.022391751 -0.11059555 -0.0036573603 0.12340922
000320 0a 57 1d be 08 f0 27 3b 44 66 e6 3d 77 d8 ec 3d
       -0.15365234 0.0025625248 0.11249974 0.11564725
000330 e1 81 24 bc fe f1 46 be 36 b5 3c be 15 3d 16 be
       -0.010040731 -0.1942825 -0.18428501 -0.14671738
000340 2b c6 ab bd 0b 47 b8 3d 86 df d1 3d 95 be 9d 3d
       -0.08387407 0.08997925 0.10247712 0.07702366
000350 ea aa 48 be 51 bc 20 be 76 50 75 bd f2 90 38 3e
       -0.19596449 -0.15696837 -0.059891187 0.18024042
000360 2f 67 1c 3d 3c 4c 4d bd 02 24 8f 3d b0 ce 80 bd
       0.03818434 -0.05012153 0.0698929 -0.062894225
000370 8f 74 5e bd 51 da 52 3e 94 e5 db bd dd 88 d5 bc
       -0.054310378 0.20591094 -0.10737148 -0.026066238
000380 79 2c 4a be 00 d3 1b 3e e2 08 2d 3e ff 7e d8 3d
       -0.19743527 0.15217209 0.1689792 0.105710976
000390 15 16 75 bd 64 40 41 be bb 17 1b be 3c f0 3b 3e
       -0.059835512 -0.1887222 -0.15145771 0.18353361
0003a0 3b 21 d4 3d 33 7b 47 3e 44 62 c2 3d b6 eb 9f 3d
       0.10357901 0.1948059 0.09491399 0.0780863
0003b0 83 bb ec 3d 22 a9 5b be a3 64 3f be 4f 73 28 be
       0.115592025 -0.21451238 -0.18690734 -0.16450237
0003c0 c5 b7 69 3c 26 0c 97 bd 23 51 e6 bc 8e 59 03 be
       0.0142650055 -0.07375364 -0.02811486 -0.12827131
0003d0 b8 ba 46 bc 8b 44 1c be 7a 9a f6 bd 6a 1e 69 3d
       -0.012129478 -0.15260522 -0.12041183 0.05691377
0003e0 98 54 e6 bd 46 69 1d 3e 74 e4 00 bd b2 a9 79 be
       -0.11246604 0.1537219 -0.03146787 -0.2438114
0003f0 4e 77 40 bb fa 65 d4 bd 8f ec e8 bc 39 a9 93 be
       -0.0029367986 -0.10371013 -0.028433112 -0.28840044

fc1.bias f4 [256]
000000 92 78 40 be a0 6d 84 bd 69 01 c9 bd 7c af cb 3d
       -0.18795994 -0.06466222 -0.09814722 0.0994558
000010 ec 49 46 be 50 11 e7 3d 2b 35 1c 3e f9 37 3c bd
       -0.19364136 0.11282599 0.15254657 -0.045951817
000020 87 8c a5 bc 69 20 08 3e b7 b6 ee bd 84 f2 42 3e
       -0.02020861 0.13293613 -0.11655944 0.19037825
000030 e0 f0 17 bd b9 88 9a 3d 67 c7 e5 3d 29 71 23 3c
       -0.03709495 0.07545609 0.112196736 0.00997571
000040 55 eb ab bd d6 9d 87 bc 87 41 84 be a0 97 b6 3d
       -0.083944954 -0.016554754 -0.25831243 0.08915639
000050 83 8c 43 3e 27 59 ad 3d f6 ee 8c 3d 92 fd 94 be
       0.1909657 0.0846427 0.06881516 -0.2909971
000060 4b 0e 41 ba 72 9b 6d bd 51 db 4d be fe f4 8e 3e
       -0.00073644955 -0.058009572 -0.20103194 0.2792129
000070 bc af 94 bc 5a f4 d4 3d a1 5f 6b 3e 45 2b fd bc
       -0.018150203 0.10398169 0.22985698 -0.030904422
000080 df 94 fd bd 37 43 01 3e e9 d3 12 3e 4f a2 35 3e
       -0.123819105 0.12623297 0.1433865 0.17737697
000090 df 11 1b be b9 40 15 3d 27 46 a3 bd 20 3b 94 3c
       -0.15143536 0.036438677 -0.07972365 0.0180946
0000a0 48 7a 62 be ff 65 6a 3d 0f 34 99 3e 53 8d 4f be
       -0.22116959 0.057226177 0.2992253 -0.20268755
0000b0 18 69 3f be 55 1c 37 be 23 35 54 be 6e 7d 14 3e
       -0.18692434 -0.17881902 -0.20723395 0.14500973
0000c0 4c 93 14 be 69 b5 46 be de 86 65 be 45 f3 ca 3d
       -0.14509314 -0.1940514 -0.22414729 0.09909681
0000d0 23 14 e1 bd e2 f1 c1 bd 5d 43 62 3e 3f 35 b0 bc
       -0.10990169 -0.094699636 0.2209601 -0.021509765
0000e0 3d 9f 34 3d 1f 51 03 3e fd 1a fd 3c d8 9f 77 bd
       0.044097174 0.12823914 0.030896658 -0.060455173
0000f0 91 57 cb bc 17 16 a8 3c 47 44 29 be c6 3c cb 3b
       -0.024822028 0.020518346 -0.16529952 0.006202313
000100 a7 74 0c be ec 27 4e be 6e 16 da bd 2b 7d e9 bd
       -0.13716374 -0.20132416 -0.106488094 -0.11400827
000110 77 13 0f be 07 94 8d bd 7c 31 f6 bd 04 82 ec bd
       -0.13972269 -0.069129996 -0.12021157 -0.11548236
000120 dd e9 f7 3d 6f 08 96 3d 1c f0 7a be a8 8d a6 be
       0.12105153 0.07325827 -0.24505657 -0.3252995
000130 88 3e c0 bd d7 96 08 3d 34 62 ed 3d 0a d3 f0 3d
       -0.09386927 0.033346977 0.115909964 0.117590025
000140 05 37 ec 3d 7f 3b 26 be 66 b1 0e bd 40 7f 43 bc
       0.11533932 -0.16233633 -0.03483715 -0.011932194
000150 34 d9 4c be 3e b6 db 3c 34 38 39 bd 53 49 ae 3c
       -0.20004731 0.026820298 -0.045219615 0.021275198
000160 ca 44 2f be 42 ae 0b bd 71 92 af 3d 28 08 97 bc
       -0.17116085 -0.034101732 0.08572853 -0.018436506
000170 25 38 0f bb 0a 5d 6c be ba ee 03 3e a2 40 d5 bd
       -0.0021853533 -0.23082367 0.12884036 -0.10412718
000180 42 48 59 be af 83 30 3d 6d 12 4b bd 6e 0d 65 be
       -0.2121897 0.043094333 -0.04957812 -0.22368404
000190 c9 f7 64 be 7b 81 33 3e fc 63 35 3c 9e 8c 82 3d
       -0.22360148 0.17529862 0.011071201 0.06374477
0001a0 8a a4 19 3d dc ac 77 be ef fe 3c be 34 0e d1 bc
       0.037510432 -0.24187034 -0.18456624 -0.025519468
0001b0 22 4f 9a bd 9a 66 24 be 66 26 55 ba b3 1c 03 be
       -0.07534625 -0.16054764 -0.0008131027 -0.12803917
0001c0 40 b9 a6 3d 1c c8 a3 bc 9c 57 85 3b 3a 9e f2 bb
       0.081408024 -0.01999288 0.0040692817 -0.007404116
0001d0 0f 62 d6 bd f2 aa 96 be 25 7b 24 bd 83 b7 87 3d
       -0.10467922 -0.29427296 -0.040156502 0.06626799
0001e0 dc 11 eb 3c 9f 5e a4 bd e5 65 13 be 91 59 a9 bd
       0.02869504 -0.0802586 -0.14394338 -0.082690366
0001f0 a6 fc 92 be 7a ea e5 3d 2c 8d 9f 3c 8d d2 86 bd
       -0.2870838 0.112263635 0.019476496 -0.06583128
000200 9c d9 56 be aa 77 f4 3d e5 46 10 3e af 37 de 3d
       -0.20981449 0.119368866 0.14089544 0.108504646
000210 09 ca 9e 3d 99 7e 22 3e 81 3b 47 bd 15 67 27 be
       0.07753379 0.15868606 -0.04864073 -0.16347916
000220 66 5e aa be 6d 43 7a bd 48 4a 58 3e a4 c4 c6 3d
       -0.33275145 -0.06109946 0.21122086 0.09705475
000230 f0 c8 3a 3d 2d f7 95 bc cf 1e fd 3d c7 c5 99 bd
       0.045601785 -0.01830634 0.12359392 -0.07508426
000240 a5 aa 31 3b fc a5 00 bd c0 f9 ec bd e3 22 89 bd
       0.0027109769 -0.031408295 -0.115710735 -0.06696107
000250 fb 51 64 bd 60 57 04 be 45 39 fe bb 12 35 dd 3d
       -0.055742245 -0.12923956 -0.007758292 0.10801138
000260 e6 33 54 bd 4a 87 bf 3d de 79 ab 3d c6 6c 0c be
       -0.051807307 0.09351976 0.08372854 -0.13713369
000270 7a 1d c4 bd 31 40 06 bd 8e 58 e1 3d b7 9b 1d be
       -0.09575935 -0.03277606 0.110032186 -0.15391432
000280 20 8b ef bd 6e 5b 27 be 78 08 76 bd c2 25 ec 3d
       -0.11696458 -0.16343471 -0.06006667 0.11530639
000290 64 81 59 be 09 61 f8 3d 9a 32 ef bd f5 26 15 3e
       -0.21240765 0.12127883 -0.11679573 0.14565642
0002a0 fd 4b 9d bb 3d 94 ef 3d f9 98 a1 bd 8c b8 90 3b
       -0.0048003183 0.11698196 -0.07890505 0.004416531
0002b0 4c fa 29 be 2e a0 3c be e3 3a e8 3d 85 78 b6 3d
       -0.16599387 -0.18420479 0.11339357 0.08909706
0002c0 0e 11 f7 3b e5 1b 0d be 19 53 68 bd 39 3b 17 be
       0.007539875 -0.13780172 -0.056719873 -0.14768685
0002d0 3c 41 83 be 96 c8 87 be 35 ab b5 bc 2b 7e f3 bd
       -0.25635707 -0.26520222 -0.022176364 -0.11889299
0002e0 ec 4b a0 39 db cb 9c bd 75 6b 9f 3d 60 c8 12 be
       0.00030574144 -0.0765607 0.07784168 -0.1433425
0002f0 b9 a7 d8 bd 69 94 2a bc 15 15 05 3e 88 3e 20 3e
       -0.105788656 -0.01041136 0.12996323 0.15648854
000300 92 f2 37 3e 25 ac 63 bd 78 f0 68 3c 46 46 30 3e
       0.17963627 -0.05558409 0.0142174885 0.17214307
000310 16 09 c1 3c 62 65 78 3d 8e 56 8f bd 9e ad 83 bd
       0.023563903 0.06064356 -0.06998931 -0.06429599
000320 8c b6 a1 bc 75 d2 a8 3d b7 ea 79 be 83 9c 46 be
       -0.019740365 0.082432665 -0.24405943 -0.19395642
000330 ad b1 6d be be ab 2a be e2 5a e3 3d 2b d0 03 be
       -0.23212309 -0.16667077 0.11101319 -0.12872379
000340 4d 36 3c be 37 6e 20 be 47 06 9b bc 9a c7 cd 3d
       -0.18380089 -0.15667044 -0.018923892 0.100478366
000350 ad 1e b8 bd ce 6c 2f 3d ee eb 80 be 07 30 04 be
       -0.08990226 0.042828374 -0.2518 -0.12908946
000360 ea 26 3f be e3 11 a5 be 15 0c 65 be cd 41 0e be
       -0.18667188 -0.3224021 -0.2236789 -0.13892289
000370 86 19 be bd 42 ec 5b bc 7e b3 34 3e 80 b1 81 bd
       -0.09282212 -0.0134230275 0.17646596 -0.063326836
000380 40 68 27 3e d0 b4 06 3d f7 d7 4c be 73 22 58 be
       0.16348362 0.03288728 -0.20004259 -0.21106891
000390 5c ba 36 be bc e2 4d be e2 06 8f bd 76 d8 da 3d
       -0.17844528 -0.20106024 -0.06983735 0.10685818
0003a0 6b 59 c2 bd 73 8f 89 bd d4 8d 4e be 84 56 11 3e
       -0.094897114 -0.06716814 -0.2017129 0.1419316
0003b0 a5 51 da 3d be 9c 89 bd 4d 3f 1b 3e 5e e8 c5 bd
       0.10660104 -0.06719349 0.15160866 -0.09663461
0003c0 3c c6 11 3e ee 55 16 be c6 4b 24 3d 47 ce bf 3d
       0.14235777 -0.14681217 0.040111326 0.09365516
0003d0 da 0b 6b 3c 99 0b 8c bb 7f 10 f1 bc c6 d3 06 be
       0.014346087 -0.0042738435 -0.029426811 -0.13166723
0003e0 cd 88 09 3e 5c 6f 5c bd 41 81 7d 3d 2c 41 98 bd
       0.13431092 -0.053817138 0.061890844 -0.074343055
0003f0 83 af e7 bd 0c 84 d1 bd b8 23 46 bd 37 74 15 bd
       -0.11312773 -0.10230264 -0.048373908 -0.036487784

fc2.weight f4 [128, 256]
000000 d1 b7 1a 3d 8c 04 b7 bd db 0d 64 3d 23 45 c3 bb
       0.037772957 -0.08936414 0.055677276 -0.0059591695
000010 92 32 0a bd 7b 50 0e 3c 52 9b cb bc 47 4a 0e be
       -0.033739634 0.00868618 -0.024854336 -0.13895522
000020 8f a1 49 bd 97 6e a6 bd 81 8e d9 3c ca 44 b4 bd
       -0.04922634 -0.08126562 0.026557209 -0.08802183
000030 61 b0 3d 3d ec a6 d5 3c 6b 84 f8 3c ab 95 b8 bd
       0.046310786 0.026080571 0.03033658 -0.09012922
000040 6a 40 9e 3d b8 fd 88 3c 8e 2e 15 bd c2 09 ec 3c
       0.0772713 0.016722545 -0.03642135 0.028813247
000050 94 8a 34 be de 36 c7 3c 22 37 65 3c cb 2a fd bd
       -0.17630988 0.024318155 0.0139901955 -0.12361678
000060 ed 98 da 3c 23 4b 5c 3d ab 23 ec 3c 76 26 b4 3c
       0.026684249 0.053782593 0.028825602 0.021990996
000070 c3 fa 7b 3d 14 6b 63 bd e7 1a 0e bd 34 89 39 3e
       0.061518442 -0.05552204 -0.034693625 0.18118745
000080 d9 20 85 3d 6f 19 83 bd 47 1c bb 3d 79 c8 57 3d
       0.06500406 -0.064013354 0.09136253 0.05268142
000090 f0 27 19 3d 71 38 16 bc 0d 31 15 3c bd 16 05 bc
       0.037391603 -0.00916873 0.009105933 -0.008123097
0000a0 d3 b7 a2 bb 1d 43 84 3d db 49 4c 3d b9 08 85 bc
       -0.004965761 0.06458113 0.04987512 -0.01623951
0000b0 e1 00 01 bb b0 e3 8d 3d bc de c0 bd 39 4c ca bd
       -0.0019684362 0.069281936 -0.09417483 -0.098778196
0000c0 b8 48 ae 3d 34 54 dc bc 7d eb e9 3b e7 e7 02 3d
       0.08509964 -0.02689562 0.007138668 0.03195944
0000d0 04 e4 9c 3d 5c 92 33 bd e9 07 9d 3d ae b1 60 3d
       0.07660678 -0.04384075 0.07667524 0.05485695
0000e0 66 7d ff 3c 87 49 e3 bd f0 5d bb 3c 55 9c 0b 3d
       0.031187724 -0.110980086 0.022871941 0.034084637
0000f0 dc 0f f4 3d a3 a1 97 3d 5f 8d ce bd 22 34 1e bd
       0.119170874 0.07403877 -0.10085558 -0.038623936
000100 d5 94 86 bd 7f e5 84 3d 9a e6 d9 3c 4d bc 28 3d
       -0.06571356 0.064890854 0.026599217 0.041195203
000110 52 37 c0 bd 74 f4 2b bd d9 c9 45 3e ee 83 b2 3d
       -0.093855515 -0.041981176 0.1931528 0.0871657
000120 ca 8e 57 bd f8 22 94 3d 13 6f e6 bc ce e8 60 3d
       -0.05262641 0.07233232 -0.028129136 0.05490952
000130 cb 1e b6 3b ce 3b 83 bc 77 8f e2 bc fe 69 9e bc
       0.00555787 -0.016019728 -0.0276563 -0.01933765
000140 f8 b5 5a 3b 25 bb 10 3e 2a fc a1 3d 10 f1 9d bd
       0.0033372622 0.1413389 0.079094246 -0.07711995
000150 bd e6 15 3d a0 7f a1 3c 08 53 dd 3c b1 17 c2 3c
       0.036597002 0.019714177 0.027017131 0.023692938
000160 4d 9f 0e 3d 13 2a c5 3d f3 e7 e0 3d 9b 22 3b bd
       0.03481989 0.09627166 0.10981741 -0.0456873
000170 3c d6 9a bd 29 cc 5c 3d da 61 51 bc 4c b0 bc 3d
       -0.07560393 0.05390564 -0.012779677 0.092133135
000180 4d c0 b2 bc c5 e5 f3 3b 3b 24 a9 bb f3 a5 26 3c
       -0.021820212 0.007443162 -0.0051617897 0.010171401
000190 bb 98 25 bc 3e 9d 06 be 06 36 58 bd 6e 86 02 bd
       -0.010107215 -0.1314592 -0.052785896 -0.031866483
0001a0 4d a4 34 bc 96 83 c7 3d e3 d8 d0 bb ad 06 4a 3d
       -0.0110255005 0.09741895 -0.006373511 0.049322773
0001b0 6c e4 12 3c 80 81 f5 3c 0b 5c 97 3c e7 3c ed 3d
       0.008965593 0.029968977 0.018476507 0.11583882
0001c0 c6 3e 8d bd 21 0d 24 bd f3 5d 8f bd d3 98 45 bd
       -0.06896739 -0.040051583 -0.07000341 -0.048241448
0001d0 35 31 11 bb c2 88 29 bc 61 c6 95 3c 36 e1 9c bd
       -0.0022154574 -0.010347547 0.018283071 -0.07660143
0001e0 49 53 b3 bc 6d 1d 3b 3e 6f e5 b5 3d fe 6e 5d bd
       -0.0218903 0.18272944 0.088816516 -0.05406093
0001f0 5e d5 96 3d ab 54 e1 3d 8c 00 9b 3d 4b 76 a0 3d
       0.07364915 0.11002477 0.07568464 0.078350626
000200 5d 14 f9 3d 89 c9 fb 3b 80 8b 49 bc 97 fb 20 3c
       0.12162087 0.007683937 -0.012301326 0.009825609
000210 50 f5 ed bd 7b 4c 97 3c 29 d8 9b 3d d2 ac 5b bc
       -0.11619055 0.018469086 0.07609589 -0.013407903
000220 79 f4 b0 3d 27 4d fa 3c 43 58 0e bd 38 a2 23 3a
       0.086403795 0.030554367 -0.03475214 0.0006242129
000230 ea 8e da 3b b7 2a 60 3d 93 64 a5 bd 59 a2 b0 bc
       0.0066698687 0.054728236 -0.08075824 -0.021561788
000240 ec 83 6a bc a2 b0 06 3e f5 ec 01 3c 7b 9c 38 3d
       -0.014313679 0.13153318 0.00793003 0.045071106
000250 f6 19 16 bd ba 71 8b 3c 97 f2 c0 bb a4 ca 56 3d
       -0.036645852 0.017022002 -0.005888294 0.052439347
000260 99 84 4a 3d f1 d2 22 bd 8c 56 db bc 0e 47 9d 3d
       0.04944286 -0.03975195 -0.026774667 0.07679568
000270 55 2a da bc c0 e2 0f bd e1 b1 33 3d 29 8a 56 bd
       -0.026631514 -0.035128355 0.04387081 -0.052377854
000280 31 bc c3 3d 60 01 36 3d d4 3e 6e 3d b3 10 b9 bd
       0.09557379 0.044434905 0.058165386 -0.09036388
000290 f0 f9 eb 3c b2 ad ad 3d 44 52 b9 3d 12 a2 cd 3d
       0.028805703 0.084803954 0.09048894 0.10040678
0002a0 4f 26 e3 3c 0b 03 82 bd 6d 5c 6c 3d cc 2e 92 3d
       0.027728228 -0.06348237 0.05770533 0.07137832
0002b0 23 c3 98 bc 83 63 8f 3d b3 a6 35 3d 0d 13 98 3d
       -0.018647736 0.07001402 0.04434843 0.07425509
0002c0 c2 86 95 3c 3b 97 ee 3c 98 0f f9 3c ca e3 7a bd
       0.018252734 0.029124847 0.030402943 -0.061252393
0002d0 12 58 84 3d 0c 0d 46 3c b6 5d 83 bc 26 8c b2 3d
       0.064621106 0.012088072 -0.016035896 0.087181374
0002e0 3b 7e c4 3c bf c3 82 3d d6 0a 80 3d 9c ab eb 3c
       0.023985973 0.06384992 0.06252067 0.028768353
0002f0 46 2e 4d 3d 92 c5 e8 3c c3 31 e2 bd a2 82 79 3d
       0.050092958 0.028414521 -0.110446475 0.060915597
000300 6e 0d 8d 3c 21 c8 52 bc 50 c1 8f 3d fa 4a 2a bb
       0.017218318 -0.012865097 0.07019293 -0.002598463
000310 a4 58 05 3d 72 4e 52 3c 28 58 0a 3e b1 89 01 3c
       0.032555237 0.012836086 0.13510191 0.007906363
000320 a7 9a 2f 3e 0a b1 bc bd b5 35 29 3d e4 b2 f2 bc
       0.17148839 -0.09213455 0.041310985 -0.029626317
000330 35 98 bc 3c ab c9 21 3e 3b f6 ac bb f5 13 5e bd
       0.023021797 0.15799586 -0.0052783764 -0.05421825
000340 78 03 9b bc 04 bc 28 3e c5 cf dc 3d 3e 6f 0b 3d
       -0.018922552 0.16477972 0.107818164 0.034041636
000350 df ca ad bd 9d c0 a1 bc 1b 58 53 bb 29 1c 49 3d
       -0.0848596 -0.019745165 -0.003224856 0.04909912
000360 a9 4e 62 bb a2 a3 b3 3d 70 8c a4 3c 3a a2 a4 bc
       -0.0034531748 0.08771445 0.020086497 -0.020096887
000370 91 6f 1f bd 44 c4 b9 bd e0 3f f1 bc c0 0b 41 3d
       -0.038924757 -0.09070638 -0.029449403 0.047130346
000380 d9 b9 12 3d dc 84 2b 3d 86 cd 8e bc 55 9f 22 bc
       0.03582177 0.04187475 -0.017431986 -0.009925683
000390 39 6c c1 3d 3a 65 69 bc 1c cd 4e 3d c1 45 89 3d
       0.0944447 -0.014245326 0.050488576 0.067027576
0003a0 26 ac 27 3e e9 bf 35 bd 7c 61 f8 3c 11 af a7 3d
       0.16374263 -0.044372473 0.030319922 0.08187688
0003b0 81 f6 bd 3d a5 de 0a bc 06 89 19 3e 51 e0 3d bc
       0.092755325 -0.008475934 0.14993677 -0.011589126
0003c0 5e b4 b3 3d b9 dd 2d 3c ee 31 01 be 6c 8f 09 3b
       0.08774637 0.010611945 -0.12616703 0.0020990027
0003d0 67 88 08 bd 80 2b 88 bd 82 47 f7 bd ed a4 10 bd
       -0.03333321 -0.06648922 -0.12074186 -0.035313535
0003e0 a2 7c 0e 3d 57 5f e2 bd 86 d8 6f bd 38 ad cc bb
       0.034786828 -0.11053341 -0.058556102 -0.006246235
0003f0 05 f1 98 3d d3 22 47 3c e6 fc cf 3d 15 00 ab bd
       0.07467846 0.012154299 0.101556584 -0.08349625

fc2.bias f4 [128]
000000 93 59 5b bd 4a 84 1a bd 17 bf 87 3d 04 a2 a8 bd
       -0.05355222 -0.037723817 0.06628244 -0.08234027
000010 de f0 a9 3b cd 24 12 3d d4 12 89 bd a9 40 8d 3d
       0.0051861843 0.035679627 -0.06693044 0.068970986
000020 8c 72 5b bc 05 17 64 3d f3 cf 1c 3e 5a ab 00 bd
       -0.013394009 0.055686016 0.15313701 -0.031413414
000030 06 66 08 3a 34 68 42 bd 2b a1 d1 3d 65 88 d1 3c
       0.0005203191 -0.047462657 0.102358185 0.025577733
000040 8f 5c 9d bd 61 b3 ef 3c 7f af c7 bb 62 d3 f7 3c
       -0.0768367 0.02926034 -0.006093919 0.030252162
000050 79 00 3f 3d 7f 69 6b 3d 4b 3b 16 bd 5f b6 ce 3d
       0.04663131 0.057473656 -0.03667764 0.10093378
000060 e3 c9 09 bc 12 3c a9 3d 0b 12 be 3b c7 ac 42 3d
       -0.00840995 0.08263411 0.0058004907 0.047528055
000070 ab c4 97 3d 6d db 6e 3d 36 73 0b 3d 4d 4a 9b 3d
       0.07410558 0.05831473 0.03404542 0.07582531
000080 85 f3 c2 bb 00 0e 27 bd a1 de 8d 3d c2 2d 0f 3c
       -0.00594944 -0.040784836 0.06927229 0.008738937
000090 90 e9 1a 3d e1 ce 64 3d 30 78 ae bd ce 22 25 3d
       0.0378204 0.055861358 -0.08519018 0.040316395
0000a0 8e 69 28 bd 18 7a 75 3c 68 24 94 3d 81 a9 05 bd
       -0.04111629 0.014982723 0.072335064 -0.032632355
0000b0 1b 7c 2e 3d 3c 91 c5 bc f7 0f bc 3c 8b ac b3 3d
       0.042598825 -0.024117105 0.022956831 0.08773144
0000c0 8d 2f ca 3b dd 2e 7d 3c 0c ba 63 3d b0 60 2e bd
       0.0061702193 0.015453068 0.05559735 -0.042572677
0000d0 62 c3 63 3c 6b a8 af 3d f1 d9 5a 39 03 bc 9a 3c
       0.013901563 0.08577045 0.0002087129 0.01888848
0000e0 db 1d 1b bd 7c 2d b7 3c 88 dd 46 3d 32 29 fb bc
       -0.03787027 0.022360556 0.048551112 -0.030659292
0000f0 6d be 17 3d f8 80 d2 bc 19 81 fd bc 65 5d ad bc
       0.03704684 -0.025696263 -0.030945348 -0.021162698
000100 c4 52 93 bd 59 27 4a bd a3 6e 9d 3d df 5b a7 bd
       -0.07193521 -0.04935393 0.07687118 -0.0817182
000110 d6 3f 09 be 0f 41 74 bd 11 2d 4a bc 44 6e e3 3c
       -0.13403258 -0.059632357 -0.012339846 0.02776254
000120 da 25 fc bc 92 01 82 3d 48 ba 09 bd 21 f6 90 3d
       -0.030779768 0.06347956 -0.033624917 0.07078195
000130 07 06 06 3d 67 0f d3 3c f8 63 00 bd 7b d2 30 bd
       0.032720592 0.02576418 -0.031345338 -0.04316948
000140 ca b3 cf 3c 16 41 a4 bb 3c e8 6d bd 5f 1f 62 bc
       0.025354285 -0.0050126417 -0.058082804 -0.013801425
000150 65 de d6 bd 8a d2 52 bd 96 8f e3 bb 9d 4d ad 3c
       -0.10491637 -0.051470317 -0.006944607 0.021155173
000160 4a 6a 24 3d 69 a4 ef 3c b4 8f 33 bd a9 b7 e7 3c
       0.040140428 0.029253202 -0.043838218 0.028285818
000170 4d 7d a9 b9 db c3 c9 3d 81 b8 ea 3d 4e 49 7e 3d
       -0.00032327548 0.098518096 0.114609726 0.062081628
000180 1a cd 95 3c 62 8e 9f 3d 5a 04 2e 3d 8a d7 fb 3c
       0.018286277 0.07790829 0.04248462 0.030742425
000190 67 b5 4d bb 40 9f 43 bd f8 f9 ee 3c 68 1d d7 3c
       -0.0031388642 -0.047759295 0.029171929 0.02625914
0001a0 3e 51 42 3d d2 6e 84 3c 62 b2 ed 3d d3 20 06 bd
       0.04744076 0.016166124 0.116062894 -0.032746147
0001b0 8e 88 2c 3d ed 98 37 3d 15 34 e7 bc a7 78 09 bd
       0.042122416 0.044823576 -0.028223077 -0.03356233
0001c0 d4 5c 04 3d 29 b3 5b bd 6e ce 47 3c d4 5b b8 3c
       0.03231509 -0.053637657 0.012195213 0.022504725
0001d0 d0 5b 4b 3c 36 dc cb bb 06 a3 fa 3c ab 47 69 bb
       0.0124120265 -0.0062213195 0.030595314 -0.0035595696
0001e0 87 1d cc 3c 24 4b 21 3d ed aa 0b 3d 84 ad c2 3c
       0.024916423 0.0393783 0.034098554 0.02376438
0001f0 63 69 ab 3c 2c 22 1e 3d 89 e5 9d bc 99 44 71 3d
       0.020924276 0.038606808 -0.01927449 0.05890331

fc3.weight f4 [2, 128]
000000 bf 17 e6 bd 66 b3 e1 bd 55 4c 4b bd 30 df 9b be
       -0.11234998 -0.11020546 -0.049633343 -0.30443716
000010 8a c5 d1 bd 54 77 96 bd 55 bb a3 bd 71 9f 6e bd
       -0.10242756 -0.07346979 -0.07994715 -0.058257524
000020 80 fc 12 3e 03 fc a1 bc a3 a6 10 be 9c c6 0a 3e
       0.14354134 -0.019773489 -0.14126067 0.13552326
000030 df 8b 14 3e 58 e2 52 be 23 cd 2b be 4f 3b 70 be
       0.14506482 -0.20594156 -0.16777472 -0.23460124
000040 b2 54 20 3e 8a 30 1b be dc bd 04 3e 68 d6 5b 3e
       0.15657309 -0.15155235 0.1296305 0.21468508
000050 23 b1 39 bc e5 7f cb bd b5 a9 1d bc 11 dc 15 be
       -0.011333737 -0.09936503 -0.009622981 -0.1463473
000060 c9 25 09 be cb 42 b5 bd 00 11 3e bd 30 4a 75 ba
       -0.1339332 -0.088506304 -0.04640293 -0.0009357063
000070 29 5b 43 3e 1b 47 e3 bc 5d 03 67 bd ae 74 e8 bd
       0.19077744 -0.027743867 -0.05639969 -0.1135038
000080 9e 38 14 3e 29 f3 1f 3b 17 d6 04 be 94 c1 0b be
       0.14474723 0.002440641 -0.12972294 -0.13648063
000090 ac d9 5e 3e 0e f7 56 3c 6f c5 0c 3e 84 0f aa bc
       0.21762723 0.013120426 0.1374719 -0.020759352
0000a0 e4 20 17 3e 0b b4 07 be 7c 8c fd bd 80 5e 49 3e
       0.1475864 -0.13252275 -0.12380311 0.19664955
0000b0 ee b9 80 be 75 a2 19 be 80 36 8f bd c9 84 85 3c
       -0.25141853 -0.15003379 -0.06992817 0.016298668
0000c0 f0 46 f0 bd 74 a2 0b 3e 6a 55 4f be 31 76 84 bd
       -0.1173228 0.1363619 -0.20247427 -0.06467856
0000d0 08 81 e5 3d 76 92 ee 3d ae 6c 2b 3d 76 b9 57 3e
       0.112062514 0.11649029 0.041851692 0.21066841
0000e0 d5 5a b3 bd b8 fd b3 3d cf 12 43 3b 63 54 7f 3d
       -0.08757559 0.087886274 0.002976585 0.062336337
0000f0 c6 96 cf 3d a0 ec cd 3d d7 d8 a7 be c6 f8 e6 3d
       0.101361796 0.10054898 -0.32782623 0.112779185
000100 c9 3e ae be 24 79 86 be 6f 8e 9c 3d c2 dd ef 3d
       -0.34032276 -0.26264298 0.076443546 0.11712219
000110 86 cb 18 3e b9 94 2c 3e 06 80 8f bd 6f 25 2d 3e
       0.14921388 0.16853608 -0.070068404 0.16908811
000120 cd 57 93 3c 6b cf 96 3d 4d a6 57 3d bf 9a e4 bb
       0.017986203 0.073637806 0.05264883 -0.006976455
000130 de 11 0b 3e 0a 3e c3 bd e4 c1 0c be 52 ef b1 3d
       0.13581035 -0.095333174 -0.13745838 0.08688225
000140 76 b9 4b 3e 3c 04 eb 3d 48 28 84 bd 76 f8 63 bd
       0.19894966 0.11475417 -0.064529955 -0.055656873
000150 86 1f 7d bd ce 83 0a 3e eb 55 11 3e 43 3e 12 bd
       -0.06179764 0.13526842 0.14192931 -0.03570391
000160 50 c2 45 3e 52 bc f7 3d bf fa e8 3d 8d a4 0f be
       0.19312406 0.12096466 0.11375951 -0.14027615
000170 03 86 eb 3d db 79 4a 3d 1e d6 06 bf c2 d1 63 bd
       0.1150017 0.049432617 -0.52670467 -0.055619963
000180 9f 80 21 bd f9 e1 d7 bd cc 21 4c 3e 90 d0 e0 bd
       -0.039429303 -0.10541148 0.19934767 -0.1097728
000190 2a 37 41 bd 05 22 af bd e7 aa 26 3e 55 00 e3 bd
       -0.04717175 -0.085514106 0.16276132 -0.11084048
0001a0 80 bb 8c bd 75 a3 25 3e f8 62 47 bb 94 81 1c be
       -0.068717 0.16175635 -0.003042398 -0.15283805
0001b0 14 3f cf bd 13 03 5e 3d 9c a3 f2 3b e2 11 a1 bd
       -0.10119453 0.05420215 0.0074047577 -0.07864739
0001c0 77 00 b2 bd 18 f9 24 be fa 70 15 be c9 37 e8 bc
       -0.08691495 -0.16110647 -0.14593878 -0.028346913
0001d0 9a 4b 86 bd 49 b8 0c 3e d1 49 16 3e d4 9c 24 be
       -0.065573886 0.13742174 0.14676596 -0.1607545
0001e0 36 bb 1a bb 5f de 86 3d 37 d0 74 3c bd 31 b5 be
       -0.0023610122 0.06585383 0.01494222 -0.3538951
0001f0 f2 f2 c1 be 6b e4 e5 bd 71 2a d4 bd ef 7c 94 bd
       -0.37880665 -0.11225208 -0.103596576 -0.07250392
000200 cb 7f bf 3c dc 8b 1a be 42 e8 a3 3e 3e b8 20 3d
       0.023376366 -0.15092415 0.32013136 0.039238207
000210 d6 bb 35 3e 7d 41 5b 3e 01 00 b5 be f8 25 a6 be
       0.17747435 0.214117 -0.35351565 -0.32450843
000220 f1 44 07 be d4 d8 d1 be 6f 06 28 be e4 13 cd 3e
       -0.13209893 -0.4098574 -0.16408704 0.40054238
000230 57 ec 74 3d 32 75 bf 3d a6 50 e6 bd d0 ad b3 bd
       0.059795704 0.09348525 -0.11245851 -0.087733865
000240 48 96 47 be 17 11 5f 3d 63 81 1f be a5 d6 93 bd
       -0.19490921 0.054459658 -0.15576701 -0.072186746
000250 4c 9f 8d be c3 51 31 be aa 12 70 3e dd 12 e7 bd
       -0.27660596 -0.17316346 0.2344462 -0.11282895
000260 bf a8 e6 3d 4b 8e 58 be 69 83 6a bc 0c af a4 3e
       0.112626545 -0.2114803 -0.014313557 0.321648
000270 39 10 4b bd 0a f3 65 be 8b ef 31 3e a4 98 1a 3e
       -0.049576018 -0.22455993 0.17376535 0.1509729
000280 ea 01 f4 bd 61 01 3e 3e ce 80 0f 3d 31 e8 f1 bd
       -0.119144276 0.18555214 0.035034947 -0.11811865
000290 bf ef 8e bd d3 52 7f be 98 4f ec 3d 90 2e 41 3e
       -0.06979322 -0.24933939 0.11538619 0.18865418
0002a0 97 4d 85 bd 7f dd a7 3d 34 d8 69 3e 9b 70 d8 bd
       -0.0650894 0.08196544 0.22836381 -0.10568353
0002b0 b3 21 bf 3d 44 19 0c 3e 60 f2 47 3e de 57 78 be
       0.093325995 0.13681513 0.19526052 -0.24252269
0002c0 e6 02 3c bd e0 69 57 3d 27 e0 8d bd e3 8a 25 be
       -0.0459012 0.052591205 -0.06927519 -0.16166262
0002d0 49 83 55 be 39 0b 83 bd bf 5d a7 3e 47 83 39 3e
       -0.20850863 -0.06398625 0.3268871 0.18116485
0002e0 6e 86 0c 3e 5c d2 5f be a9 13 57 3e b0 7d ab 3e
       0.13723156 -0.2185759 0.21003594 0.3349433
0002f0 85 19 d0 bd 55 b5 52 3e 8c 11 e2 bd 29 bb 99 3e
       -0.101611175 0.20576985 -0.11038503 0.30025604
000300 b4 64 03 3e db 02 88 3d 63 7b 19 be a4 eb 9b 3e
       0.12831384 0.0664117 -0.14988475 0.30453217
000310 7f ce c7 be d3 2d 95 bc bf aa 75 3c 30 b1 ee bd
       -0.39024732 -0.018210327 0.014994322 -0.116548896
000320 e6 e6 a8 3e a4 1d 9b 3e 09 d2 52 3e 27 fc 89 3e
       0.32988662 0.30296052 0.20587935 0.2695019
000330 f4 68 37 3e 6c 97 49 3c 83 c0 d4 3c 7d 9c 59 be
       0.1791113 0.012304168 0.025970703 -0.21251102
000340 90 bd cb bc 95 0d 90 3b c4 d2 a4 bd f5 ec 69 3e
       -0.024870664 0.0043961504 -0.08048013 0.22844298
000350 83 0d 66 3e f1 84 a5 3e 94 98 87 3e 94 34 2a bd
       0.22466092 0.3232799 0.26483595 -0.04155405
000360 75 bb 8b bd 6f 5b 6f 3d df df a2 3d 88 60 ad 3b
       -0.06822864 0.058436807 0.07952856 0.0052910484
000370 06 ab 2f be da c2 76 be 15 e5 f3 3d e7 a8 e5 be
       -0.17155084 -0.24097767 0.11908928 -0.44855425
000380 3c ad cc 3e 4a 00 db 3c 06 91 67 3d 9a 05 ec 3d
       0.39975917 0.026733536 0.05653479 0.11524506
000390 8e bf af ba c6 75 f7 3d 20 c9 93 3d 86 22 b2 3d
       -0.0013408528 0.120830104 0.07216096 0.08697991
0003a0 eb a6 9a 3e 38 4f 2f 3c 62 95 91 be aa 93 87 be
       0.30205473 0.01070004 -0.28434283 -0.26479846
0003b0 ca 2e 1d be 7f e9 67 3e 9d fc 8d 3e 4b a8 cf bc
       -0.1534988 0.22647665 0.2773179 -0.025348803
0003c0 60 89 78 be da 67 47 bd 4d 10 f4 3c 01 07 98 be
       -0.24271154 -0.048683025 0.029792929 -0.29692844
0003d0 e8 22 23 be cf 4d 92 3d 4c f5 4e be e0 a0 21 be
       -0.15931284 0.07143747 -0.20210761 -0.15784025
0003e0 93 f5 98 be 61 56 66 3e de c4 78 be cc 54 6f 3e
       -0.29874858 0.22493888 -0.24293849 0.23372191
0003f0 cb 67 e6 3d e2 88 bc 3d 97 27 36 be a7 f0 85 3e
       0.11250266 0.09205796 -0.1778854 0.26160166

fc3.bias f4 [2]
000000 95 e8 61 3c 95 79 36 3d
       0.013788362 0.044549543

bn1.weight f4 [256]
000000 0a 9f 4f 3f 87 c3 18 3f a1 f1 29 3e fe 87 45 3f
       0.8110205 0.5967335 0.1659608 0.7716063
000010 b6 4e 0c 3f 78 5a 17 3f 56 cd 53 3f 3d 5a 73 3e
       0.54807603 0.5912242 0.8273519 0.23764892
000020 85 5e d8 3d ed c5 19 3f c6 4a 15 3f 11 ed 57 3f
       0.10564903 0.60067636 0.5831722 0.8434611
000030 4f 2c 17 3f c0 2d e0 3e b2 ce 09 3f 49 e4 75 3f
       0.59051985 0.43784904 0.53831017 0.9605146
000040 b8 8c 83 3e 44 14 41 3f 56 ea 93 3e 57 3a 6d 3f
       0.25693297 0.7542155 0.28889722 0.92667145
000050 d3 82 23 3f 92 3e 88 3e a3 f3 4b 3f bb ef e5 3e
       0.63871497 0.26610237 0.79668635 0.44909462
000060 7a 4d 3e 3f 71 e3 0e 3f 8c ff 28 3f 8d e9 72 3f
       0.7433697 0.558158 0.66014934 0.9488762
000070 c2 42 55 3f 06 68 83 3f 22 91 92 3e 79 88 e9 3e
       0.8330499 1.026612 0.28626353 0.45611933
000080 96 0b 09 3f e1 0e 4c 3f d2 f7 ed 3e 7a 0a 67 3f
       0.53533304 0.79710203 0.46478134 0.9025036
000090 05 b4 9c 3f 1f 55 70 3f 63 3e 42 3f 3d c3 10 3f
       1.2242438 0.93879884 0.75876445 0.5654791
0000a0 71 3a 76 3f 72 34 fe 3e f5 60 48 3f 24 34 5e 3e
       0.96182925 0.49649388 0.78272945 0.21699578
0000b0 fc 45 3d 3f 10 5a 00 3e fa d1 02 3f aa 17 e3 3e
       0.7393491 0.12534356 0.5110165 0.44353992
0000c0 14 67 ec 3e 15 6c e4 3e ec 8c 3e 3f ba 55 3d 3f
       0.46172392 0.4461371 0.7443378 0.73958933
0000d0 6d 36 83 3f c8 05 7b 3f 60 0b c8 3e 55 2a 0b 3f
       1.0250984 0.98055696 0.39071178 0.5436147
0000e0 56 bd 0d 3f 41 ec 32 3f 99 44 10 3f 76 48 dc 3e
       0.5536703 0.69891745 0.5635467 0.43024033
0000f0 ec dc 25 3f 93 46 a6 3e ec 86 5b 3f 53 25 39 3f
       0.64790225 0.3247572 0.8575275 0.7232258
000100 68 f1 71 3f 0c 3d 6b 3e 1f 62 bc 3e 99 25 89 3d
       0.9450898 0.22972506 0.3679361 0.06696624
000110 95 d7 8a 3f 9c 0b 8c 3e d8 d2 49 3f fc 81 65 3f
       1.084704 0.27352607 0.7883735 0.89651465
000120 86 60 74 3f 92 f5 5a 3f 1e d4 22 3f a6 c5 a2 3e
       0.95459783 0.8553096 0.63604915 0.3179142
000130 8c 49 0e bd 96 a7 c0 3e bf b9 24 3f 5a a3 48 3f
       -0.03473811 0.37627858 0.64345926 0.78374255
000140 b7 aa 52 3e 5a 85 96 3e 95 93 6a 3f 0e 07 1a 3f
       0.20572935 0.29398614 0.9163144 0.60167015
000150 46 8d cd 3e 51 5f 7f 3f e7 6f 3e 3f 4b ea dc 3e
       0.40146846 0.99754816 0.743895 0.431475
000160 f8 7a 0f 3f 79 b8 b2 bd 62 3d bb 3e 0c f5 84 3f
       0.5604701 -0.087265916 0.3657027 1.0387282
000170 6d 69 53 3f 3c 7c b0 3e c7 e9 4e 3f 1f 3f bf 3e
       0.8258274 0.34469783 0.80825466 0.37352845
000180 bb b0 a7 3e 65 76 31 3e 02 98 77 3f 18 9f 6f 3f
       0.32752022 0.1733032 0.9671632 0.9360213
000190 61 f7 58 3e 3b 3c cd 3e e7 26 3b 3f b2 52 a0 3e
       0.21188118 0.40085015 0.73106235 0.31313092
0001a0 0d b6 33 3f d4 d6 6a 3e 97 bd 4c 3f d9 2f 50 3f
       0.7019966 0.22933513 0.7997679 0.8132301
0001b0 6c ff e9 3e 85 92 37 3f d8 e3 cb 3e 93 6f 53 3e
       0.45702684 0.71707946 0.39822268 0.20648031
0001c0 4e 2a 33 3f 7f 87 cb 3e ed c3 28 3f 0f a0 0c 3f
       0.69986427 0.39751813 0.6592396 0.5493173
0001d0 af 79 20 3e f5 df 1f 3f 67 2a 5f 3f e5 6b 1c 3f
       0.15671419 0.62451106 0.87174076 0.61102134
0001e0 6c b3 bd 3e 31 2d a5 3e b0 5b 69 3f 71 2f 9e 3e
       0.3705095 0.3226104 0.9115553 0.3089557
0001f0 61 6c 37 3f 08 24 6d 3e 2e 3d 44 3f 7a c8 2e 3f
       0.7164975 0.23158276 0.7665585 0.6827465
000200 a9 b7 1c 3f 41 09 6e 3e c5 a7 22 3f d1 74 1b 3e
       0.61217743 0.23245718 0.63537246 0.1518128
000210 7c e6 96 3f a5 b1 30 3f ff a9 31 3f d8 cd 39 3f
       1.1789088 0.69021064 0.6940002 0.7257972
000220 75 b3 bb 3e 4b a9 6b 3f a5 f2 d1 3e 1d 3e 3e 3f
       0.36660352 0.92055196 0.41005436 0.7431353
000230 d3 b8 a2 3e 48 2f 97 3f 11 2a 1f 3f 9c 2e 08 3f
       0.31781635 1.1811304 0.62173563 0.5319612
000240 f7 35 fa 3e 28 30 16 3f fe 4d 40 3f c6 93 c2 3e
       0.48869297 0.5866723 0.75119007 0.38003367
000250 dd 7d 44 3f 3d a1 7f 3f 26 52 3d 3f 88 66 2b 3f
       0.7675455 0.99855405 0.73953474 0.66953325
000260 76 1b 38 3f 81 c9 04 3e df d7 74 3f 5e 3d 3b 3f
       0.719169 0.12967493 0.95641893 0.73140514
000270 f0 40 78 3f 6f 07 c3 3e ee b7 83 3e d1 fa 90 3e
       0.96974087 0.3809161 0.25726265 0.28316358
000280 51 37 3f 3f e9 c9 ce 3e 39 cb 02 3f a1 17 0e 3f
       0.7469378 0.4038842 0.51091343 0.55504805
000290 1e f7 0c 3f 1e 32 87 3e 3d 16 62 3f 50 eb 75 3f
       0.5506457 0.26405424 0.8831518 0.96062183
0002a0 84 98 93 3f 87 6c 72 3f b8 40 1b 3f d8 8f c7 3e
       1.1530919 0.9469685 0.6064563 0.38976932
0002b0 68 aa 22 3f 8e c1 10 3f 32 5b ab 3d e1 31 33 3f
       0.6354127 0.5654534 0.083670035 0.69997984
0002c0 3c a7 3b 3d d7 b1 97 3f 58 4c 11 3f 7b 61 2d 3f
       0.045813784 1.1851147 0.56757116 0.6772687
0002d0 14 2a 57 3f 8e 34 52 3f 73 2d e3 3e 8b ea ac 3e
       0.8404858 0.8211144 0.44370613 0.33772692
0002e0 2b 5d 68 3f 08 d9 d0 3e 20 9d ef 3e 65 4b 20 3f
       0.90767163 0.40790582 0.46799564 0.6261504
0002f0 af ee 1c 3e 04 cf 40 3e cb 8f 2c 3e 99 be 92 3e
       0.15325426 0.1882897 0.16851728 0.2866104
000300 24 bb 41 3e 7f e8 86 3f 8d 64 78 3f c0 68 e8 3d
       0.18919045 1.0539702 0.9702843 0.113481045
000310 24 b6 b9 3e 16 6c 3d 3f f9 db 55 3f e5 58 8f 3f
       0.36271775 0.7399305 0.83538777 1.1199003
000320 ec 39 64 3f 8d b6 07 3f f9 6d c2 3e 63 66 b5 3e
       0.8915088 0.53012925 0.37974527 0.35429677
000330 55 3f da 3e fb e1 74 3f 29 f6 c6 3e d4 b8 f3 3e
       0.42626444 0.9565732 0.3885968 0.4760195
000340 95 92 71 3f e7 9c e1 3e 76 d6 3e 3e 91 2b fb 3e
       0.9436429 0.4406502 0.18636498 0.49056676
000350 50 c2 be 3e 8c d1 64 3f 4c 70 0b 3f fb e5 a8 3e
       0.37257624 0.89382243 0.54468226 0.3298796
000360 f2 87 3e 3f 50 7e 03 3f a5 1c 12 3f 72 18 84 3f
       0.74426186 0.5136461 0.5707496 1.031996
000370 6e b5 f2 3e 7e 5e b7 3e 9c f6 08 3f 0c 20 75 3f
       0.47404045 0.3581428 0.53501296 0.95752025
000380 0d 62 5b 3f 37 66 03 3e fb 60 47 3f 87 b4 81 3e
       0.8569649 0.1283196 0.77882355 0.25333044
000390 43 96 92 3f 81 54 13 3e e8 10 7b 3f 98 29 87 3f
       1.1452106 0.14387704 0.9807267 1.0559568
0003a0 36 4d a9 3e 26 1c fd 3e c8 6e 0f 3f 10 b2 42 3f
       0.3306672 0.49435538 0.56028414 0.7605295
0003b0 6d f1 4e 3f cc 69 30 3f e1 13 bb 3e 8f bc 7c 3f
       0.80837137 0.68911433 0.36538604 0.9872522
0003c0 49 33 85 3f da ba 85 3f ad d1 60 3f 2c a1 32 3f
       1.0406276 1.0447648 0.8781994 0.6977718
0003d0 86 28 a3 3d d9 2b 4a 3e b3 64 40 3f 7d 74 16 3f
       0.079667136 0.19743289 0.75153655 0.58771497
0003e0 79 76 bd 3e 4f ad 3b 3e 87 06 db 3e 42 2d c2 3e
       0.3700445 0.1832783 0.42778417 0.37925154
0003f0 8e 09 80 3f 96 03 6b 3f 3e 41 1d 3f fb c1 15 3f
       1.0002916 0.91802347 0.61427677 0.58499116

bn1.bias f4 [256]
000000 4f 61 77 bd 9e 22 ce bb 86 2f 20 3c 41 e5 9c 3d
       -0.060395535 -0.006290748 0.0097769555 0.07660914
000010 1d 10 e0 bb f5 e6 5c 3c 72 ac 04 3d 89 a4 47 3d
       -0.0068378584 0.013482799 0.03239102 0.048740897
000020 31 87 82 bc ef d3 cb bb bc 8c 79 3b 4b c8 25 3b
       -0.015933605 -0.006220333 0.003807827 0.0025296386
000030 c2 32 82 bc 36 58 cf bd 39 c6 98 bc a3 33 89 3c
       -0.015893344 -0.10124247 -0.018649207 0.016748255
000040 b2 a6 9a 3c a7 58 15 bd a7 04 82 bd 46 f3 71 3d
       0.018878315 -0.0364615 -0.063485436 0.059069894
000050 b2 0e 00 bc 33 36 8f 3c 83 22 e3 3c aa 9c 89 bb
       -0.007816004 0.017481899 0.027726417 -0.004199584
000060 d5 dc e8 bb 03 5f 8d bd 46 81 21 bd ca ee 42 bb
       -0.0071064034 -0.06902888 -0.039429925 -0.002974438
000070 d7 20 33 3d 21 12 80 3c 23 b8 91 bd 6e c0 69 bd
       0.04373249 0.015633645 -0.071151994 -0.05706828
000080 2f 61 9b bd 92 57 e9 bc fc 47 cf bc 3c 8a 9a bd
       -0.07586896 -0.02848414 -0.02530288 -0.07545897
000090 ed fc c6 3c c8 4d c4 3c 97 3d 9c 3d 9c 48 ca bc
       0.024290526 0.02396287 0.07628935 -0.024692826
0000a0 97 a5 28 bd 2b bb e5 bc 5c 88 82 bd 4a 49 31 3b
       -0.041173544 -0.02804335 -0.06373665 0.002705174
0000b0 1e ff 6b bd 51 10 ae bd 1b cf ef 3c a2 a8 f6 bc
       -0.057616346 -0.08499206 0.02927356 -0.030109707
0000c0 d0 92 75 bd a0 7e 9a 3c 4e 42 42 bb 3c f6 a4 3d
       -0.059954464 0.018859208 -0.0029641571 0.08054778
0000d0 52 ae 02 bb 11 39 94 39 66 a6 a9 bd 3f 17 4d bd
       -0.0019940329 0.00028271278 -0.08283691 -0.050070997
0000e0 a5 54 49 bd ae 3b c7 3c 22 f3 94 bd cd 87 c6 3b
       -0.04915299 0.02432045 -0.072729364 0.006058669
0000f0 db 8d 1d bd a4 9a 3b bd 79 24 90 3c 86 83 28 bb
       -0.038465362 -0.045801774 0.017595517 -0.002571316
000100 7f c3 6f bc 1a 6c 03 be 4e d7 c2 bb c5 5d 81 bc
       -0.014634012 -0.12834206 -0.0059460765 -0.015791783
000110 4b b3 08 3d 7b 3d 79 b9 b7 d4 8a bc c4 fe 19 3a
       0.033374112 -0.00023769394 -0.016947133 0.000587445
000120 36 ab 00 3c c8 69 8c bd ac bc 99 bc cb 97 e9 bc
       0.00785332 -0.06856114 -0.018766724 -0.028514763
000130 bc eb f2 bc f2 56 57 3d 95 97 94 bc 74 60 4f 3d
       -0.029653423 0.052573152 -0.018138686 0.050629094
000140 71 d0 71 3a 97 b3 24 bd 63 98 d6 bd b8 cf 31 3c
       0.00092244806 -0.040210333 -0.10478284 0.010852747
000150 74 05 21 bc c4 13 48 bc 7f f7 a1 3c 11 83 6b 3c
       -0.00982796 -0.012211744 0.019771336 0.01437451
000160 e1 f5 8c 3d 7b f2 17 3b 80 30 d2 bc 23 30 d7 bc
       0.06882835 0.00231853 -0.025657892 -0.02626807
000170 2f 62 81 3c 78 bf ba 3c 74 70 94 bc 92 db 87 3c
       0.015793888 0.022796378 -0.018120028 0.016584191
000180 ba 2b 36 3c 73 ee a8 3b 63 07 16 3c 1d 07 65 3d
       0.011118824 0.0051553785 0.009157035 0.055914987
000190 56 1f f6 bc 3e 30 4c 3d 13 31 cb 3b 0e 4a 8e bc
       -0.030044239 0.049850695 0.0062009185 -0.017369296
0001a0 7d 39 62 bc 05 34 f1 bc bb 47 1c bc e3 75 dc 3d
       -0.013807652 -0.02944375 -0.009538586 0.107646726
0001b0 2b d4 ab 3c e8 58 15 3d a8 0d 67 bd d6 72 ab bb
       0.020975193 0.03646174 -0.056409508 -0.0052321954
0001c0 ea 9f 5a 3c 50 27 bb 3c ab 32 36 bc 05 65 f1 3b
       0.013343791 0.022845894 -0.011120479 0.007366779
0001d0 97 8d 65 3c db 32 b0 3c de f9 7d bc 7f 09 c5 bc
       0.014010808 0.021508625 -0.0155014675 -0.02405238
0001e0 5d e7 ce bb a5 1b ae bc 00 33 65 3c 7e 80 8b bc
       -0.0063142017 -0.021253416 0.01398921 -0.017029043
0001f0 a7 7d 04 bd e0 d0 ae bd 03 3b 09 bd 15 a2 0a 3d
       -0.032346394 -0.085359335 -0.033503544 0.03384598
000200 c3 c4 8f bd 5f 6b 59 bc ed 05 ab bc ca bc fe bc
       -0.07019951 -0.013270228 -0.02087685 -0.031095881
000210 ee aa 18 3d 7b db a7 bd c8 aa ed bb d7 55 18 3d
       0.037272386 -0.081961595 -0.0072530247 0.03719124
000220 88 4b 77 bc bf 8d 19 bc f2 08 c2 bc 07 f9 ae 3c
       -0.015093692 -0.009372174 -0.023685906 0.02135898
000230 a6 56 88 bb 53 6c 41 bd 92 d3 00 3d 2c 84 09 bd
       -0.00416072 -0.047222447 0.03145177 -0.033573315
000240 e6 40 ce bc a6 ad c9 bb 43 90 e9 3b 90 a4 c0 3b
       -0.02517743 -0.0061547337 0.007127793 0.0058789924
000250 6c d3 d9 bc a2 9e 25 bd 5f 08 6f bc a6 0e 5e 3b
       -0.026590072 -0.040434487 -0.014589398 0.0033883243
000260 50 ea 3f 3d f8 f8 37 bc ab db 72 bc 8b d2 56 bd
       0.046854317 -0.011228792 -0.014822881 -0.052446883
000270 61 96 55 bc 9a 3f 11 bc 62 f0 25 bb a6 db 36 bc
       -0.013036341 -0.008865261 -0.0025320281 -0.011160767
000280 09 4f 0f bc ac 0c fa bb 06 b7 a3 3c 20 61 bf bc
       -0.008746871 -0.007630905 0.019984733 -0.023361742
000290 09 cb cc bc aa aa bd 3a f5 59 ae 3c a2 13 a2 bc
       -0.024999158 0.0014470418 0.02128313 -0.019784752
0002a0 ff 8e a8 3b 7a c6 8f 3d 4f 23 5f bd 92 9d cd bb
       0.0051439996 0.07020278 -0.054477032 -0.0062748874
0002b0 de 8b aa bc ad 38 58 bc b0 ad bb 3c f1 83 5f bd
       -0.020818647 -0.013197106 0.02290997 -0.05456919
0002c0 fc 79 8b bb 4c b8 27 bd 63 e9 5c bc 3f d0 0c 3d
       -0.004256485 -0.040947244 -0.013483378 0.034378286
0002d0 41 39 ef 3b e3 76 a4 3c 41 70 b3 3c f9 a7 04 bc
       0.0073005264 0.02007622 0.021904113 -0.008096688
0002e0 08 dc 18 bd 49 2b a5 bd cf 83 07 bd 8a 5d 66 bd
       -0.037319213 -0.080648966 -0.033084687 -0.05624155
0002f0 21 52 bf 3c 03 d6 6e bd 95 ef 86 3c 6f c9 6c bb
       0.023354592 -0.058309566 0.016471663 -0.0036130806
000300 a5 b5 23 bd a9 21 e0 ba c2 fb 8c bc 34 7f 11 3d
       -0.03996815 -0.0017099875 -0.017209891 0.0355217
000310 8f 57 05 bd c8 72 a2 ba 05 3d c0 bc bc 8a a7 3c
       -0.032554206 -0.0012393827 -0.023466596 0.020451896
000320 e1 22 68 bc f0 1e 8a 3d 8b 16 4a bc 60 fe 97 3b
       -0.014168472 0.06744182 -0.012334476 0.004638478
000330 c3 35 a2 bc f5 e9 ce bc 53 c0 31 bc aa 7d ff bc
       -0.019801026 -0.025258044 -0.010849076 -0.031187851
000340 a2 af 22 bd 93 64 d3 bc e0 ca a8 3b 8f a2 f3 3b
       -0.039718278 -0.025804793 0.0051511377 0.00743515
000350 8d 87 5e 3b ac b5 10 3d 48 f1 30 3d 2e 5e d2 3b
       0.0033955306 0.035329506 0.043198854 0.0064199185
000360 d2 d2 76 3d 67 72 25 3d 55 b3 32 3c e6 f3 8f bb
       0.060259648 0.040392306 0.010907014 -0.0043930886
000370 6d 93 20 bd 9a 79 b3 bc a0 92 4f 3d 05 71 b7 3d
       -0.039203096 -0.02190857 0.050676942 0.08957104
000380 b4 f1 18 bd b1 90 96 3d 28 ef e1 3c c5 7f 8f bd
       -0.03733988 0.073518164 0.027579859 -0.07006792
000390 04 6e 21 bd f5 8a 44 3c a0 fd 94 bb 24 21 29 bd
       -0.03941156 0.011996021 -0.004546836 -0.04129137
0003a0 18 3a fd bc c2 1b 97 bc 3f ed 19 bc ba 07 59 bd
       -0.03091149 -0.018445853 -0.009394943 -0.052985884
0003b0 8a eb e2 3c c0 32 35 bd 6d d6 20 bd 53 a5 a4 3c
       0.027700204 -0.044237852 -0.039266992 0.020098364
0003c0 76 15 ee bb 95 dc ab 3c 7f 39 b0 3c 4d 90 db bc
       -0.007265742 0.020979205 0.021511791 -0.026802206
0003d0 a4 75 8f bb a4 55 47 3d 23 b7 18 3d ab 48 3b 3b
       -0.0043780375 0.048665658 0.037284028 0.002857725
0003e0 f3 96 b1 bd a5 76 45 3d 12 0f 41 3d 41 5f 36 3c
       -0.086713694 0.04820885 0.047133513 0.011131109
0003f0 2a 48 f2 bc 70 58 36 bd 02 50 a1 bc de 74 06 3c
       -0.029575426 -0.044517934 -0.019691471 0.008206574
