actor_checkpoint0.pth (torch_old, 163747 bytes, 10 tensors)

fc1.weight f4 [256, 24]
000000 85 03 3c 3e 87 b3 6e 3e a4 fa 4f bc dc bd a5 3e
       0.18360718 0.23310672 -0.012694035 0.32371414
000010 5f 6f 3f be 16 fb ae 3c 65 97 83 bd 33 1d 83 3e
       -0.18694828 0.021359961 -0.064253606 0.25608215
000020 68 96 09 3e 43 6e c1 bd aa fd 19 3e 51 34 06 3e
       0.13436282 -0.09444859 0.15038171 0.13105895
000030 0e 80 c6 3d b0 ec 82 3d c3 31 92 3d c5 24 83 3d
       0.09692393 0.06392801 0.071383975 0.064034976
000040 41 74 f1 3d fc f9 f5 3d e0 3e 5f bd 42 e3 23 3e
       0.11789752 0.12010571 -0.05450332 0.1600466
000050 c3 b9 9e bd d8 2c 4d 3c 6d 82 2c bd f6 44 79 3e
       -0.07750275 0.012522899 -0.04211657 0.24342713
000060 3f 02 15 be 8e 54 9a bd b2 63 1f be 22 40 3c be
       -0.14551638 -0.07535659 -0.15565374 -0.1838384
000070 44 2c 4d 3d a8 35 a4 be d9 cd b0 3d 31 21 70 be
       0.050091043 -0.32072186 0.08633012 -0.23450162
000080 19 3e fc 3d 2b c1 46 bd 12 25 a2 bd ab 01 92 3d
       0.12316532 -0.048524063 -0.07917227 0.071292244
000090 8f 68 02 3d 4a ca 85 3e 7d 60 1a 3c c4 2a f4 bd
       0.031837996 0.26130897 0.009422419 -0.119222194
0000a0 5c b2 8c bb 9e b8 32 be fa 34 5f bd bb 55 16 3e
       -0.004293723 -0.17453238 -0.05449388 0.14681141
0000b0 33 6a bd 3d 8b 58 c6 3d 44 de b8 bc 7f b0 8e 3a
       0.092487715 0.09684857 -0.022566922 0.001088634
0000c0 56 53 03 3e 8f ab 47 be d0 66 8a be 5a 42 c8 bd
       0.12824759 -0.19499038 -0.27031565 -0.097782806
0000d0 e5 e0 53 be f7 9b 37 3e e5 ef 1a bc aa 6a 86 3d
       -0.20691259 0.1793059 -0.009456609 0.06563313
0000e0 f2 05 66 3d 91 73 ea bd 65 5a bf 3c 11 a9 1c be
       0.056158014 -0.11447824 0.023358533 -0.15298869
0000f0 37 3a 81 bd 2c af 5c bd 03 6c 96 bd 4c 43 a0 bd
       -0.06309932 -0.053877994 -0.0734482 -0.07825336
000100 bf 5c 25 3d 5c 23 30 be 6d 55 da 3d ec 75 cd bd
       0.040371653 -0.17200989 0.10660825 -0.100322574
000110 27 a7 7c be 87 ce e7 3c 70 9e f7 3d e1 a1 b5 3d
       -0.24673139 0.028296722 0.120907664 0.088687666
000120 46 97 3d 3e b9 30 33 be 08 e7 12 be 3b e9 0f be
       0.18514737 -0.17499055 -0.14345944 -0.14053814
000130 80 ab 9f bd 31 cf f9 3d b6 44 07 3e e7 4d 41 3e
       -0.07796383 0.12197722 0.13209805 0.18877374
000140 79 3f 0a be 14 d1 29 be 86 94 7b 3d a9 c7 af bd
       -0.13500775 -0.16583663 0.06142094 -0.08583004
000150 66 ae 35 3e 16 08 b1 3c a3 20 8f 3d 3d ce 25 be
       0.17742309 0.021610301 0.06988647 -0.16191955
000160 b1 23 e0 bd 64 10 51 3d 97 af 38 3d 84 a6 f3 bd
       -0.109443076 0.051041022 0.04508933 -0.11896995
000170 b8 a6 1a 3e 53 d7 3f 3e 61 98 15 be 0a 20 34 be
       0.1510266 0.18734483 -0.14608909 -0.17590347
000180 e7 fb 3d 3d e6 60 b2 3d bf 09 ba bc 2e c9 75 be
       0.04638281 0.08709888 -0.022709725 -0.24002525
000190 b2 71 d2 bd 44 e1 b4 3d e0 0f ba 3c 70 43 43 be
       -0.10275592 0.088320285 0.022712648 -0.19068694
0001a0 19 22 f4 bd 43 dc ae 3c 9c ce 3c be 17 9f 1c be
       -0.11920566 0.021345263 -0.1843819 -0.15295063
0001b0 95 26 38 be bf 37 55 be 06 78 45 3e 87 98 02 bb
       -0.17983468 -0.20822047 0.19284067 -0.001992734
0001c0 a4 fb c7 bc 1b e7 f2 bc 81 de 86 bb e3 25 14 be
       -0.024411984 -0.029651215 -0.00411588 -0.14467578
0001d0 f8 a5 cc ba 6a 28 c7 be 31 04 2c 3d a9 b5 4b be
       -0.0015613427 -0.3889802 0.041996185 -0.19893517
0001e0 f8 61 aa 3d c9 df 0b bd 62 e0 68 3c 41 28 aa bd
       0.08319467 -0.034148965 0.014213653 -0.08308459
0001f0 70 49 04 be ba e2 1b be 44 08 2a bd 0e d5 d8 bd
       -0.12918639 -0.15223208 -0.04151179 -0.10587512
000200 c2 b6 80 3e dd f8 75 b9 32 da 21 3e 8e f0 c0 3d
       0.25139433 -0.0002345773 0.15805891 0.09420882
000210 c7 b0 2a be 41 66 bb 3d 19 01 97 bd 18 21 43 bd
       -0.16668998 0.09150363 -0.07373256 -0.047638983
000220 3b b3 c5 bd 66 de 45 be 3b 08 79 3d 56 1b 65 bd
       -0.09653326 -0.1932312 0.060798865 -0.055934273
000230 52 84 a4 3d 4e 97 77 be b2 a3 1d 3e bb 0c 25 be
       0.080330506 -0.24178812 0.15394476 -0.16118138
000240 4a 68 d6 bc 9b e9 2c ba 8a 60 45 3d dd f7 47 3e
       -0.026172776 -0.0006596089 0.04818777 0.19528146
000250 a5 d4 22 3e 87 ef 8f be 74 b5 be bb 64 bc 6a bd
       0.1590143 -0.28112432 -0.0058199707 -0.05730857
000260 5e 25 8d bc 05 8a 27 be e6 9c a9 3d 26 e2 fa bd
       -0.017229732 -0.16361244 0.08281879 -0.12250166
000270 1c f5 1b 3e 66 a1 ab bd 01 a5 16 bd 99 13 aa bd
       0.1523022 -0.08380394 -0.036778454 -0.08304519
000280 d8 22 42 3e dd c1 19 3d 25 eb ff 3c 7a dd 12 be
       0.18958604 0.037538398 0.031240055 -0.14342299
000290 df 32 6e 3e a8 11 65 be bc 50 b5 bd 90 e0 58 3e
       0.23261593 -0.22370017 -0.088532895 0.21179414
0002a0 e2 16 03 3c 29 01 b8 bd 83 fb 0a bd 1e e9 99 3b
       0.008001061 -0.08984596 -0.033931267 0.004696979
0002b0 ac 19 2d 3e ab d0 0e be 50 db 40 bd 36 25 63 bd
       0.16904324 -0.13946788 -0.047084153 -0.05545541
0002c0 96 0d 50 be ee 50 6a 3d 88 eb bb 3d 05 ff 79 be
       -0.20317683 0.057206087 0.091757834 -0.24413688
0002d0 60 52 29 3e 41 ca fd 3c 2f 72 ef bc fe 4d ff bd
       0.1653533 0.030980231 -0.029229252 -0.12466048
0002e0 d3 12 a7 3d 04 32 b8 3d 53 c2 87 3d 2e cd 34 3d
       0.08157887 0.08993915 0.06628861 0.044140987
0002f0 a0 63 08 3e db ba 84 bd 05 d3 3c bd 3d 20 9d 3c
       0.13319254 -0.06480952 -0.04609968 0.019180411
000300 66 e0 2d 3e ed 90 9e bc 70 d2 a1 bc 35 16 0b 3c
       0.16980132 -0.019356215 -0.019753665 0.008489181
000310 9e 91 bc 3d 2a 1d c6 bc 04 de 4a 3d c5 21 e4 3d
       0.09207462 -0.024183828 0.049528137 0.111392535
000320 96 03 11 be 1e ca 89 be df 61 1d 3e 1a ad e6 3d
       -0.14161524 -0.26912016 0.15369366 0.11263485
000330 b5 b4 b6 3d 5f 38 40 be 4f 86 12 be c9 52 19 be
       0.08921186 -0.18771504 -0.14309047 -0.14972986
000340 12 3c 35 bd 7e 24 ee bd 69 ac af 3d 01 a2 a1 3d
       -0.04424674 -0.11628054 0.085778065 0.07892228
000350 1f a7 d3 bd 0c 84 73 be f6 da 9c bd 1b 82 3a 3e
       -0.1033461 -0.2378084 -0.07658951 0.18213694
000360 28 a1 5a 3d 13 37 00 bd c3 94 a1 3d 78 28 b4 bd
       0.053376347 -0.031302523 0.07889702 -0.08796781
000370 21 fc 15 3e d8 d9 44 3e 05 75 c9 bd 99 79 51 bd
       0.14646961 0.19223726 -0.09836773 -0.051141355
000380 c3 70 1b be 7c 9c 01 3e 97 d3 1b 3e 7f 0f 2a 3d
       -0.15179734 0.1265735 0.15217434 0.041518684
000390 26 17 12 be 20 d2 1c be 05 4d 2c be 67 68 f4 3d
       -0.14266643 -0.15314531 -0.16826256 0.11933976
0003a0 8b 2c 38 3e 59 b2 35 3e 7a 75 0d 3e a1 95 fe 3d
       0.17985742 0.17743815 0.13814345 0.12430883
0003b0 f1 7d 8b be e6 17 0c be 4a 20 13 be 61 3e f2 bd
       -0.27244523 -0.13680992 -0.14367786 -0.11828304
0003c0 06 87 2c 3d 94 f4 dc bc 6a d3 2b 3d 08 37 d7 bd
       0.042120956 -0.026972093 0.041949667 -0.10508543
0003d0 9f a7 c4 bd aa 1c a0 bd 4a 3a 4e bd 11 0b a4 3d
       -0.09602284 -0.07817967 -0.050348558 0.08009923
0003e0 34 20 03 be 31 ff 03 3e ee 84 64 3c 8d 0a 66 be
       -0.12805253 0.12890317 0.0139477085 -0.22464962
0003f0 8a 92 ba 3c 0b 03 3c 3d 28 1f 8b 3c 71 d9 89 be
       0.022774953 0.04590134 0.01698263 -0.26923707

fc1.bias f4 [256]
000000 98 13 2d be 68 04 5e 3c 16 74 bf bd 71 f5 f4 3d
       -0.16902006 0.013550855 -0.093483135 0.11960877
000010 3c c5 1a be 9c c2 de bd 46 19 f2 ba 15 9b 4c bd
       -0.15114301 -0.108769625 -0.0018470667 -0.049952585
000020 57 fe d5 bd ea d8 b3 3c a8 a9 df bd c3 41 96 3d
       -0.10448902 0.021954019 -0.10921031 0.07336762
000030 46 12 e9 bb 23 01 09 3d a1 c6 48 3d f7 3a 3d bc
       -0.007112774 0.03344835 0.049017552 -0.011549703
000040 cd 2e b1 3c b2 d5 89 bd a3 96 4c be 32 68 ae bc
       0.021628762 -0.06730212 -0.19979338 -0.021289919
000050 02 78 10 3e e7 c2 76 3d 72 a8 c9 3c f7 78 89 be
       0.1410828 0.060244467 0.024616454 -0.268501
000060 93 43 d7 3c 7d c1 e7 3d 41 9c 88 be c7 cc 0c 3e
       0.02627734 0.11316202 -0.26681712 0.13749991
000070 02 01 7a 3c 73 7f d6 3c 44 aa 00 3e b1 9b fa 3d
       0.015259029 0.02618382 0.12564951 0.12236727
000080 f1 68 61 be 78 44 ea 3d a4 21 32 3d 86 c5 4f 3d
       -0.22012688 0.11438841 0.043489113 0.050725482
000090 15 fd 0d be 9d 2a 4b bd 82 7a 62 be 9b 58 15 bd
       -0.13866074 -0.049601186 -0.22117046 -0.036461454
0000a0 9c 3b 5e be df 13 76 3d de 27 8c 3e 17 6b ad be
       -0.21702427 0.060077544 0.27374166 -0.33870766
0000b0 4e c7 09 be cb 2d e3 bd dc 64 64 be 52 e1 7a 3e
       -0.13454935 -0.11092719 -0.223041 0.24500015
0000c0 54 38 8f be 76 24 70 be 35 46 4c be 44 d2 84 3d
       -0.27972662 -0.23451409 -0.19948657 0.064854175
0000d0 0d 6f ba bd 07 9a 29 be 96 48 11 3e 58 a5 42 3d
       -0.091032125 -0.16562663 0.14187846 0.047520965
0000e0 fc 03 84 3d c5 64 f1 3c d7 e2 b1 bb ad bb 88 bd
       0.064460725 0.029466996 -0.0054286527 -0.06676421
0000f0 79 2d 55 be fa 5b 1f 3d 6b 8a 7b be d7 b3 01 be
       -0.20818128 0.038906075 -0.24564521 -0.1266626
000100 44 80 52 be e0 76 67 be 08 35 2d be 27 a5 23 be
       -0.20556742 -0.22603941 -0.16914761 -0.1598097
000110 81 40 16 be 51 75 e3 bd 70 b1 09 be 37 5d 89 be
       -0.14673044 -0.11106361 -0.13446593 -0.2682893
000120 b4 a3 44 3e 30 34 07 bc 0a ea 3a be a0 0d 99 be
       0.19203073 -0.008252189 -0.18253341 -0.29893208
000130 7e 27 2f be 87 7f 97 bc 92 71 9e 3d d8 16 9b bc
       -0.17104909 -0.018493427 0.077365056 -0.018931791
000140 99 c5 65 3e 59 0b c4 bd 64 55 01 bc 20 1f ad 3c
       0.22438659 -0.09572477 -0.007893894 0.021133006
000150 0a f4 93 be c2 b9 b1 3d 2e 80 0e be d2 35 6e 3d
       -0.28897125 0.086780086 -0.13916084 0.058156796
000160 de 8b 65 be 58 39 66 be 4e 0a 8c b9 6c 4c 80 3c
       -0.22416636 -0.22482812 -0.00026710558 0.01566144
000170 8c 1e cd bd bc 8a 8d bd 45 3c 00 3e 8e 2f 8b be
       -0.10015592 -0.06911227 0.12522991 -0.2718472
000180 f0 d1 0c be af 69 42 3d 08 4a a6 bd b7 f5 91 bd
       -0.1375196 0.04746407 -0.08119589 -0.071269445
000190 ca 09 8d be 52 cd 19 3d 64 e5 04 bd d0 a7 c7 3d
       -0.2754653 0.037549324 -0.032445326 0.097488046
0001a0 8c 2e 7c 3c 8b 9c 82 be a4 f7 4e be 81 55 89 3d
       0.015391957 -0.25510058 -0.20211655 0.06705762
0001b0 d2 07 28 be ca 3c b4 bd 60 4b 01 3e 55 f8 13 be
       -0.16409233 -0.08800657 0.1262641 -0.144502
0001c0 58 4e b0 3b a6 26 4f be fe 3f a6 3d 44 d0 6e bd
       0.005380433 -0.20229587 0.08117674 -0.058304086
0001d0 36 51 16 be 3a c2 57 be 49 05 d5 3d 1c e2 38 bd
       -0.14679417 -0.21070185 0.10401399 -0.04513751
0001e0 6a c0 25 3e ff fe 18 bd bb 44 ba bc 63 12 57 bd
       0.16186681 -0.03735256 -0.022737851 -0.05250777
0001f0 d2 0f b5 bd 9a 3d a1 bd a1 8a db 3d 7c d7 3b 3b
       -0.08840908 -0.07873078 0.10719801 0.0028662374
000200 ba 99 19 be 9a d5 c8 3d 57 57 6f 3e b5 6d dc 3d
       -0.15000048 0.09806366 0.23373161 0.107631125
000210 ae 1a f1 bd 3d f6 11 3c 32 89 82 ba 36 bb 4f bd
       -0.11772667 0.008908805 -0.00099591 -0.050715648
000220 45 90 9b be 85 66 d4 bd 49 32 d9 3c 0a af 1c bd
       -0.30383506 -0.103711165 0.026513236 -0.038252868
000230 1a 66 af bd b8 76 ac bd 6a de c6 3d f8 c8 16 bd
       -0.08564396 -0.08421081 0.09710391 -0.036812752
000240 f9 1a bb 3c 52 e3 7c bd 92 73 09 be c2 fc 87 bd
       0.02284001 -0.061740227 -0.13422993 -0.066400066
000250 af a1 dc bd b0 e6 9f bd 93 6c 06 bd e5 be 9a 3d
       -0.10773026 -0.07807672 -0.03281839 0.075559415
000260 59 61 e2 3c 40 f4 3b 3c 2e 56 90 bb 9c 9c 49 be
       0.02763431 0.011471808 -0.0044048047 -0.19688648
000270 b1 74 85 bd 6d 5b 9f bd ab ca 82 3d a6 3e c4 bd
       -0.06516398 -0.0778111 0.06386312 -0.09582262
000280 da e0 34 bc f9 08 c8 bd 4f 35 57 bd 82 4d 29 3e
       -0.011039937 -0.097673364 -0.052541073 0.16533473
000290 d2 03 03 be ff 29 ed 3d 5d f7 49 be 04 b2 af 3d
       -0.12794426 0.11580276 -0.19723268 0.08578876
0002a0 26 ae 89 3c 9c e6 8c 3d 8b 00 43 bc ee 23 c9 bd
       0.016806673 0.06879923 -0.011901985 -0.09821306
0002b0 63 1d 8a bd dd 43 51 be 32 2a 3e 3e cf b9 95 3d
       -0.06743886 -0.20436044 0.18570784 0.07310831
0002c0 75 6e 90 3d 8f d8 07 be e0 bd ff bc cb a0 14 bd
       0.07052318 -0.13266204 -0.03121847 -0.036286157
0002d0 f7 cb 47 be a5 cb 72 be 74 3a 9f 3d 84 34 1c be
       -0.195114 -0.23710497 0.07774821 -0.15254408
0002e0 ca 3d 23 3d 1e 54 5a bd b0 49 b5 3d 3f 9f 9a be
       0.03985385 -0.053302877 0.088519454 -0.3019962
0002f0 4f 94 c7 bd ac 31 0d 3e 52 5a c0 3d 56 1f 41 3e
       -0.097450845 0.1378848 0.09392227 0.1885961
000300 51 6a d8 3c 1e b5 d1 bd 83 02 c5 3d b4 69 4b 3e
       0.026417883 -0.102396235 0.0961962 0.19864541
000310 42 7a f3 3d dd d4 7c 3d b2 0b 8d 3d d0 13 62 bd
       0.11888553 0.06172644 0.06886996 -0.055194676
000320 dc 74 81 3c 2b 46 0b bd 32 12 ab be 96 06 69 be
       0.015802793 -0.034002464 -0.3341232 -0.22756419
000330 8a d4 4b be fd 1d 0a bd 80 3b 0b bc 17 86 37 be
       -0.19905296 -0.033720005 -0.008498073 -0.17922245
000340 8d 3d b2 be dd 70 33 be 29 e4 08 3d c3 5f 0a bd
       -0.34812585 -0.17523523 0.033420715 -0.03378273
000350 0a c7 0f be 0d da 1f 3d bb d5 0c be 82 a1 59 be
       -0.14040771 0.03902631 -0.13753407 -0.21253017
000360 17 cd c4 bd 45 9b d3 bd 8b c7 af be 66 70 0c be
       -0.0960943 -0.1033235 -0.34331927 -0.13714752
000370 a8 be 08 be 6b 3e 61 3d 12 65 70 3e 28 4d c2 bd
       -0.1335398 0.054991167 0.23476055 -0.09487373
000380 b6 4b 1d 3e 8b a6 73 3c 3a 8e 46 be 2c 8a 57 be
       0.15360913 0.01487125 -0.19390193 -0.21048802
000390 35 67 f6 bc 1c fe 8d be 60 81 1d be 1a 07 9a 3d
       -0.03007851 -0.27732933 -0.15381384 0.07520886
0003a0 19 52 25 be 4c 77 ef bc 58 e6 39 be 8e 94 0c 3e
       -0.16144599 -0.02923169 -0.18154275 0.13728544
0003b0 e4 8a 41 3e b6 69 72 bd a9 fb 9f 3d 6a 5f e4 bd
       0.18900639 -0.059182845 0.07811672 -0.11151011
0003c0 5f af 8b bc 63 b8 bb bd a3 46 22 3d ab 2f b8 3d
       -0.017051397 -0.09166028 0.039618146 0.08993467
0003d0 83 6c 05 bd 63 19 f1 3c 8d 7d 87 bd 1a 73 9f bd
       -0.032574188 0.02943105 -0.06615744 -0.07785626
0003e0 25 8c b6 3d e3 15 f1 bd f8 56 b0 bd 5b 89 14 bc
       0.08913449 -0.11771753 -0.08610338 -0.009065951
0003f0 be ef 36 be 95 63 64 be 26 60 a8 bd 71 c0 24 3e
       -0.17864892 -0.22303613 -0.08221464 0.16089036

fc2.weight f4 [128, 256]
000000 95 49 d6 bb 95 c3 02 3e ce b1 d7 3d c4 9b a3 3c
       -0.0065395334 0.12769921 0.105319604 0.019971736
000010 32 f2 2a bd 77 1b 12 3d f2 54 bd bd 38 8c d0 bd
       -0.04173488 0.035670724 -0.09244718 -0.101829946
000020 a0 7f 15 3e 24 c2 2c be 6e e9 68 3b ba 2a 35 3d
       0.14599466 -0.16870934 0.0035539526 0.0442302
000030 c0 8e c1 3d bb 14 50 be 77 cc 7d 3c 2f 58 11 be
       0.094510555 -0.20320408 0.015490643 -0.14193796
000040 a9 83 46 3c 5f 0d 58 bc b2 4c 40 3d c3 07 dd 3b
       0.012116351 -0.013186782 0.046948142 0.00674531
000050 24 a5 f6 bc f0 9d 3d 3e 9b 15 39 3d fb 5b a4 bd
       -0.030108042 0.1851728 0.04518662 -0.080253564
000060 9e de 06 bd 48 c9 c0 3c 7e 22 46 bd 8d f4 d0 bd
       -0.032927148 0.023533478 -0.048372738 -0.10202894
000070 b0 ac e2 3d 0f e1 2a 3d bc 55 0f bb 2c 20 db 3d
       0.11068094 0.04171854 -0.002187117 0.10699496
000080 7e e7 aa bc 85 6a 97 3b 2b bf a7 bd 27 69 44 3d
       -0.020862337 0.0046208524 -0.08190759 0.047951844
000090 81 26 b3 3c b2 6c d3 bd 0d 5c 1a be 91 eb 5f bd
       0.021868946 -0.10323466 -0.15074177 -0.054668013
0000a0 94 1a 55 3d 49 b7 ac 3d 6f 90 01 be ff 94 34 3d
       0.0520273 0.08433396 -0.12652753 0.044087406
0000b0 96 8a 88 3d ce 16 d1 bc 33 79 c5 3c 79 66 52 be
       0.06667058 -0.02552357 0.024105644 -0.20546903
0000c0 c8 6e 7a 3d b9 92 85 38 cd 6e 53 3d 5c 5a 8b 3b
       0.061140805 6.3692634e-05 0.05161934 0.004252715
0000d0 bc 55 2b 3d 7a 39 34 bd f9 6b 8b 3d 85 62 08 be
       0.04182981 -0.044000126 0.068077035 -0.13318832
0000e0 54 ce 57 3d b7 87 c5 bd 0f c2 13 be 1b e9 8e 3c
       0.052687004 -0.09645026 -0.14429496 0.017445138
0000f0 4b 1d e8 3d c3 8d c5 bd 53 69 10 3e b3 42 81 bb
       0.11333712 -0.096461795 0.14102678 -0.0039447187
000100 cf 7c b0 3d c8 ff a5 3d 42 ba 30 3d a4 0b 1d 3c
       0.08617555 0.08105427 0.04314638 0.009585295
000110 fe d7 95 bd d8 ca 8f bd 99 31 3c 3d c4 87 d1 3b
       -0.07316588 -0.07021111 0.045945738 0.0063943584
000120 fa f0 1a be cf 9a 9c bc 8d b8 16 bc dd 27 e0 3a
       -0.15130988 -0.019116787 -0.009199274 0.0017101724
000130 c5 e3 6e bd 81 62 2d bd 1f 51 42 3b 50 29 91 bd
       -0.058322687 -0.04233027 0.0029650403 -0.07087958
000140 96 79 0e be 6a 20 bb bb e6 a7 2f 3d 4c b0 06 3a
       -0.13913569 -0.005710651 0.04288473 0.00051379646
000150 16 c8 81 bd 9b 19 33 3d cf 12 09 be fb 37 d5 bd
       -0.063369915 0.04372559 -0.13386081 -0.10411068
000160 6c 36 36 3e e7 7c 6e 3e 22 3f 0b 3d b5 69 21 bd
       0.17794198 0.23289834 0.033995755 -0.03940745
000170 c0 09 2c be 76 09 38 3d 3c 20 55 ba 8c fc c6 3d
       -0.16800594 0.044930898 -0.00081301085 0.09716138
000180 dc aa 12 bd b0 52 18 3d 11 7b b1 bd 24 fe 1d 3d
       -0.035807475 0.037188232 -0.08666051 0.038572446
000190 b8 aa 3d bd cb 43 67 3d ed 46 55 be 7a b0 b4 bd
       -0.04630539 0.056461137 -0.20827837 -0.08822723
0001a0 df 9b e8 bd 1d 1c 8b 3d e0 9b 14 3d 1f 0e 44 3d
       -0.11357855 0.067924716 0.036281466 0.04786503
0001b0 ca 60 fd bd 54 ca 3d 3d 41 d0 44 bc a8 ea 40 3e
       -0.12371977 0.046335533 -0.012012542 0.18839514
0001c0 b4 29 12 be b4 f1 c9 bc d5 21 b8 bc 16 e9 3e bc
       -0.14273721 -0.024651386 -0.02247707 -0.011652252
0001d0 33 d1 66 3b 9d e4 c9 3d 11 f3 a2 bc 17 44 3e 3d
       0.0035219907 0.09858058 -0.019891294 0.046451654
0001e0 d5 45 1a bd f3 43 c3 3d c0 ce 8e 3d bd 16 74 bd
       -0.037664253 0.09534445 0.06973028 -0.059591997
0001f0 46 a5 84 bd 67 89 ce 3c f2 9b 56 bd d5 19 0a 3c
       -0.06476836 0.025212003 -0.052394815 0.00842901
000200 0c 89 06 3e 25 96 2f 3d 4a 6a 6e 3c c4 99 41 bd
       0.13138217 0.0428678 0.0145517085 -0.047265783
000210 80 8f 14 bc db 2e 40 3d 4f 11 af 3c ad c6 f7 3c
       -0.009067416 0.046919685 0.021370558 0.030246103
000220 80 0c 9c 3d d7 01 eb 3d a2 ec 97 bd 96 21 06 3e
       0.07619572 0.1147496 -0.07418181 0.1309875
000230 4e 9b af 3d ce 46 a5 3d cb 60 a7 3c 11 a4 41 bb
       0.08574544 0.080701455 0.020431897 -0.0029547254
000240 08 66 5e 3b 31 62 66 bd 55 37 4a bd 18 cc c1 3c
       0.0033935327 -0.056245986 -0.049369175 0.02365689
000250 85 7c a8 bc b9 3b 18 bd 44 c7 80 3d 93 7f 9a 3d
       -0.020567188 -0.03716633 0.06288007 0.07543864
000260 f3 60 0a bd 67 1b 21 be 98 dd 59 bd e2 ee 93 bb
       -0.033783864 -0.1573311 -0.053189844 -0.004514561
000270 8c 7f cd bc dc 6a 6b 3d 89 75 9f bc f6 aa 5c 3c
       -0.025085233 0.057474956 -0.019465225 0.013468495
000280 7e dd d9 3d 2a 2e f3 3c 2b 67 e4 3c 18 39 d1 3d
       0.106379494 0.029685099 0.027881226 0.10215968
000290 74 2c ba 3d 97 b1 08 be 4c c1 ad 3c a1 4a 68 3d
       0.0909051 -0.13348995 0.021210335 0.056711797
0002a0 90 b8 01 bd e5 03 23 be ca ac 98 bb cb 71 ca 3d
       -0.031670153 -0.15919454 -0.00465927 0.098849855
0002b0 8f 74 03 bd be 58 b0 3d 2f 1d 12 bd 3e fb 78 3d
       -0.03209358 0.08610676 -0.035672363 0.06078648
0002c0 bf 4e 8d bd 89 e6 bc 3d 51 72 32 be d4 2f 13 3e
       -0.06899785 0.092236586 -0.17426421 0.14373714
0002d0 f6 ea c9 3d 23 b6 a9 3d 83 a8 7b 3d af 3e 7d 3d
       0.09859268 0.08286693 0.061440002 0.061827358
0002e0 36 2e 21 3d 48 a4 24 be dd 9b fe 3c 5f 91 c9 bd
       0.03935071 -0.16078293 0.03108018 -0.098421805
0002f0 89 0a 00 3e 1c 62 19 be 04 94 32 bc d6 dc d0 3d
       0.12504019 -0.14978832 -0.0108995475 0.10198371
000300 1e b3 8a bc 83 92 18 3d 6d db 1f 3c bd cb f9 bd
       -0.016931113 0.0372491 0.009756905 -0.12197063
000310 54 a3 41 bd 84 09 82 3c ce c6 76 3d 29 6d 44 bd
       -0.047274902 0.015873678 0.06024819 -0.047955666
000320 1a 19 f2 3b a7 d4 5a 3e 41 5f 73 3d d8 48 d7 3c
       0.0073882462 0.21370183 0.059417013 0.026279852
000330 c7 04 3e bd c6 ca 1b 3e 07 96 5e bd 6a 30 b5 bd
       -0.046391275 0.1521407 -0.054342296 -0.08847125
000340 a3 ec f9 bd 52 3f 38 3d b9 33 fe 3d bf a1 17 3d
       -0.12203338 0.044982262 0.12412209 0.037019487
000350 19 fa 08 bd d8 b5 33 be 88 93 e0 bc 1d 50 8e 3d
       -0.033441637 -0.17549837 -0.027414098 0.06948874
000360 74 b4 d2 3c b1 95 70 bc 64 af c6 3d a3 a1 30 bd
       0.025720812 -0.014684127 0.09701422 -0.0431229
000370 49 84 00 be 3a 8d b0 bb 65 69 79 bd 10 b4 52 bd
       -0.12550463 -0.0053879293 -0.060891528 -0.051441252
000380 45 a7 08 3c e7 15 0c be 09 6b 0b 3d e8 f6 8b be
       0.008340661 -0.1368023 0.034037624 -0.27336812
000390 b5 91 bd 3d 89 d5 25 3e 2e ad 1e 3e 29 20 2f bd
       0.09256307 0.16194738 0.1549575 -0.04275528
0003a0 df 6b ff bc bd 05 31 3d 22 05 82 bd ba 00 64 bc
       -0.031179367 0.043218363 -0.06348635 -0.013916189
0003b0 ca 87 d7 3d 37 31 92 bc ff d4 05 3e ed c6 07 3d
       0.105239466 -0.017845733 0.13069533 0.033148695
0003c0 d6 03 d0 3c f4 df 60 bd 93 37 2d bd cc 59 01 3e
       0.025392454 -0.05490108 -0.042289328 0.12631911
0003d0 33 24 31 be ce 32 df bd 6a 62 8c 3d 56 7b 35 bd
       -0.17298965 -0.10898362 0.068547085 -0.044307075
0003e0 a6 66 8e bd 68 0c ab bd 4d 70 c4 bd e8 c4 0d 3c
       -0.069531724 -0.08351976 -0.09591732 0.008652903
0003f0 ca 50 8e bd 26 dd 8c 3d e7 da 4b 3b 58 69 44 bd
       -0.06949003 0.06878118 0.0031105818 -0.047952026

fc2.bias f4 [128]
000000 02 a8 d3 3d c0 65 ca bc af c1 a6 3d 7e 88 25 3c
       0.10334779 -0.024706721 0.08142411 0.010103343
000010 ee 84 c9 3c 7c d2 4a 3c 2d 1d 1b 3d a1 14 55 3d
       0.024599519 0.012379285 0.03786962 0.052021626
000020 e2 f1 96 bc 55 cf b9 3b 57 43 07 3e 7c 6a 9c bc
       -0.018425886 0.005670468 0.13209282 -0.019093744
000030 66 53 71 bd c6 d4 63 3d a5 35 bb 3d fa 3d 24 3d
       -0.058917426 0.05562284 0.09141091 0.040098168
000040 30 f7 8c bd 4c 76 97 3d be 7b d7 bc 54 39 c3 3c
       -0.06883085 0.0739561 -0.026304122 0.023831047
000050 9f 24 96 3d e3 54 78 3d 33 fc 9d 39 01 51 e7 3d
       0.07331204 0.06062783 0.00030133277 0.11294747
000060 55 cd 9d 3d 3e d8 89 3d ed be 3c 3c f2 f5 b6 3d
       0.077051796 0.06730698 0.01152013 0.08933629
000070 f0 e1 80 3d 03 ea b6 3d b1 76 f1 3c a9 e7 16 3d
       0.06293094 0.08931353 0.029475542 0.036842022
000080 2f 68 b8 bd 15 07 66 3d f6 a8 fb 3d be 9f 2b 3b
       -0.090042464 0.056159098 0.12288086 0.0026187743
000090 39 44 b5 bb bd ca c8 3d 68 ec e3 bc c6 da 03 bc
       -0.0055318144 0.09804294 -0.027822688 -0.008047765
0000a0 45 61 bc 3c 32 e7 8e 3c 67 51 c6 3d 0b 0c 71 bd
       0.0229956 0.017444227 0.09683495 -0.058849376
0000b0 1a f6 7b 3b 7d 50 01 bb 01 79 0b 3d 1e 55 9c 3d
       0.0038446249 -0.0019731813 0.034050945 0.07633422
0000c0 39 53 2f bc 69 1b 2d bd ec 67 96 3a 71 74 9e 3d
       -0.010700994 -0.04226247 0.0011475063 0.07737053
0000d0 f0 96 6b 3c 13 06 fe bb 17 e7 f7 3c 92 61 96 3c
       0.014379248 -0.007752189 0.03026156 0.018357072
0000e0 46 71 23 bc a8 6b 17 bd 27 7e d6 3d 56 2f 2a 3d
       -0.009975737 -0.036967903 0.104732804 0.04154905
0000f0 7a 74 92 3d 23 47 89 bd bf 13 d8 bc 1f 3b fb bc
       0.071511224 -0.067030214 -0.026376603 -0.03066784
000100 95 cd 82 bd 34 8c e0 3c 0e 35 6f 3d ad 02 13 bc
       -0.06386868 0.027410604 0.058400206 -0.008972806
000110 57 04 36 3c 2a 09 b9 bd d2 99 98 3d c1 31 e2 3c
       0.011109433 -0.09034951 0.07451214 0.027611615
000120 80 bf 07 3d 44 35 9d 3d 8a bc d7 bc 64 f2 80 3d
       0.033141613 0.07676175 -0.02633502 0.06296232
000130 0a c2 2c 3d b5 f3 2f 3d 7a 48 51 bd cc dc 9c bb
       0.042177238 0.042957027 -0.05109451 -0.004787063
000140 71 a8 36 3c 9f 9d 2e bd da d7 8b bd 4e 43 62 3c
       0.011148558 -0.042630788 -0.0682828 0.013809992
000150 db 74 43 bd 00 a5 fb bb aa ca b7 bc 8c bb 14 bc
       -0.047718864 -0.0076795816 -0.022435505 -0.009077918
000160 c5 e8 11 3d 14 3b 50 bd f9 e3 b6 bd 3c 03 4e 3d
       0.035622377 -0.05083759 -0.08930201 0.050296053
000170 24 58 32 bc dc d3 41 3d 16 9d 15 3e 7b 23 18 3d
       -0.010885272 0.047321185 0.14610705 0.03714321
000180 88 1e 63 3d ae 8f ca 3d 7c 3b 41 3d 21 ef b6 3d
       0.05544904 0.09890686 0.04717587 0.08932329
000190 88 19 f9 bc 10 c3 cc bb a4 1c 91 3c 0e 4d 3a 3c
       -0.030407682 -0.006248839 0.017713852 0.01137091
0001a0 ba 7a 22 bc 47 2b 98 bd 98 09 49 3e 34 ec 22 bd
       -0.009916956 -0.074301295 0.19632566 -0.039776042
0001b0 a5 49 c0 3d a7 fb 60 3d 60 d3 2a 3c 2f fc 29 bd
       0.093890466 0.054927494 0.010426372 -0.041500267
0001c0 de b0 96 3d ca fc 1c 3c 4a 5e 58 3c 4e f3 3e 3d
       0.073579535 0.009581754 0.013206074 0.046618752
0001d0 cb ba fe 3d 81 54 13 bd ec d4 88 3d 65 af 84 3d
       0.12437972 -0.03596926 0.066812366 0.06478766
0001e0 7c bb 78 3d 05 ad 26 3d b8 96 04 3d 1d 71 71 3c
       0.060725674 0.040692348 0.0323703 0.014736441
0001f0 b8 60 dd 3d 5c 13 42 3c 24 8a 63 3c 9f aa d1 3d
       0.10809463 0.011845436 0.013887916 0.102376215

fc3.weight f4 [2, 128]
000000 96 53 82 3c fe 90 05 bd 26 f1 33 be ae 0c 32 bd
       0.015908998 -0.03260898 -0.1757246 -0.043469124
000010 e2 11 b6 be 30 c1 0d be 0a 00 e2 ba c3 be b2 3a
       -0.35560519 -0.13843226 -0.0017242443 0.0013637174
000020 67 6e 67 3e f3 59 97 3c 80 af f4 bd d6 ab 18 3d
       0.22600709 0.018475508 -0.119475365 0.03727325
000030 a0 26 87 3e 64 bf d7 be 8b d5 a4 bc 5c 4e 89 be
       0.26396656 -0.42138207 -0.020121356 -0.26817596
000040 1f b2 8d 3e 42 34 e7 be 42 bd 79 3e cb 1f 58 3e
       0.27674958 -0.45157057 0.24388602 0.21105878
000050 15 52 1c 3d 01 bf 1d bd 43 13 02 be 4e 58 ce bd
       0.038164217 -0.038512234 -0.1270266 -0.100754365
000060 0f 2e da be 58 bf 9e be 80 18 18 bd 10 34 53 bc
       -0.42613265 -0.3100536 -0.03713274 -0.012890831
000070 f0 0b 4a 3e a0 81 7e 3c 51 51 6b be f3 cd 46 be
       0.19731116 0.015533835 -0.22980238 -0.19414501
000080 ae 81 3f 3e 8f 17 8c bc 8f 12 ca be da 0f 59 be
       0.18701813 -0.017101077 -0.39467284 -0.21197453
000090 fa 71 4a 3e 2a 38 93 3d 90 6b 21 3e 7e 8d 4e be
       0.19770041 0.07188447 0.15763688 -0.20171162
0000a0 40 5f 65 3d 59 d7 9f be e4 eb 53 be 85 ef 44 3e
       0.05599904 -0.31218985 -0.20695454 0.19231994
0000b0 6a d7 e2 be b7 e2 f5 be bf 8f e0 bd 74 cd e0 ba
       -0.44304973 -0.48024532 -0.109649174 -0.0017151074
0000c0 d1 25 93 bd 32 71 59 3e 79 45 85 be 11 66 95 bc
       -0.07184947 0.21234587 -0.26029566 -0.018237146
0000d0 40 34 18 3e 48 58 49 3e f1 f1 2c 3d b2 01 22 3e
       0.14863682 0.19662583 0.04222292 0.15820959
0000e0 a3 6c e7 be 60 a6 0f 3e 9e 89 c6 bd 35 75 88 3c
       -0.4520007 0.14028311 -0.09694217 0.016657451
0000f0 8a 97 1a 3e 20 1f b2 3e c1 8e 3e be 36 f5 00 3e
       0.1509687 0.34789371 -0.18609144 0.1259354
000100 4c e9 8d bd 17 73 e5 3a 16 cc 4b 3e 44 9b e9 3d
       -0.069292635 0.0017505613 0.19902071 0.11406568
000110 6a 18 b1 3d 10 81 96 3e c0 27 a7 3c 1b 08 3c 3e
       0.08647235 0.29395342 0.020404696 0.18362467
000120 ef a4 f4 3d 84 52 3c 3d 73 ed b0 3d 29 d8 d1 bb
       0.11945521 0.04597713 0.0863904 -0.006403942
000130 a1 5d a7 3d a4 ac b3 be 73 d6 f3 bd 47 6c 99 3d
       0.08172155 -0.35092652 -0.11906137 0.074913554
000140 55 86 20 3e 32 97 89 3e c4 11 87 bb a6 b9 12 be
       0.15676244 0.26873165 -0.004121991 -0.14328632
000150 db 39 40 be 32 5c e3 3d fc 84 e9 3d a7 f5 0a 3e
       -0.1877207 0.11101569 0.11402318 0.13570271
000160 d5 58 ac 3d 54 27 22 3e f5 68 6c 3e 54 08 ac bd
       0.08415381 0.15835315 0.23086913 -0.08400026
000170 13 7a 17 3e 47 be 61 3d f6 c5 8c be 21 fd 24 3d
       0.14792661 0.055113103 -0.27494782 0.040280465
000180 62 97 92 bd ec 69 25 be ec 56 2d 3d 98 e6 c3 be
       -0.0715778 -0.16153687 0.042319223 -0.38261867
000190 62 18 11 be 88 6f fe be a5 8b 47 3e 18 1e c0 be
       -0.14169458 -0.49694467 0.19486864 -0.3752296
0001a0 4d ce dd be 81 cf 58 3e 0b fd 35 bc 64 1a 85 bb
       -0.43321458 0.21172906 -0.011107693 -0.004061984
0001b0 06 f8 ec bc 71 da dc 3d 0c 15 df bd 4c 85 ce be
       -0.02892686 0.10783852 -0.10892686 -0.40336072
0001c0 77 17 03 bd e3 34 3f 3c 52 10 4b be c4 c9 25 3d
       -0.0320048 0.011670324 -0.19830444 0.04047562
0001d0 a4 f9 bc bd 0b b6 55 3e 5c 17 66 3d ac 2a 43 3c
       -0.09227303 0.20870225 0.05617462 0.011912029
0001e0 fc db f2 36 95 b0 86 3c 65 5e 72 3d 46 7a 35 bd
       7.2377716e-06 0.016441623 0.059172053 -0.044306062
0001f0 14 56 ac be 45 97 0c be 62 bb 69 bd b0 17 09 be
       -0.33659422 -0.1372958 -0.057063468 -0.13387942
000200 f0 89 95 be fc ea c0 be 84 89 7f 3e 24 23 84 be
       -0.292068 -0.3767928 0.24954802 -0.2580806
000210 49 19 5d 3e 0e 8d 6d 3e 9c d4 bb be 9f 8b 96 be
       0.21591677 0.2319834 -0.36685646 -0.29403397
000220 0c d8 ba bd bf 9a 96 be 60 1d cc be b1 d6 dd 3e
       -0.09123239 -0.29414937 -0.3986616 0.4332786
000230 da 5d 36 3e 74 11 e7 3c 2e 72 c3 be a5 64 2f be
       0.17809239 0.028206564 -0.3817305 -0.17128237
000240 c0 3a 7d be fb 73 fc 3c 4a fa 45 bd 3f 54 7d be
       -0.24729443 0.030817023 -0.048334397 -0.24739169
000250 d0 bd 4b be 71 88 39 be 01 62 9d 3e b1 8f be be
       -0.19896626 -0.18118455 0.30738834 -0.37219003
000260 24 2f 0b 3e 73 bf 8c be d7 54 a2 be f6 13 d2 3e
       0.13592201 -0.27489814 -0.31705353 0.41030854
000270 58 46 2a bd 0d 00 a9 be 72 79 54 3e a3 f0 d9 3d
       -0.04157099 -0.3300785 0.20749453 0.10641601
000280 32 32 30 3d d1 29 ba 3e df 96 11 be f2 cf 7f be
       0.04301662 0.36360028 -0.14217709 -0.24981669
000290 dd 4e 8b 3e 64 9c e1 bd 1a d1 6b 3e d0 62 15 3e
       0.27208605 -0.11016157 0.23028985 0.14588475
0002a0 fc 68 27 be d9 27 a3 3b 00 0f 7d 3e 81 c1 3e bd
       -0.16348642 0.0049791154 0.24712753 -0.04657126
0002b0 41 5d cf bc 0f f1 53 3c 21 98 8b 3e c0 b4 a7 be
       -0.025313022 0.012935891 0.27264503 -0.3275509
0002c0 21 13 26 bd f2 12 00 bd da 35 8b bd 2d a1 e5 be
       -0.040545586 -0.031268068 -0.06797381 -0.4484953
0002d0 87 7d 3a be a0 08 09 be 61 86 61 3e 7d 78 73 3e
       -0.18211947 -0.13382196 0.22023918 0.23776431
0002e0 3e 9e d6 3d dc c4 37 be 77 cd 8d 3e 14 71 ac 3e
       0.10479401 -0.1794619 0.2769582 0.33680022
0002f0 25 d0 82 bd e1 71 80 3e 63 f5 81 be 12 79 9b 3e
       -0.06387357 0.25086883 -0.25382528 0.30365807
000300 57 fd c3 3d 3a df 4d be cc a3 80 bd 76 35 45 3e
       0.09569805 -0.20104685 -0.06281242 0.19258675
000310 f3 f9 59 be 7a db b6 bd b0 3c a9 be 73 48 58 be
       -0.21286754 -0.089285806 -0.33054113 -0.21121387
000320 0c 3e ae 3e 38 fe 8e 3e 76 ae 92 3e d9 ad a9 3e
       0.34031713 0.2792833 0.28648728 0.33140448
000330 bb 97 ff 3d 15 0e 18 3e f9 25 53 bd 43 52 30 be
       0.12480112 0.14849122 -0.051549885 -0.1721888
000340 5f 15 28 3d 9f ba 82 3d 38 f9 48 be cb d5 94 3e
       0.041036006 0.063832514 -0.1962632 0.2906936
000350 67 0c 77 3e 4e 05 a2 3e 6c 08 6e 3e 6c e4 33 3d
       0.24125825 0.31644672 0.232454 0.043919012
000360 0b a2 0e 3d 9b be 2b 3e d4 dc 3d 3e 45 4e 5f bd
       0.034822505 0.16771929 0.1854127 -0.054518003
000370 aa 12 6e be fc 33 84 be ea 4a 75 bb 0d b9 a6 be
       -0.23249307 -0.2582091 -0.0037428685 -0.32563058
000380 ca 0c db 3e e6 2c 76 be cb 99 9a 3d 33 43 16 3e
       0.42783195 -0.24040565 0.07548865 0.14674072
000390 df e3 50 3e 8f 92 70 3d b1 ff 93 3e e6 03 19 3e
       0.20399426 0.05873352 0.28906015 0.14942893
0003a0 42 10 cc 3d 57 2d 3d bd e3 58 ce be af a8 bc be
       0.099640384 -0.046185818 -0.4030219 -0.36847445
0003b0 75 6f b8 be f3 c7 9f 3e 35 64 e9 3e 19 a4 6e 3c
       -0.36022535 0.31207237 0.45584264 0.014565491
0003c0 74 d3 96 be 83 d4 89 be 5c 08 57 bc ba b5 81 be
       -0.294582 -0.26919946 -0.013124552 -0.2533396
0003d0 f8 3b a7 be af 4e 2f ba 0f 44 42 be 93 49 01 bf
       -0.3266294 -0.0006687445 -0.18971275 -0.5050289
0003e0 28 10 bf be 4a d7 af 3e 7b 1e 84 be f6 af 5d 3d
       -0.37317014 0.3434394 -0.25804505 0.054122888
0003f0 52 43 a2 3d 1b 3c 07 bc 8a 9c a0 be e3 6d 7d 3e
       0.079229966 -0.008254076 -0.3136943 0.2474895

fc3.bias f4 [2]
000000 d3 e7 27 3d 86 d4 24 3d
       0.04099257 0.04024174

bn1.weight f4 [256]
000000 29 02 5a 3f 8d 3f 32 3f 6b 51 55 3e 92 32 65 3f
       0.85159546 0.6962822 0.2083184 0.8953029
000010 ea 30 0e 3f d3 cf 19 3f 20 36 5c 3f a4 96 7a 3d
       0.55543387 0.6008274 0.8602009 0.06117882
000020 4a 01 4f 3e b4 e1 2f 3f 3e 7e 18 3f 42 dc 54 3f
       0.20215335 0.6870377 0.5956763 0.83148587
000030 73 53 24 3f 0b f0 02 3f 15 88 0c 3f 73 6b 63 3f
       0.64189833 0.51147527 0.54895145 0.8883583
000040 2a 45 87 3e 7e cb 39 3f 69 69 a5 3e de 8e 6b 3f
       0.26419955 0.7257613 0.32306984 0.92014873
000050 6c 00 34 3f 8d a3 5a 3e 8d 43 4b 3f 09 33 d3 3e
       0.70313144 0.21351452 0.7939995 0.41249874
000060 61 a8 4b 3f ac f9 00 3f d6 ab 3f 3f 5b ca 70 3f
       0.795538 0.5038097 0.74871576 0.9405877
000070 ff 7c 67 3f 32 d8 84 3f 3d ee d1 3e f0 d1 00 3f
       0.90425104 1.0378478 0.41002074 0.5032034
000080 b3 30 0b 3f 61 bd 44 3f b0 77 03 3f 3c a1 64 3f
       0.54371184 0.7685147 0.51354504 0.89308524
000090 b9 32 8f 3f 12 3a 82 3f 17 65 3f 3f d5 9f 09 3f
       1.1187354 1.0173972 0.74763626 0.5375951
0000a0 6e ac 82 3f f4 a7 08 3f f8 33 55 3f 0c fb 8c 3e
       1.0208871 0.53381276 0.83282423 0.27535284
0000b0 fa 29 4a 3f d1 6d 22 3e a3 2a f5 3e 05 f0 fc 3e
       0.789703 0.15862204 0.47884092 0.4940187
0000c0 4a ca 00 3f 58 8b d7 3e e6 d9 29 3f 99 cc 61 3f
       0.5030867 0.42098498 0.6634811 0.88202816
0000d0 3f 7f 6e 3f f8 85 71 3f 16 bd e1 3e da bf f9 3e
       0.9316291 0.94345045 0.44089574 0.48779184
0000e0 38 7e 02 3f a5 7a 44 3f ee 80 2f 3f c3 a8 e6 3e
       0.50973845 0.7674964 0.68556106 0.4505063
0000f0 19 51 3b 3f 82 08 8c 3e d2 5a 61 3f 89 88 46 3f
       0.7317062 0.2735024 0.88029206 0.77552086
000100 01 29 81 3f 92 b7 ae 3e e4 29 94 3e ba aa 0c 3d
       1.0090638 0.34124428 0.2893821 0.034342505
000110 95 e4 7f 3f 91 80 b4 3e fe b2 3d 3f af d9 80 3f
       0.99958163 0.35254338 0.74101245 1.0066432
000120 96 61 7c 3f d5 1e 86 3f c7 63 0a 3f 61 62 b1 3e
       0.98586404 1.0478159 0.540585 0.3464537
000130 1c 59 97 bd 9f 17 a2 3e f6 e3 2e 3f 97 52 4c 3f
       -0.07390043 0.31658646 0.6831659 0.7981352
000140 83 48 74 3e 79 de a9 3e 39 db 6a 3f 5b 47 26 3f
       0.23855786 0.33177546 0.9174076 0.6495263
000150 2f f2 c9 3e 5f aa 85 3f 5b 0a 37 3f f8 49 e5 3e
       0.39442584 1.0442618 0.71500176 0.44782996
000160 cc f1 20 3f 63 e9 8c 3e 0b 76 12 3f 7a 15 8e 3f
       0.6286895 0.2752181 0.5721137 1.1100304
000170 23 96 5e 3f 43 56 6c 3e 59 f7 44 3f 3d 2e c5 3e
       0.8694784 0.23079781 0.7693992 0.3851184
000180 c6 19 be 3e f3 ff 2d 3e 5c 97 78 3f c1 f3 4c 3f
       0.3712904 0.16992168 0.97105956 0.8005944
000190 51 0a 84 3e ef c5 b5 3e a9 33 30 3f ed f5 78 3e
       0.2578912 0.35502574 0.6882883 0.24312563
0001a0 d2 49 3e 3f 69 80 40 3e 94 d8 4b 3f 1c ba 3a 3f
       0.7433139 0.18798985 0.79627347 0.7294023
0001b0 b3 e6 f2 3e 13 c6 3a 3f 93 f5 90 3e af 11 68 3e
       0.47441635 0.7295849 0.28312358 0.22662996
0001c0 bc bd 43 3f f6 50 d3 3e 24 dc 2d 3f 31 f3 12 3f
       0.76461387 0.41272706 0.6791403 0.5740233
0001d0 47 04 3b 3e 91 26 28 3f 55 de 4e 3f 6e bd 40 3f
       0.1826335 0.6568385 0.80808 0.75289047
0001e0 eb d1 e7 3e f6 7d d6 3e 23 36 71 3f d6 fa 83 3e
       0.45277342 0.41892976 0.9422323 0.2577731
0001f0 96 b2 2b 3f 65 0f a9 3e 53 19 42 3f 97 6f 26 3f
       0.67069376 0.33019558 0.7581989 0.6501402
000200 f6 d9 20 3f 7a 37 70 3e 69 de fd 3e 4a ed 43 3e
       0.6283258 0.23458663 0.49583748 0.19133487
000210 85 9c 79 3f d0 9e 2e 3f a2 02 1e 3f 87 20 40 3f
       0.97504455 0.6821108 0.6172277 0.7504963
000220 06 e9 ba 3e fd d1 83 3f 75 5a da 3e 8e f0 40 3f
       0.36505908 1.0298458 0.42647138 0.7536706
000230 aa f2 8a 3e 43 14 a0 3f 65 aa 28 3f b4 3d 0f 3f
       0.27138263 1.2506183 0.65885 0.55953526
000240 b8 c6 16 3f cb 7d 03 3f 56 96 18 3f 81 6e 93 3e
       0.5889697 0.5136382 0.59604394 0.28795245
000250 4a ba 3b 3f de 42 85 3f 0c 90 35 3f 53 32 2e 3f
       0.7333113 1.0411031 0.70922923 0.6804554
000260 f8 b6 27 3f 5f b8 f5 bd c9 06 82 3f 5d 19 48 3f
       0.65513563 -0.119980566 1.0158321 0.781637
000270 88 53 82 3f c0 10 01 3f ad 1f 65 3e 66 f6 97 3e
       1.0181742 0.50416183 0.22375365 0.29680175
000280 e8 8c 55 3f d8 1a e8 3e 2f 18 11 3f 86 35 28 3f
       0.8341813 0.4533298 0.56677526 0.6570667
000290 ed d0 e5 3e 82 56 a5 3e ac b5 8c 3f 34 6d 4a 3f
       0.4488596 0.32292563 1.0992942 0.7907288
0002a0 e2 dc 86 3f 8b b0 70 3f 98 77 39 3f 15 6f 0e 3f
       1.0536158 0.94019383 0.7244811 0.5563825
0002b0 6b de 0c 3f a4 3d 0d 3f ea a8 10 bd f9 09 44 3f
       0.5502688 0.5517218 -0.03531734 0.7657772
0002c0 db 18 83 bd a0 3f 8c 3f 44 62 24 3f ab 40 1c 3f
       -0.06401225 1.0956917 0.6421244 0.61036175
0002d0 06 a0 6b 3f a8 d8 46 3f 1c fd 10 3f 9c 12 03 3f
       0.9204105 0.7767434 0.56636214 0.5120027
0002e0 79 ff 7b 3f 9e c8 f1 3e 76 ab f4 3e 8e 7f 32 3f
       0.98436695 0.4722337 0.47787064 0.69725883
0002f0 18 78 2a 3e cf 4a 92 3d d3 52 39 3e 00 b6 9d 3e
       0.16647375 0.07143175 0.18098001 0.30802917
000300 80 1e 82 3e bf ca 82 3f e6 e3 68 3f f5 89 15 3e
       0.25413895 1.0218123 0.90972745 0.14603408
000310 b3 29 a6 3e 47 af 27 3f 12 5e 34 3f b8 ef 8b 3f
       0.3245369 0.65501827 0.7045604 1.0932531
000320 12 48 5a 3f 1a 80 17 3f b3 cc 0d 3f 44 14 a6 3e
       0.8526622 0.5917984 0.5539047 0.32437336
000330 3d d1 75 3e e9 b7 73 3f 77 f5 b0 3e 29 fc f1 3e
       0.240056 0.952025 0.34562275 0.47262695
000340 b8 eb 8a 3f 34 6e ee 3e 86 27 3d 3e 02 f6 fc 3e
       1.0853186 0.46568453 0.18472108 0.4940644
000350 77 8e d2 3e 2e 8d 73 3f ec 3c 10 3f 61 6a ac 3e
       0.41124317 0.951373 0.5634296 0.3367491
000360 8d 83 26 3f 17 59 b1 3e 04 6e 1c 3f e5 01 76 3f
       0.6504448 0.34638283 0.6110537 0.9609664
000370 06 95 fb 3e c0 fe 7b 3e f5 f1 ee 3e 6e 94 50 3f
       0.49137133 0.24608898 0.46668974 0.81476486
000380 74 c5 4f 3f 61 85 a3 3e 58 ce 43 3f 1c 21 d2 3e
       0.81160665 0.31937698 0.7648673 0.41040885
000390 38 43 83 3f 07 17 15 3e 3c 79 6b 3f 36 be 93 3f
       1.0254889 0.14559565 0.91981864 1.1542423
0003a0 c5 16 c6 3e 67 8c e6 3e 54 85 27 3f 65 d5 4a 3f
       0.38689247 0.45028993 0.6543782 0.79231864
0003b0 d6 a9 4a 3f e0 85 2c 3f 51 67 c1 3e 07 29 7f 3f
       0.791654 0.6739178 0.37774137 0.9967198
0003c0 75 df 7c 3f 14 f4 80 3f 9f 07 66 3f b2 f1 2b 3f
       0.9877847 1.0074487 0.8985538 0.6716567
0003d0 95 b6 4a 3e 12 d1 95 3e a8 7d 50 3f 40 bd 18 3f
       0.19796212 0.2926107 0.81441736 0.5966377
0003e0 f3 85 d4 3e 26 37 4e 3e a1 ba 06 3f 9d 98 c5 3e
       0.41508445 0.20138225 0.52628523 0.38592997
0003f0 ef 0b 7f 3f 6a fe 5a 3f 81 36 07 3f a1 c8 33 3f
       0.99627584 0.85544455 0.5281754 0.7022801

bn1.bias f4 [256]
000000 84 d2 74 bd 5d e6 42 3d ff 35 33 3d 78 e0 2b 3d
       -0.059771076 0.047582973 0.043752667 0.041962117
000010 49 1b a3 3c 93 85 4b bc 90 50 6a bc 70 72 2d bd
       0.019910472 -0.012421983 -0.014301434 -0.042345464
000020 53 9e f6 3c 17 36 92 bd 36 9f 4b bd 18 b8 91 3d
       0.030104792 -0.07139223 -0.049712382 0.07115191
000030 dd 79 5e bd 57 8e 2f bd 9b 92 75 bc 86 15 19 3b
       -0.054315437 -0.042860355 -0.014988567 0.0023358776
000040 0e 33 88 bd ea df f8 3b 12 48 c8 39 db 32 fc 3d
       -0.06650363 0.007595052 0.0003820067 0.123143874
000050 1f b2 96 bb cf bd a2 3b 20 8a 8f 3d 70 c2 68 bd
       -0.0045988704 0.0049664746 0.07008767 -0.056826055
000060 43 66 bb bd 96 18 12 be 53 75 b9 bc e7 81 d2 bc
       -0.09150364 -0.14267191 -0.022638952 -0.025696708
000070 e2 ac 07 3d fe be ff bb 48 1e c7 bb bf 09 1d 3c
       0.03312386 -0.0078047505 -0.006076608 0.009584843
000080 48 ea 66 bd 6c 0d d9 3c ae eb 46 bd 05 69 b1 bc
       -0.05637577 0.026495658 -0.048564605 -0.021656523
000090 8e c1 5f 3d f8 6b 17 3d 8c 5b 6a 3d 8e 30 fe bc
       0.054627948 0.0369682 0.057216212 -0.031029012
0000a0 10 1f 90 bc ae 60 e6 bd 6e 15 15 bd 3c 85 89 bc
       -0.017592937 -0.11248909 -0.03639739 -0.016787164
0000b0 f0 07 db 3c cf a6 80 bc dd 04 21 bc 44 38 74 3c
       0.026737183 -0.01570454 -0.00982782 0.014905993
0000c0 f2 71 ac ba 03 ff f7 3c b7 5f 3b bc f4 91 c2 3c
       -0.0013156517 0.030272966 -0.011436394 0.023751236
0000d0 5a fd 10 3d 08 64 60 3c a4 78 81 bd 93 af 1f 3d
       0.035397865 0.013695724 -0.063218385 0.0389858
0000e0 af 1d 54 bd f1 63 a9 3b 42 c5 5e bb f2 5f 2e 3d
       -0.05178612 0.0051693846 -0.0033992087 0.04257197
0000f0 1d 76 97 3c ef 9c 5f 3c 93 4a 70 3d 16 59 d7 bc
       0.018488938 0.013648256 0.05866487 -0.026287597
000100 77 0b 3a 3d 5c 17 97 3c 08 14 d7 3c 4f 8b 46 3c
       0.04542109 0.018443756 0.026254669 0.012118175
000110 3e 5d 8e 3c e0 f9 90 bd 46 76 a1 3d 12 7b 9b bd
       0.017378446 -0.0707891 0.07883887 -0.07591833
000120 41 3f a2 3c a1 63 a2 bb 25 3e b6 bd 25 85 d7 bc
       0.019805552 -0.0049557243 -0.08898572 -0.026308605
000130 97 94 52 bd 0c c3 4b 3d 9a a7 89 bc d0 c0 11 3c
       -0.051411238 0.049746558 -0.016803551 0.008896068
000140 54 c3 92 3c 02 cb 84 bc 5c 19 88 bc a4 10 83 bd
       0.017915405 -0.016210083 -0.016613655 -0.06399658
000150 83 e4 cb bc 5f d9 df 3c 69 d7 53 3d 22 3b 12 3d
       -0.024889236 0.02732533 0.051719103 0.035700925
000160 df b5 5f 3d 5e ee 48 3d 95 c8 56 bd a7 e1 98 bd
       0.054616805 0.04905545 -0.052437384 -0.07464915
000170 28 03 88 3c b8 c9 ef 3d d6 ef 72 bc c5 4a 53 bd
       0.016603068 0.11708397 -0.014827689 -0.051584978
000180 cf 51 80 bc 95 a3 c5 3d 42 e1 35 3d 3a ed 6e bd
       -0.01566401 0.096503414 0.044404276 -0.058331706
000190 28 1b d7 3b 23 49 f3 3c eb c2 da 3a 59 d8 97 3c
       0.0065645166 0.02969796 0.001669017 0.01853578
0001a0 ab 52 12 3d 71 db 15 3c ab 9b 0c bd 0b b2 08 3e
       0.03572337 0.009146557 -0.034328144 0.13349168
0001b0 c5 c8 05 3c 52 36 e6 bc 7b 01 cd bc 0b 2b e5 3c
       0.008165543 -0.028102074 -0.02502512 0.027974626
0001c0 d4 8f 9c 3d 72 5b a4 3b 8e 7a 22 3d c1 9b 98 bd
       0.076446205 0.005015784 0.03966766 -0.07451583
0001d0 ae 56 f8 3c 97 95 61 3c cc cd a6 bd 78 c5 36 bc
       0.03031477 0.013768575 -0.081447214 -0.011155479
0001e0 53 61 6e 3c 42 35 8f 3c 72 18 bc 3c cf 27 00 be
       0.014549571 0.01748145 0.022960875 -0.12515186
0001f0 26 2a 28 bd c2 cb 54 bc 41 14 38 bd ad 47 13 3d
       -0.04105582 -0.012988033 -0.04494119 0.035957027
000200 19 42 67 3c 84 e2 72 bd bb 6c 0a 3d 87 cf c9 bb
       0.01411488 -0.059298053 0.0337951 -0.0061587724
000210 79 85 2f 3d 66 c1 8a bc fa 14 c0 3c 67 4f 8e 3d
       0.0428519 -0.016937923 0.023447502 0.069487385
000220 79 44 bc 3c ae ea 48 bd cd 53 62 3c 9e e2 9f 3c
       0.022981869 -0.049051933 0.013813925 0.01951724
000230 a6 21 29 bd aa 2c 25 bd 94 b9 18 bd e6 58 1d 3d
       -0.041291855 -0.040325798 -0.037286356 0.03841486
000240 8a 48 f9 3c 6b 0d 0b 3c 3b 0c 40 3d 03 5d cb 3d
       0.030430097 0.008487086 0.046886664 0.0992985
000250 a7 3c 12 bd 13 e1 86 3c 62 b4 c7 3c dc 7c 24 3d
       -0.035702374 0.016464746 0.024378005 0.040158138
000260 dc 91 d7 3d 65 4e 4c bd b0 c7 03 bd b5 09 42 bd
       0.10525867 -0.04987945 -0.03217286 -0.04737254
000270 16 5a 0e bd da e5 28 bd 82 5b ca bb 4e b0 2b bd
       -0.03475388 -0.04123483 -0.0061754594 -0.041916184
000280 14 03 10 3d a8 8f 06 bd 63 ab a4 3c e0 9a f3 bc
       0.035159186 -0.032851845 0.020101255 -0.029736936
000290 e7 f6 3a 3d 1c b6 a0 3c bf 45 e5 3c 53 a1 df bc
       0.04564562 0.019618087 0.02798736 -0.027298605
0002a0 32 53 8c 3c 2c b5 8f bc 6d 85 c2 3c 8b e7 60 3d
       0.017129514 -0.017542444 0.023745263 0.054908317
0002b0 f1 8d 5c 3d 58 ce b4 bc ba 98 d4 bc f0 a1 30 bd
       0.053846303 -0.022071049 -0.025951732 -0.043123186
0002c0 2b aa 03 bd 14 42 ed bc e0 68 63 bb 2f 52 a6 3c
       -0.032144707 -0.028962173 -0.0034699962 0.02030286
0002d0 8e dd 9c 3d ea ac 1e 3d b5 d6 ee 3c 9e 73 52 3d
       0.07659446 0.038739122 0.029155115 0.051379792
0002e0 b4 14 73 bd 59 25 a9 bc 8e b4 a4 3d c3 72 74 bd
       -0.059345916 -0.020647692 0.080422506 -0.059679758
0002f0 57 2b a9 3c 2d d5 be bd ac 43 0e 3d 47 85 cb 3d
       0.020650549 -0.09318004 0.034732506 0.0993753
000300 3b e3 68 bc 79 9d 79 3d 91 26 d8 bb 8e ab 98 3d
       -0.014214332 0.060941193 -0.0065963943 0.074545965
000310 de 2c 2b 3d a3 b6 1e bd d8 31 e2 3d d6 8b 5e 3d
       0.041790836 -0.038748395 0.11044663 0.054332577
000320 d4 2b 97 bc 0a a2 ad 3c b4 2c c4 3c eb c7 84 bd
       -0.018453516 0.02119543 0.023947097 -0.06483444
000330 b3 a1 20 bd 8f c0 11 3d 5d bd ea 3c 5c 92 b8 3c
       -0.03921671 0.03558403 0.028654749 0.022530727
000340 72 d0 17 bc b1 c0 af 3c 7e 91 a9 3d b4 a5 e5 3c
       -0.009266006 0.021454187 0.082797036 0.028033115
000350 1a 3d 40 bd 35 15 ee 3c 40 77 88 bc 24 35 4b bc
       -0.04693327 0.029062847 -0.016658425 -0.012402806
000360 ed b5 51 3d 66 60 db 3d c9 7a ba 3c b4 21 a8 bc
       0.05119889 0.10711746 0.022763627 -0.020523883
000370 34 80 59 3c 9e ea 07 bd 40 b7 97 3d b6 82 89 3d
       0.013275195 -0.033182733 0.07407999 0.06714384
000380 62 aa 99 3d 54 51 3c bd c0 89 00 3e fe a0 01 bd
       0.07503201 -0.045975998 0.12552547 -0.031647675
000390 8c 54 34 3c 5d ca 4e 3d d0 65 42 3c 9f ae e5 bc
       0.011006486 0.050485957 0.011865094 -0.028037367
0003a0 e8 39 d0 bc fe 46 89 bb 52 5e e9 bb 53 e0 a4 bc
       -0.025418237 -0.004189371 -0.0071218396 -0.020126497
0003b0 92 8d 79 3d f3 c1 68 bc 55 36 65 bc 77 65 ac bc
       0.060926028 -0.014206397 -0.013990005 -0.021044476
0003c0 c6 9b 1b 3d 05 79 74 3d d8 89 1b 3c 06 d6 04 bc
       0.037990354 0.059685726 0.009493314 -0.008107668
0003d0 c6 05 e2 bd 9d ce 6d 3b 67 38 18 3d 4b 2b ad 3c
       -0.110362574 0.0036286481 0.037163164 0.021138808
0003e0 4d 4e cc 3c cb 10 b6 3d 34 e7 24 bd 15 45 1a 3d
       0.02493968 0.08889922 -0.040259555 0.037663538
0003f0 38 fc 5a 3c 1b fc cb b9 51 b1 03 3d 50 f4 1b bb
       0.013365798 -0.0003890701 0.032151524 -0.0023796745
