critic_checkpoint1.pth (torch_old, 189858 bytes, 9 tensors)

fc1.weight f4 [256, 48]
0.13403523 0.34440786 -0.0050137974 0.19517864 0.04244419 0.122361906 -0.041470766 0.14735499
0.12785527 0.127566 0.041377027 -0.08576702 0.16410118 -0.027323682 -0.0144822905 -0.13316077
0.1262502 0.25025392 -0.017935127 0.09435315 0.033997796 -0.28813854 -0.009176652 0.15331098
-0.12578905 0.20436391 -0.042018566 -0.12944105 -0.060446244 -0.04932247 0.12909026 -0.16526337
0.17901264 0.30539763 0.06774385 0.18221268 -0.03496764 0.069747485 0.1303897 0.047499016
0.1867081 0.27043638 -0.019355675 0.19548844 -0.017063396 -0.3343115 0.003219568 0.09244421
0.14556246 -0.15987463 -0.15926227 0.12981279 -0.018483695 0.07421337 0.025193566 0.24536425
0.15683109 -0.028169831 0.10912107 0.018717289 0.09248619 -0.18859477 0.040669095 0.071563914
0.19984686 -0.023310969 0.17258571 -0.122523874 -0.08446257 -0.20678732 0.18269676 0.011125896
0.13346714 -0.25051165 -0.1561151 -0.059148714 -0.18932001 0.014241252 0.038733736 0.1737094
-0.087203786 -0.17406505 0.05620901 0.04404162 0.0042037256 -0.12433025 0.062194288 -0.009762551
-0.107106514 0.0022334768 0.053601008 -0.052609254 0.08441514 -0.02257715 -0.081583396 -0.09286749
0.16565266 -0.13113345 -0.012589676 -0.062794425 -0.1797411 -0.051203225 0.019528659 -0.027907282
-0.012638675 -0.2811288 -0.116400994 -0.21972513 -0.21659091 -0.15212592 0.15033646 -0.11298276
0.04820786 -0.33598766 -0.085008316 -0.17110114 -0.07654104 -0.22492525 -0.052403342 -0.20946796
-0.029750973 -0.12449692 -0.000916905 -0.018762855 -0.001989233 -0.17146698 -0.040320892 -0.034878522
0.030757014 -0.13063696 0.07294341 0.09958388 -0.03196083 0.03966574 -0.09095737 -0.0007178557
-0.22368793 -0.24604408 0.077281766 -0.011089733 0.155306 -0.21637155 0.14314717 -0.085511126
-0.09494215 -0.026495215 0.024979707 0.16709767 0.26543432 -0.15858626 -0.013209581 -0.011508995
-0.03813504 -0.12460292 0.10255468 -0.1463668 0.25730383 0.07225643 0.017987516 -0.118466265
0.12535203 0.038979944 0.030795984 -0.13665734 0.2774369 0.18910377 -0.053896315 0.11451892
0.08064149 0.078599006 -0.031257607 -0.0020135725 -0.05335335 -0.08102105 -0.040558066 -0.044548586
-0.03371299 0.22755392 0.10734197 -0.22153036 -0.14663765 0.096093915 0.021791916 -0.13704643
0.13282157 0.20911063 0.06710419 -0.03553963 -0.2550657 0.22619794 -0.0123651875 -0.05318902
0.08142786 0.12775719 -0.018154804 -0.040004726 -0.0006919526 0.039046038 0.030834317 0.03276062
-0.13861951 -0.05255455 0.122019365 0.08560724 -0.037991636 -0.16752218 -0.08783903 -0.09991271
-0.04398429 0.02100656 0.063660175 -0.018185275 -0.18360919 -0.4072409 -0.05115171 0.054797888
0.012186702 0.19879408 0.065307304 -0.013889119 -0.090625465 0.15301444 -0.060038585 0.012151764
-0.18231025 0.33759606 0.10960528 0.018014614 -0.06982986 -0.22295278 -0.11697788 0.07304377
-0.027463479 0.38165393 0.09036148 0.0940858 0.054607686 -0.43021113 -0.10891702 -0.07745217
0.09642331 -0.018946 0.0019993507 -0.12465731 0.07816047 -0.22813113 -0.063264966 0.0062872614
-0.028110908 0.14589888 -0.034838013 -0.074724875 0.064053185 -0.15153626 -0.03269217 -0.10625401
00000000: 8840 093e 3a56 b03e c84a a4bb e9dc 473e
00000010: f5d9 2d3d e198 fa3d 40dd 29bd 3ae4 163e
00000020: 7eec 023e a9a0 023e f57a 293d 9fa6 afbd
00000030: 240a 283e ead5 dfbc 2147 6dbc 4c5b 08be
00000040: bc47 013e 4821 803e b0ec 92bc 393c c13d
00000050: 4641 0b3d e586 93be ab59 16bc 8efd 1c3e
00000060: d8ce 00be c644 513e a91b 2cbd 328c 04be
00000070: 7b96 77bd 5c06 4abd 3d30 043e cd3a 29be
00000080: 174f 373e 145d 9c3e 4abd 8a3d f695 3a3e
00000090: 3a3a 0fbd c5d7 8e3d e184 053e 548e 423d
000000a0: 6830 3f3e a376 8a3e cb8f 9ebc 1f2e 483e
000000b0: 89c8 8bbc e02a abbe 63ff 523b 6453 bd3d
000000c0: 530e 153e 2db6 23be a615 23be a5ed 043e
000000d0: 1e6b 97bc 2efd 973d bd62 ce3c c440 7b3e
000000e0: 5498 203e 6bc4 e6bc de7a df3d 0055 993c
000000f0: 6669 bd3d fd1e 41be a394 263d 1a90 923d
00000100: a8a4 4c3e a5f6 bebc 4fba 303e cced fabd
00000110: b6fa acbd 0ec0 53be dc14 3b3e 6449 363c
00000120: 9cab 083e 1043 80be a3dc 1fbe ec45 72bd
00000130: 1bdd 41be 2454 693c 44a7 1e3d e1e0 313e
00000140: e697 b2bd 1c3e 32be 6b3b 663d fc64 343d
00000150: 68bf 893b dca0 febd 70bf 7e3d 1bf3 1fbc
00000160: a95a dbbd 865f 123b bb8c 5b3d cd7c 57bd
00000170: d8e1 ac3d b7f3 b8bc 3215 a7bd 5031 bebd
00000180: daa0 293e d947 06be ee44 4ebc 5d9a 80bd
00000190: 0d0e 38be 79ba 51bd 91fa 9f3c d09d e4bc
000001a0: 7212 4fbc 1df0 8fbe a563 eebd a0ff 60be
000001b0: 02ca 5dbe e6c6 1bbe cdf1 193e 8163 e7bd
000001c0: 9b75 453d 9306 acbe d718 aebd 2335 2fbe
000001d0: 8cc1 9cbd ce52 66be e3a4 56bd c57e 56be
000001e0: 50b8 f3bc 3ef8 febd 745c 70ba 8fb4 99bc
000001f0: cb5d 02bb 0a95 2fbe 8527 25bd c8dc 0ebd
00000200: 22f6 fb3c b2c5 05be 5b63 953d a2f2 cb3d
00000210: 5ce9 02bd 8b78 223d dc47 babd 7b2e 3cba
00000220: 730e 65be fbf2 7bbe e745 9e3d b6b1 35bc
00000230: 8908 1f3e 8190 5dbe 2c95 123e 7520 afbd
00000240: 0871 c2bd 7e0c d9bc 3ea2 cc3c a71b 2b3e
00000250: 02e7 873e 7064 22be 006d 58bc 3990 3cbc
00000260: 7d33 1cbd d12f ffbd 3008 d23d 2ee1 15be
00000270: 54bd 833e 2efb 933d 8e5a 933c 719e f2bd
00000280: 485c 003e 6fa9 1f3d dc47 fc3c e7ef 0bbe
00000290: 360c 8e3e 6ba4 413e 62c2 5cbd e588 ea3d
000002a0: 5e27 a53d 84f8 a03d fa07 00bd 24f6 03bb
000002b0: 0b89 5abd 5dee a5bd 3720 26bd 9478 36bd
000002c0: a216 0abd e503 693e 1bd6 db3d dbd8 62be
000002d0: 2e28 16be e3cc c43d f684 b23c e655 0cbe
000002e0: 6102 083e 1921 563e ec6d 893d 0192 11bd
000002f0: f997 82be 6fa0 673e 5b97 4abc bbdc 59bd
00000300: a6c3 a63d c8d2 023e 62b9 94bc ffdb 23bd
00000310: 2764 35ba bdee 1f3d 4098 fc3c 0030 063d
00000320: 46f2 0dbe 7143 57bd 4ae5 f93d d952 af3d
00000330: 1e9d 1bbd ef8a 2bbe f3e4 b3bd 099f ccbd
00000340: df28 34bd f315 ac3c 4460 823d 49f9 94bc
00000350: 0c04 3cbe e181 d0be 7584 51bd c073 603d
00000360: bcaa 473c ad90 4b3e d6bf 853d 308f 63bc
00000370: d899 b9bd d1af 1c3e 05eb 75bd 3118 473c
00000380: 8aaf 3abe 64d9 ac3e bc78 e03d 6293 933c
00000390: f502 8fbd bc4d 64be 1992 efbd f997 953d
000003a0: 17fb e0bc 2568 c33e 710f b93d 0eb0 c03d
000003b0: 4fac 5f3d a244 dcbe e30f dfbd 3e9f 9ebd
000003c0: 9679 c53d a434 9bbc 8a07 033b 554c ffbd
000003d0: 9912 a03d 359b 69be 1091 81bd 5f05 ce3b
000003e0: d948 e6bc 8466 153e 4eb2 0ebd 5b09 99bd
000003f0: 512e 833d 522c 1bbe 3ae8 05bd b49b d9bd

fc1.bias f4 [256]
-0.1008311 0.060878564 -0.064935096 -0.040745936 -0.047490932 -0.18441604 0.08066974 -0.002783147
-0.16813603 -0.05106116 -0.080053404 -0.020602435 -0.00177468 -0.15061751 -0.19199608 -0.14598474
-0.052487634 -0.052238517 -0.117106564 0.033976845 -0.020203818 -0.1643535 -0.30621067 0.20113394
-0.16091196 0.0068997997 -0.08539351 0.15634927 0.034653995 -0.0855462 -0.28952068 -0.17542207
-0.034241322 -0.16063714 -0.07705571 -0.11169822 -0.11689857 0.030920262 -0.16894147 0.03638741
-0.11218139 0.056466565 -0.063261636 -0.37081546 -0.12260308 -0.04059129 -0.06194004 -0.20253155
-0.2578504 -0.14744206 -0.09301604 0.019785156 -0.09515592 -0.08242088 -0.07791501 0.053158343
0.06800492 0.01998433 -0.1013665 0.09858257 -0.17877108 0.12642972 0.06752437 0.025549157
0.010550716 0.13654533 0.050574757 -0.1321322 0.015050296 0.007531099 -0.08041655 -0.054818362
0.1507517 0.12593424 0.06383026 0.0057316865 0.02315317 0.0026905804 -0.15272556 0.19251813
-0.151068 0.14745909 -0.066586584 -0.11524707 -0.11586426 -0.1986058 -0.17444804 0.058692556
0.01505206 -0.006789782 -0.25443435 0.020769782 0.12018475 0.10068087 -0.05301036 -0.038181014
-0.10596404 -0.03622046 0.10085594 -0.06487327 -0.3371492 -0.24844582 -0.119532324 -0.09148015
-0.09245284 -0.050640985 -0.15443118 0.1405035 -0.026280496 -0.17366593 -0.18507664 -0.09783302
-0.34395334 -0.055927847 -0.34789902 0.016592538 -0.069531746 -0.10875925 -0.006209066 -0.09044793
-0.13076617 0.05455343 0.036863975 -0.17887494 -0.043971468 0.056878358 -0.08702788 0.08985466
-0.062472425 0.2092627 -0.24735965 -0.070340954 -0.18784165 -0.021985974 -0.04505984 -0.17199524
-0.07582503 -0.18655641 0.108608715 -0.055144098 0.05131459 0.19927283 0.06679705 0.08242625
-0.061480716 -0.17443676 0.012879826 0.059208658 0.050850596 0.02313468 0.08482779 -0.03586305
-0.016834436 -0.09224668 -0.15829085 -0.13987538 -0.1582704 -0.12841742 0.1679389 -0.16847737
-0.20880961 -0.090165086 0.06484648 -0.17526475 -0.23948784 -0.014455489 -0.02665225 -0.10285217
0.028680492 -0.090839125 -0.00476979 0.067707784 -0.17756893 -0.2563616 -0.112598054 -0.14496878
0.061214633 -0.07610851 -0.029523471 -0.169129 -0.0044606356 0.16419299 0.068704024 0.081948146
0.12880881 0.09246933 -0.118082725 -0.16775388 0.051690575 -0.083939716 0.06534933 -0.10038096
-0.025768248 -0.23868313 -0.10087204 0.027121631 -0.0061003943 -0.013258396 -0.021764727 -0.03147312
0.057076566 -0.075254954 -0.27016354 -0.04619639 0.019474043 -0.17920642 -0.16189378 -0.032406785
-0.0011167957 0.072624594 -0.16073465 -0.097487964 -0.14081557 0.059997994 -0.00955625 -0.32125735
0.06516881 -0.12634335 0.044788055 -0.021110773 -0.113205954 -0.009852066 0.04268641 -0.08520634
-0.092498176 0.13970298 -0.019484987 -0.05970801 -0.23582317 -0.015637562 -0.28312078 -0.23986925
-0.031217234 -0.2180879 0.092755765 -0.2600008 -0.18166852 0.14184333 0.0049009407 -0.15724185
0.016101725 -0.19979268 -0.1572795 -0.16266462 -0.19890906 -0.12993307 0.18314126 -0.042113975
0.0046736337 -0.20630893 -0.11200571 0.029583294 -0.043096345 -0.053932413 0.08555573 -0.18530902
00000000: 8980 cebd cd5b 793d b1fc 84bd 36e5 26bd
00000010: da85 42bd 8fd7 3cbe 2d36 a53d 7565 36bb
00000020: da2b 2cbe 8225 51bd 0af3 a3bd 70c6 a8bc
00000030: 619c e8ba 7a3b 1abe 9f9a 44be 067d 15be
00000040: 46fd 56bd 0ef8 55bd 91d5 efbd 4e2b 0b3d
00000050: 7a82 a5bc 494c 28be a5c7 9cbe 0ef6 4d3e
00000060: 1bc6 24be b717 e23b cbe2 aebd 061a 203e
00000070: 59f1 0d3d d932 afbd 0e3c 94be d8a1 33be
00000080: a140 0cbd 107e 24be 62cf 9dbd 09c2 e4bd
00000090: 8468 efbd 7d4c fd3c fefe 2cbe f70a 153d
000000a0: 5bbf e5bd 7c49 673d 518f 81bd 86db bdbe
000000b0: 5317 fbbd 0d43 26bd d7b4 7dbd 6e64 4fbe
000000c0: f804 84be 0dfb 16be 327f bebd 7b14 a23c
000000d0: 1be1 c2bd 47cc a8bd e891 9fbd 90bc 593d
000000e0: 2a46 8b3d 2db6 a33c 3d99 cfbd a9e5 c93d
000000f0: c40f 37be cb76 013e 384a 8a3d 774c d13c
00000100: e9dc 2c3c 8ad2 0b3e 7a27 4f3d aa4d 07be
00000110: 8495 763c 70c7 f63b 6fb1 a4bd 3889 60bd
00000120: a75e 1a3e e8f4 003e 70b9 823d dfd0 bb3b
00000130: b7ab bd3c 7354 303b 1764 1cbe 7923 453e
00000140: 92b1 1abe 84ff 163e 8c5e 88bd a806 ecbd
00000150: 3e4a edbd 525f 4bbe 82a2 32be 9b67 703d
00000160: ea9c 763c d27c debb 3845 82be 6425 aa3c
00000170: 6c23 f63d c631 ce3d 6421 59bd b263 1cbd
00000180: ad03 d9bd e85b 14bd 8f8d ce3d 47dc 84bd
00000190: d29e acbe 9568 7ebe 5dcd f4bd f259 bbbd
000001a0: ea57 bdbd ec6c 4fbd 3523 1ebe 26e0 0f3e
000001b0: 324a d7bc 7bd5 31be bb84 3dbe ae5c c8bd
000001c0: a71a b0be 9914 65bd d21f b2be 13ed 873c
000001d0: a966 8ebd 2bbd debd 6c75 cbbb c43c b9bd
000001e0: 91e7 05be 6b73 5f3d aefe 163d fe2a 37be
000001f0: 6d1b 34bd 48f9 683d ac3b b2bd b805 b83d
00000200: 16e3 7fbd f648 563e d94b 7dbe eb0e 90bd
00000210: 9059 40be ee1b b4bc ab90 38bd 851f 30be
00000220: 274a 9bbd a508 3fbe 3f6e de3d c7de 61bd
00000230: 3f2f 523d 2d0e 4c3e e4cc 883d 18cf a83d
00000240: 34d3 7bbd 8d9f 32be e805 533c c784 723d
00000250: b748 503d f184 bd3c 31ba ad3d 22e5 12bd
00000260: 5fe8 89bc d4eb bcbd ff16 22be 7e3b 0fbe
00000270: a311 22be db7f 03be 2df8 2b3e 5585 2cbe
00000280: 30d2 55be 79a8 b8bd 3bce 843d 9a78 33be
00000290: 4d3c 75be b7d6 6cbc d255 dabc 29a4 d2bd
000002a0: 5af3 ea3c dd09 babd e64b 9cbb 61aa 8a3d
000002b0: a1d4 35be d441 83be cf99 e6bd b272 14be
000002c0: 32bc 7a3d c7de 9bbd 35db f1bc 2730 2dbe
000002d0: 862a 92bb 3522 283e b2b4 8c3d 6ed4 a73d
000002e0: 75e6 033e 8f60 bd3d 5bd5 f1bd acc7 2bbe
000002f0: 7fb9 533d 96e8 abbd dfd5 853d 8894 cdbd
00000300: ef17 d3bc 5a69 74be 0096 cebd 2f2e de3c
00000310: d1e5 c7bb be39 59bc f14b b2bc f5e9 00bd
00000320: 1ec9 693d 451f 9abd e052 8abe 6d38 3dbd
00000330: 0788 9f3c e381 37be 7cc7 25be fabc 04bd
00000340: 7261 92ba 34bc 943d a097 24be c5a7 c7bd
00000350: f531 10be 75c0 753d d191 1cbc d87b a4be
00000360: 3a77 853d 2760 01be ae73 373d 80f0 acbc
00000370: 86d8 e7bd 8f6a 21bc f2d7 2e3d a980 aebd
00000380: af6f bdbd 4c0e 0f3e fb9e 9fbc 6390 74bd
00000390: a17b 71be 581a 80bc 35f5 90be 49a0 75be
000003a0: 49bb ffbc 6f52 5fbe bcf6 bd3d d31e 85be
000003b0: 5007 3abe 613f 113e 1298 a03b 0204 21be
000003c0: c4e7 833c 7496 4cbe e10d 21be 8e91 26be
000003d0: d1ae 4bbe 2d0d 05be 6289 3b3e b47f 2cbd
000003e0: 4825 993b a642 53be 4063 e5bd aa58 f23c
000003f0: cb85 30bd 3ce8 5cbd d837 af3d a6c1 3dbe

fc2.weight f4 [128, 260]
-0.0063457103 0.047638696 -0.022693386 0.07469707 -0.04024845 -0.049242906 -0.032054275 -0.060646664
-0.031396545 0.041743033 -0.012670383 -0.0764568 0.009304036 -0.25595334 0.057871222 0.008458429
0.2832738 0.13563439 -0.04112772 -0.04417981 -0.109420955 -0.0122765135 0.04338782 0.015560139
-0.0030745962 0.043250687 0.025119636 -0.05576119 -0.12798749 0.02049373 -0.050376393 -0.054664906
-0.09183161 0.030056454 0.14818549 0.02619244 0.023970168 0.025153788 0.011837617 -0.0085868975
0.020667994 0.008254427 0.027287425 -0.053992447 -0.0061685815 0.019710617 -0.082255036 -0.023135537
0.04392103 -0.027144408 0.02423626 -0.022063194 0.0066756736 -0.016990192 0.06711217 0.05057587
-0.006279455 0.044241745 -0.027687596 0.052884266 -0.012358185 -0.011512666 -0.03277823 0.010395878
0.12036576 0.16525543 -0.015041293 -0.102221504 -0.039706748 -0.010474821 -0.08104478 0.04245563
0.2958387 0.023285223 0.037664138 0.015734095 0.05102357 0.0011605811 0.011484883 0.058209743
0.030404676 -0.0048258253 0.11207244 0.0031795688 -0.006043099 -0.049455646 0.035104793 -0.0021676167
-0.03369176 0.049355384 0.03231722 0.03474933 0.024993414 0.021269381 -0.050398514 0.037668467
-0.026916709 -0.058324784 0.054437086 -0.02331416 0.020421678 -0.005552927 -0.017801113 -0.013143035
-0.018069934 0.043395467 0.01147993 -0.081145346 0.050655812 0.04378034 0.02201015 0.03556273
0.04362277 0.024131464 -0.008179354 0.17593488 0.04921771 0.051031794 -0.086965874 0.0033072133
-0.037975013 -0.0058298255 -0.023382742 -0.007631301 -0.0075875362 0.016764266 0.03155054 0.14215395
-0.09675932 -0.009528598 0.039779752 0.0013559437 0.02366266 0.037367303 -0.009622351 -0.024946462
0.008236115 0.026688566 0.057175387 -0.04008889 0.048938368 0.04697628 -0.0023114223 0.024472738
0.01653527 0.059923224 0.034085058 0.027177399 -0.007180541 -0.0018562624 -0.00480741 -0.21088715
-0.024000358 0.03021426 0.0252994 0.031123051 0.32314286 0.03854207 0.05194163 -0.046510953
-0.24285346 -0.05592459 0.051106945 0.045321945 -0.006912346 -0.15103363 0.058128577 0.019526793
0.0819097 0.03748763 -0.0023718525 -0.027656043 0.07302134 -0.057988882 -0.050020657 0.054134015
-0.0726668 -0.0120894965 -0.0061358227 -0.18005322 -0.021921718 0.023846399 0.025527768 -0.036403313
0.026079817 -0.04161589 -0.06273656 -0.04789954 -0.056578968 -0.014851967 -0.06292807 -0.037561867
0.05225497 -0.03853861 -0.013697479 0.0053530643 -0.0068870904 0.017174246 0.014844164 -0.014486006
0.063491695 0.0073500816 0.03903536 -0.015306355 -0.039158665 -0.014104587 -0.0721184 -0.01732574
0.10010022 -0.056104694 0.06584053 -0.008104494 -0.011529133 -0.026591195 0.038443387 -0.040923133
0.10068404 -0.10502008 -0.024826827 0.017465621 0.049239777 -0.047047064 -0.025030987 0.03541545
-0.15987068 0.008212073 0.06231734 0.004283406 -0.023293275 0.06876411 -0.05158159 -0.43472415
0.015651565 -0.057815596 0.043841314 -0.15613003 -0.009424252 -0.17012379 0.10271066 -0.1591689
-0.0076194555 -0.061234985 -0.27111983 0.07488075 0.014286576 -0.04575131 -0.057518244 0.007339154
0.074980624 -0.046972096 0.07336962 0.18111724 0.030402198 0.0023956287 0.0022208174 0.03363049
00000000: adef cfbb cb20 433d 7be7 b9bc c7fa 983d
00000010: 8fdb 24bd eeb2 49bd 584b 03bd a368 78bd
00000020: aa99 00bd befa 2a3d 7097 4fbc 6295 9cbd
00000030: f56f 183c 510c 83be 600a 6d3d 3995 0a3c
00000040: 4309 913e bee3 0a3e 8a75 28bd e3f5 34bd
00000050: 1818 e0bd 6e23 49bc 6db7 313d f4ef 7e3c
00000060: 2a7f 49bb a227 313d b2c7 cd3c d865 64bd
00000070: 270f 03be 78e2 a73c 7a57 4ebd 4fe8 5fbd
00000080: 3612 bcbd f438 f63c f0bd 173e 8791 d63c
00000090: 165d c43c 510f ce3c 90f2 413c 0fb0 0cbc
000000a0: ed4f a93c 943d 073c e189 df3c 2f27 5dbd
000000b0: d021 cabb 2978 a13c 5475 a8bd bd86 bdbc
000000c0: 8ae6 333d f35d debc 1f8b c63c dfbd b4bc
000000d0: 9cbf da3b 042f 8bbc 1b72 893d a528 4f3d
000000e0: e3c3 cdbb d536 353d 19d1 e2bc 2c9d 583d
000000f0: fc79 4abc 9f9f 3cbc 7742 06bd 7953 2a3c
00000100: 5382 f63d b838 293e c16f 76bc 8259 d1bd
00000110: 8ba3 22bd 959e 2bbc cefa a5bd f4e5 2d3d
00000120: 2c78 973e a7c0 be3c b645 1a3d cae4 803c
00000130: 17fe 503d a41e 983a 172b 3c3c 576d 6e3d
00000140: 3a13 f93c f521 9ebb 3c86 e53d 5060 503b
00000150: 3005 c6bb 0192 4abd 0bca 0f3d 930e 0ebb
00000160: 5f00 0abd df28 4a3d 105f 043d 5055 0e3d
00000170: fdbe cc3c 203d ae3c ac6e 4ebd 404a 1a3d
00000180: 6e80 dcbc f8e5 6ebd 6cf9 5e3d 56fd bebc
00000190: 5d4b a73c 54f5 b5bb a4d3 91bc e255 57bc
000001a0: 6607 94bc 72bf 313d 5116 3c3c 882f a6bd
000001b0: 787c 4f3d 0453 333d a14e b43c 3aaa 113d
000001c0: caad 323d 59af c53c b202 06bc 4628 343e
000001d0: 8298 493d b706 513d 2a1b b2bd d5bd 583b
000001e0: b08b 1bbd 1f08 bfbb 2a8d bfbc fe0f fabb
000001f0: dea0 f8bb 3755 893c 243b 013d ce90 113e
00000200: c029 c6bd d61d 1cbc 18f0 223d ecb9 b13a
00000210: 32d8 c13c 750e 193d 11a7 1dbc 865c ccbc
00000220: c5f0 063c fba1 da3c bd30 6a3d 3f34 24bd
00000230: 9973 483d 336a 403d 3b7b 17bb 0d7b c83c
00000240: f974 873c 0e72 753d c69c 0b3d 23a3 de3c
00000250: be4a ebbb d54d f3ba 7a87 9dbb cdf2 57be
00000260: 669c c4bc e583 f73c b040 cf3c c5f5 fe3c
00000270: fb72 a53e 4ade 1d3d bfc0 543d 4582 3ebd
00000280: 94ae 78be 2f11 65bd 8455 513d 81a3 393d
00000290: f680 e2bb 8fa8 1abe 3b18 6e3d a7f6 9f3c
000002a0: 46c0 a73d a18c 193d 1571 1bbb ed8e e2bc
000002b0: 368c 953d c085 6dbd 76e2 4cbd a1bb 5d3d
000002c0: 55d2 94bd 0613 46bc 030f c9bb df5f 38be
000002d0: 2d95 b3bc 8659 c33c 9c1f d13c a41b 15bd
000002e0: 57a5 d53c 6c75 2abd 077c 80bd 4f32 44bd
000002f0: 59bf 67bd aa55 73bc 6fe0 80bd 79da 19bd
00000300: 4f09 563d a9da 1dbd 646b 60bc c268 af3b
00000310: 1aad e1bb 01b1 8c3c f034 733c b756 6dbc
00000320: ef07 823d f4d8 f03b 8be3 1f3d 82c7 7abc
00000330: d664 20bd ed16 67bc d0b2 93bd b6ee 8dbc
00000340: 5801 cd3d 09ce 65bd 66d7 863d b6c8 04bc
00000350: b0e4 3cbc c7d5 d9bc d076 1d3d 049f 27bd
00000360: 6f33 ce3d c514 d7bd a161 cbbc 1014 8f3c
00000370: a6af 493d 6cb4 40bd c90d cdbc ca0f 113d
00000380: 24b5 23be ee8b 063c 7840 7f3d d05b 8c3b
00000390: 8ad1 bebc 33d4 8c3d 3847 53bd 2a94 debe
000003a0: b637 803c 0cd0 6cbd f392 333d 8de0 1fbe
000003b0: 2e68 1abc ee34 2ebe f759 d23d 2cfd 22be
000003c0: a0ac f9bb 89d1 7abd 38d0 8abe 145b 993d
000003d0: 3e12 6a3c ba65 3bbd 4098 6bbd 497d f03b
000003e0: 718f 993d d065 40bd d042 963d cc76 393e
000003f0: 080e f93c fbff 1c3b 228b 113b 20c0 093d

fc2.bias f4 [128]
-0.11280452 -0.07515312 -0.1575613 -0.13403592 -0.08433955 -0.12190729 -0.14460626 -0.041753247
0.049826812 -0.050091807 -0.15447353 -0.05639256 -0.095393196 -0.15020888 -0.12628794 -0.10644901
-0.029794166 -0.09799493 -0.10182736 -0.1434228 -0.04952763 -0.122659676 -0.102512605 -0.058044054
-0.047287498 -0.10196001 -0.16303252 -0.08352002 -0.12828237 -0.03100448 -0.14144388 -0.026284046
0.03285936 -0.16751963 -0.13134068 -0.116824724 -0.08536545 -0.1259504 -0.1619824 -0.09571814
-0.12271595 -0.1723446 -0.1135071 -0.15139851 -0.17526138 -0.108124815 -0.08733283 -0.1503745
-0.020920295 -0.08761876 -0.17278492 -0.14055322 -0.11411395 -0.12561661 -0.08488709 -0.08631601
-0.031662166 -0.21317698 -0.11479464 -0.13346802 -0.11017423 -0.06033186 -0.16855155 -0.07493215
-0.11455612 -0.042635527 -0.11917058 -0.045241352 -0.09414953 -0.13117982 -0.094577916 -0.17154256
-0.18208608 -0.10667929 -0.13635749 -0.12347738 -0.03467678 -0.14567408 -0.20414859 -0.059118163
-0.1039785 -0.11141121 -0.15098995 -0.07544804 -0.14497854 -0.07305587 -0.01192009 -0.10566522
-0.11886504 -0.10615387 -0.07935639 0.017240334 -0.016299168 0.0027509409 -0.028800702 -0.21232708
-0.12935331 -0.09894303 -0.15769717 -0.13044487 -0.025221314 -0.1373768 -0.10290744 -0.096572354
-0.119389854 -0.09332134 -0.16358137 -0.13654457 -0.085224934 -0.116663024 -0.08263399 -0.06655541
-0.028362071 -0.12957627 -0.10732901 0.07039935 -0.03659238 -0.11134641 -0.06371048 -0.042710237
-0.025117729 -0.09710908 -0.014906201 -0.17243911 -0.041058425 -0.20775226 -0.07569605 -0.15868446
00000000: 0e06 e7bd e1e9 99bd c057 21be b640 09be
00000010: 37ba acbd 87aa f9bd aa13 14be 7405 2bbd
00000020: 3317 4c3d 112d 4dbd 4f2e 1ebe e3fb 66bd
00000030: 825d c3bd 5bd0 19be a051 01be f001 dabd
00000040: e512 f4bc 91b1 c8bd dd8a d0bd 6ddd 12be
00000050: 7cdd 4abd ff34 fbbd 21f2 d1bd 9abf 6dbd
00000060: 89b0 41bd 69d0 d0bd fff1 26be 8b0c abbd
00000070: 745c 03be 1bfd fdbc aad6 10be a451 d7bc
00000080: 8997 063d 448a 2bbe 2c7e 06be cd41 efbd
00000090: 15d4 aebd 24f9 00be b7de 25be df07 c4bd
000000a0: 8052 fbbd 1a7b 30be 6976 e8bd 3608 1bbe
000000b0: b877 33be 8b70 ddbd 8edb b2bd c6fb 19be
000000c0: 0a61 abbc 7771 b3bd 88ee 30be 2fed 0fbe
000000d0: 93b4 e9bd a4a1 00be 48d9 adbd 73c6 b0bd
000000e0: 30b0 01bd 114b 5abe 7419 ebbd d7ab 08be
000000f0: 07a3 e1bd 8a1e 77bd c798 2cbe 0776 99bd
00000100: 669c eabd 97a2 2ebd b40f f4bd ff4e 39bd
00000110: 78d1 c0bd 0154 06be 11b2 c1bd daa8 2fbe
00000120: c674 3abe ac7a dabd 4ca1 0bbe b5e1 fcbd
00000130: 3d09 0ebd 962b 15be 540c 51be e325 72bd
00000140: aef2 d4bd 8f2b e4bd 1c9d 1abe 8184 9abd
00000150: 4175 14be 519e 95bd 7b4c 43bc 0267 d8bd
00000160: 846f f3bd 3367 d9bd 9a85 a2bd 9a3b 8d3c
00000170: d585 85bc 2149 343b 73ef ebbc 456c 59be
00000180: 3275 04be a5a2 cabd 5e7b 21be 5793 05be
00000190: ee9c cebc 81ac 0cbe 23c1 d2bd bac7 c5bd
000001a0: ab82 f4bd 421f bfbd e081 27be 57d2 0bbe
000001b0: 698a aebd 06ed eebd 023c a9bd 344e 88bd
000001c0: 9357 e8bc a4af 04be 50cf dbbd 892d 903d
000001d0: e4e1 15bd 9609 e4bd a47a 82bd eef0 2ebd
000001e0: b2c3 cdbc 20e1 c6bd 2339 74bc e193 30be
000001f0: e12c 28bd 02bd 54be 8806 9bbd 2e7e 22be

fc3.weight f4 [1, 128]
0.08995365 -0.036142446 0.05772191 -0.057384692 0.020437254 -0.051976174 0.102253385 -0.05550967
0.025528962 -0.049429823 -0.034292556 0.03081078 -0.022956053 -0.0784208 -0.048782274 -0.064275965
0.02152763 -0.062194344 0.023867756 -0.021618221 0.012262609 -0.050096963 0.060465537 0.026445884
0.058584765 -0.030756718 0.08292788 -0.027850263 -0.040488455 0.027687134 0.014291822 0.02901426
0.02074758 0.0936852 -0.07653735 -0.017946716 0.039806522 0.024285298 -0.014178905 0.022518849
-0.06073165 -0.11567787 -0.049338873 0.0977444 -0.046364903 -0.024926217 -0.06247136 -0.02614646
0.029810762 -0.03124724 -0.020722546 -0.083794765 -0.047877606 0.028920583 -0.03000545 0.029371431
-0.04197049 0.09909957 -0.073413804 0.026620705 0.05509836 -0.09124137 -0.054051574 -0.06563798
0.014972757 0.07207739 -0.051106583 -0.047931686 0.021113964 0.048524484 -0.02652532 -0.06797898
-0.029255368 -0.12896225 0.0158475 -0.013754693 0.016111007 0.020229772 -0.02833689 0.010365973
0.038211953 0.0461918 -0.03890025 -0.066184826 0.11519358 -0.044682577 0.05066265 -0.120567046
0.036913622 -0.02191777 -0.030719167 0.00959433 0.022145504 0.02488362 0.013776964 0.19191885
-0.04964424 -0.024392644 0.03800544 -0.1215751 0.024294468 -0.020484224 0.04849227 -0.04944077
0.059147142 0.052325703 -0.08409838 0.06955614 -0.029063903 -0.035702962 0.032103714 -0.039548106
0.016120298 -0.013172507 -0.015249365 0.021377638 -0.037731092 -0.027474133 -0.06908585 0.026597
0.02027816 -0.048653696 -0.035345383 -0.13205492 0.029083481 0.014883544 0.024811296 -0.03355898
00000000: 9f39 b83d 1a0a 14bd cf6d 6c3d 360c 6bbd
00000010: 076c a73c f8e4 54bd 396a d13d 1c5e 63bd
00000020: 1d22 d13c ed76 4abd 5a76 0cbd e466 fc3c
00000030: 550e bcbc 169b a0bd eccf 47bd 1ea3 83bd
00000040: b65a b03c 7fbf 7ebd 5086 c33c b218 b1bc
00000050: 1ce9 483c 7932 4dbd b6aa 773d 0aa5 d83c
00000060: 94f6 6f3d 83f5 fbbc 18d6 a93d 3c26 e4bc
00000070: 39d7 25bd 21d0 e23c 3f28 6a3c 50af ed3c
00000080: d4f6 a93c 07de bf3d 9dbf 9cbd fe04 93bc
00000090: 2a0c 233d f6f1 c63c a34e 68bc 7379 b83c
000000a0: c0c1 78bd 85e8 ecbd 8f17 4abd 372e c83d
000000b0: 20e9 3dbd 1132 ccbc f8e1 7fbd 1a31 d6bc
000000c0: b335 f43c 36fa ffbc 54c2 a9bc 979c abbd
000000d0: 4f1b 44bd dcea ec3c fdcd f5bc 5b9c f03c
000000e0: 40e9 2bbd b7f4 ca3d fa59 96bd aa13 da3c
000000f0: d1ae 613d c1dc babd 2f65 5dbd 356d 86bd
00000100: 4b50 753c 509d 933d 2355 51bd 0454 44bd
00000110: 31f7 ac3c 9cc1 463d a14b d9bc 9038 8bbd
00000120: f4a8 efbc ae0e 04be 9ed2 813c 5d5b 61bc
00000130: 3bfb 833c e8b8 a53c c422 e8bc 0bd6 293c
00000140: 2384 1c3d 9d33 3d3d de55 1fbd e98b 87bd
00000150: 9dea eb3d 1405 37bd a483 4f3d dbeb f6bd
00000160: bd32 173d e58c b3bc c3a6 fbbc 8931 1d3c
00000170: 7d6a b53c bcd8 cb3c c6b8 613c 6086 443e
00000180: c257 4bbd 15d3 c7bc 98ab 1b3d 5efc f8bd
00000190: 3105 c73c 88ce a7bc d59f 463d 6882 4abd
000001a0: 4644 723d 7a53 563d c53b acbd 7373 8e3d
000001b0: 6c17 eebc 453d 12bd 2f7f 033d 32fd 21bd
000001c0: b70e 843c 80d1 57bc 79d8 79bc 2820 af3c
000001d0: eb8b 1abd 6f11 e1bc e27c 8dbd f4e1 d93c
000001e0: 621e a63c 1949 47bd 52c6 10bd 6839 07be
000001f0: 7b40 ee3c 1cda 733c 0f41 cb3c 2475 09bd

bn1.weight f4 [256]
0.23451184 0.5091748 0.45622694 0.18522137 0.8636056 0.41625625 0.47617444 0.021992266
0.23310447 0.30540764 0.09531872 0.33197993 0.4765214 0.29599908 0.1825929 0.15298353
0.98940325 0.076864585 0.2440079 0.28908452 0.18924904 0.5239295 0.4303501 0.5396911
0.36846656 0.24197528 0.5274823 0.4776433 0.37261918 0.3579753 0.37727356 0.5971315
0.3802106 0.23938647 0.5691637 0.3165943 0.20589206 0.20338005 0.65731484 0.25854555
0.16659984 0.14225316 0.20091209 0.5608513 -0.097012706 0.16835389 0.3805838 0.31401217
0.32459217 0.18534842 0.37338334 0.49234363 0.22519776 0.52014405 0.16633846 0.5611097
-0.060440734 0.4698569 0.17736277 0.3485328 0.21136963 0.16552609 0.5463996 0.2672521
0.20242117 0.6899946 0.18327731 0.7098026 0.53834385 0.70625424 0.09170266 0.25200278
0.54304516 0.5730978 0.35028252 0.4530476 0.09455543 0.09618906 0.36499903 0.31594008
0.76050735 0.13372962 0.14181516 0.48509133 0.17503454 0.23298162 0.14427106 0.30506715
0.48504812 0.221997 0.7186886 0.4392119 0.7257006 0.21053186 0.20074607 0.28857705
0.0014174329 0.3234342 0.19498403 0.15429184 0.21862195 0.6424486 0.8108109 0.40616712
0.19911021 0.41004083 0.2581363 0.17170544 0.08870815 0.09320985 0.866774 0.48372683
0.47711036 0.15210243 0.45813945 0.34638408 0.7299797 0.2713181 0.76319075 0.31158626
0.3570835 -0.0021371674 0.18661068 0.28977278 0.22046582 0.15841824 0.37928054 0.24991842
0.37407953 0.5557018 0.32612577 0.07224063 0.28425014 0.51300853 0.26440498 0.33686355
0.28792265 0.5014742 0.15869172 0.07286903 0.14132549 0.33207977 0.0010058924 0.3817051
0.44853094 0.3341328 0.36184493 0.40387475 0.36454394 0.2266617 0.22610553 0.54907435
0.4057612 0.04215616 0.2965114 0.5435032 0.45389348 0.7068462 0.4844247 0.054130476
0.54621977 0.061423294 0.05062892 0.46746334 0.18672366 0.38775823 0.3448436 0.067776546
0.31972116 0.44658062 0.27073428 0.41988152 0.03462908 0.25497526 0.22067453 0.5098872
0.4616787 0.3641901 0.40847644 1.0375662 0.19765139 0.48861173 0.22927733 0.44987422
0.2727278 0.24544354 0.62426573 0.37493932 0.27060342 0.36664903 0.4273994 0.57622397
0.45532155 0.20541297 0.39445856 0.15196873 0.5232282 0.10945775 0.2750218 0.37859756
0.29112178 0.3417672 0.19825563 0.17474085 0.5908232 0.35437882 0.39635092 0.3363197
0.120253555 0.18550463 0.6372938 0.33965087 0.53298146 0.43177703 0.49528152 0.53302497
0.38868198 0.5865386 0.36653143 0.47882232 0.6008614 0.40626347 0.14845867 0.034212865
0.9150224 0.3961811 0.1434039 0.5407889 0.63795334 0.7201431 0.115068056 1.1598831
0.37488395 0.14123112 0.2047251 0.15215208 0.28002816 0.41931218 0.55538267 0.38514853
0.24049611 0.5901196 0.40370822 0.7217868 0.5394348 0.06317463 0.57502687 0.23551428
0.20800848 0.96991247 0.16493274 0.57667905 0.21442114 0.5923837 0.028842488 0.64491206
00000000: df23 703e 4859 023f 9496 e93e acaa 3d3e
00000010: 4215 5d3f 8a1f d53e 23cd f33e 2029 b43c
00000020: f0b2 6e3e 645e 9c3e 7636 c33d 46f9 a93e
00000030: 9dfa f33e 318d 973e a2f9 3a3e b7a7 1c3e
00000040: 8849 7d3f 2e6b 9d3d 35dd 793e e302 943e
00000050: 80ca 413e 3e20 063f d956 dc3e 3229 0a3f
00000060: a6a7 bc3e 5ec8 773e 1409 073f aa8d f43e
00000070: f1c7 be3e 8a48 b73e 002a c13e 9cdd 183f
00000080: f7aa c23e ba21 753e b6b4 113f a618 a23e
00000090: 5ed5 523e dc42 503e c945 283f 1560 843e
000000a0: 2699 2a3e d0aa 113e e6bb 4d3e f393 0f3f
000000b0: 99ae c6bd f664 2c3e e1db c23e 34c6 a03e
000000c0: f230 a63e facb 3d3e 1a2c bf3e 7714 fc3e
000000d0: 3e9a 663e 2928 053f a154 2a3e e3a4 0f3f
000000e0: b490 77bd 1591 f03e 969e 353e e472 b23e
000000f0: 4871 583e ac7f 293e d8e0 0b3f 44d5 883e
00000100: 7f47 4f3e 7ca3 303f 0cad 3b3e a0b5 353f
00000110: e7d0 093f 14cd 343f 9bce bb3d 8206 813e
00000120: 0205 0b3f 8ab6 123f 3b58 b33e dbf5 e73e
00000130: 47a6 c13d c5fe c43d 27e1 ba3e e6c2 a13e
00000140: 9cb0 423f 6bf0 083e fe37 113e e45d f83e
00000150: 413c 333e bc92 6e3e cbbb 133e c331 9c3e
00000160: 3a58 f83e 2e53 633e fafb 373f 62e0 e03e
00000170: 84c7 393f aa95 573e 6190 4d3e 5fc0 933e
00000180: 28c9 b93a 2b99 a53e e5a9 473e aefe 1d3e
00000190: 6fde 5f3e 8377 243f 4e91 4f3f 23f5 cf3e
000001a0: 8ce3 4b3e dff0 d13e 712a 843e 8dd3 2f3e
000001b0: 9eac b53d cee4 be3d e7e4 5d3f 0bab f73e
000001c0: cf47 f43e bdc0 1b3e 4191 ea3e 4159 b13e
000001d0: f3df 3a3f 35ea 8a3e 7860 433f 3c88 9f3e
000001e0: a6d3 b63e b80f 0cbb df16 3f3e 195d 943e
000001f0: cbc1 613e 6438 223e 0f31 c23e 9dea 7f3e
00000200: 5a87 bf3e 7942 0e3f f5f9 a63e e5f2 933d
00000210: 3c89 913e 8754 033f 1760 873e 6179 ac3e
00000220: 996a 933e 9d60 003f 1580 223e 5c3c 953d
00000230: a1b7 103e 5c06 aa3e 26d8 833a da6e c33e
00000240: d9a5 e53e 7413 ab3e bd43 b93e acc8 ce3e
00000250: 81a5 ba3e 011a 683e 3588 673e 2390 0c3f
00000260: efbf cf3e f0ab 2c3d 58d0 973e 0723 0b3f
00000270: ba64 e83e dff3 343f 8406 f83e ebb7 5d3d
00000280: 0fd5 0b3f fe96 7b3d 4560 4f3d 5b57 ef3e
00000290: 7d34 3f3e 3f88 c63e 578f b03e 6ece 8a3d
000002a0: 7eb2 a33e 37a6 e43e af9d 8a3e b6fa d63e
000002b0: 39d7 0d3d 1e8c 823e 81f8 613e f887 023f
000002c0: 2761 ec3e 2077 ba3e d323 d13e f8ce 843f
000002d0: 2065 4a3e 512b fa3e adc7 6a3e ea55 e63e
000002e0: faa2 8b3e 8d55 7b3e e1cf 1f3f 0cf8 bf3e
000002f0: 888c 8a3e 6cb9 bb3e 18d4 da3e 6a83 133f
00000300: e81f e93e c757 523e 79f6 c93e b19d 1b3e
00000310: 49f2 053f 632b e03d a8cf 8c3e 8ad7 c13e
00000320: ea0d 953e 1cfc ae3e 8603 4b3e 44ef 323e
00000330: 3040 173f 2471 b53e 82ee ca3e 1932 ac3e
00000340: 7f47 f63d edf4 3d3e b025 233f b8e6 ad3e
00000350: 7971 083f e111 dd3e 8a95 fd3e 5374 083f
00000360: 5301 c73e 6527 163f 02aa bb3e 3328 f53e
00000370: 0dd2 193f c401 d03e 8d05 183e ca22 0c3d
00000380: e83e 6a3f 40d8 ca3e 79d8 123e 2471 0a3f
00000390: e950 233f 4c5b 383f cda8 eb3d 0d77 943f
000003a0: caf0 bf3e e49e 103e 75a3 513e c1cd 1b3e
000003b0: da5f 8f3e 16b0 d63e 8f2d 0e3f 3032 c53e
000003c0: 9d44 763e 1412 173f d8b2 ce3e 05c7 383f
000003d0: 6618 0a3f b361 813d f634 133f a82a 713e
000003e0: 2d00 553e 2f4c 783f 21e4 283e 3da1 133f
000003f0: 3791 5b3e 75a6 173f 1547 ec3c f518 253f

bn1.bias f4 [256]
0.08197019 0.1352941 0.057014346 -0.18409666 0.13439289 0.18113872 0.18863575 -0.02641992
0.04631887 0.0862109 0.13977997 0.044972252 0.08607487 0.11437149 0.16695331 -0.0155556705
-0.08694797 -0.088301286 0.034686506 -0.040101796 -0.022112172 0.07085129 -0.13462533 0.108726285
0.09328295 0.1727949 0.10258533 0.12626469 0.14869666 0.091941684 0.10839928 0.012651749
0.056164917 0.20103931 0.32050595 -0.17098436 0.100918315 -0.005634205 0.025396382 0.054338332
0.08952906 0.10149001 0.08071907 0.037516233 -0.21603683 -0.050734304 0.1681495 0.068232894
0.13664782 -0.027454138 0.06047393 0.10790162 0.0906825 0.18533544 0.08706595 0.10916003
-0.013699588 -0.0082455585 0.04459848 -0.026331734 0.014076277 0.17699608 -0.010256472 0.03363096
-0.0421068 0.047664814 -0.06506304 0.19567934 0.17132744 0.1157481 0.19191541 0.096231334
0.31629702 0.13183756 0.1032876 0.17313258 0.14501014 -0.04832499 0.075244896 0.051547773
-0.04887957 0.2744634 0.002559567 0.14008561 0.12976591 -0.10347607 0.08510336 -0.117548674
0.005506679 0.08565397 0.14081053 0.15119675 0.19984931 -0.0401847 0.13853697 0.04814051
-0.002908919 0.06940524 0.118686065 0.055199146 0.084293924 0.011564313 0.21125805 0.03322214
-0.011910177 0.1928359 0.07778502 -0.06620099 -0.18784522 0.1946734 0.28431696 -0.015828812
0.15193585 0.05750372 0.10893366 -0.27504092 0.1430362 0.007007977 0.16631334 0.062178608
0.1425417 -0.10803548 0.01733904 0.13776173 -0.061626382 -0.046266176 0.008880173 0.13868593
0.08747908 0.22582327 0.2741954 -0.08888545 0.030826448 0.2195833 0.062098686 0.044579584
0.17465864 0.18248548 0.07468638 0.0044725714 0.010581897 0.03214414 -0.00066521624 0.23200306
0.13924251 0.010166192 0.13345753 0.18063407 0.17616431 0.065701276 0.07460928 0.07747791
0.03973177 -0.11903902 0.1135191 0.14560176 -0.12803982 0.07835465 0.0012385446 -0.10983542
0.0035756617 0.1881642 -0.098476484 0.036270894 0.09888464 0.07222309 0.10403295 -0.02517438
0.089202404 0.09913278 0.022920154 0.19002943 -0.044218387 0.22070637 -0.21347944 -0.044107057
0.123537734 -0.03520703 0.08721751 0.09209941 0.052031595 0.076809704 0.056886263 0.054801002
0.03247712 0.10287279 0.19391297 -0.033515126 0.001648081 0.057994645 0.045562398 0.0057858382
0.1439144 -0.009201554 -0.042586755 -0.055559266 0.0801253 -0.050516374 0.0021516439 0.017843967
0.06837538 0.075528964 0.18556933 0.048419703 0.27493307 0.091006584 0.059545692 0.101564854
0.027020419 0.18343222 0.14923824 0.024123363 0.12722142 0.08063616 -0.064359084 0.08426724
0.16788876 0.07028164 0.2895993 0.22427402 -0.03526139 0.028738346 0.040376816 0.0005231427
0.17202967 0.122083545 0.026453346 0.055863973 0.19698165 -0.16642284 -0.12291719 0.13320471
-0.020553868 0.0017857724 0.08306618 0.046268325 -0.081869274 0.077097 -0.08197647 0.1145661
-0.03528985 0.039069682 0.03149802 -0.05863102 0.1820354 -0.090986386 0.11578682 -0.024213724
0.18043163 0.16172148 0.04714131 -0.116283275 0.092634566 0.09572928 0.06401207 0.19099896
00000000: fddf a73d 898a 0a3e e087 693d d683 3cbe
00000010: 4a9e 093e 6e7c 393e bb29 413e 976e d8bc
00000020: dbb8 3d3d 578f b03d 7b22 0f3e d334 383d
00000030: 0548 b03d 9a3b ea3d cff5 2a3e 36dd 7ebc
00000040: c711 b2bd 4ed7 b4bd 7013 0e3d c841 24bd
00000050: 9624 b5bc 7b1a 913d 39db 09be e3ab de3d
00000060: 220b bf3d 25f1 303e 4218 d23d 884b 013e
00000070: f043 183e ec4b bc3d 7100 de3d 4849 4f3c
00000080: 2f0d 663d 40dd 4d3e 5b19 a43e 8616 2fbe
00000090: 43ae ce3d 239f b8bb 130c d03c df91 5e3d
000000a0: 035b b73d ffd9 cf3d 0a50 a53d 9faa 193d
000000b0: c238 5dbe c6ce 4fbd 622f 2c3e b0bd 8b3d
000000c0: 68ed 0b3e 80e7 e0bc 83b3 773d 86fb dc3d
000000d0: bfb7 b93d 93c8 3d3e a24f b23d 4b8f df3d
000000e0: 3d74 60bc 6118 07bc e5ac 363d a6b5 d7bc
000000f0: 2fa0 663c 763e 353e c30a 28bc 9ec0 093d
00000100: 2e78 2cbd 2e3c 433d c53f 85bd 2a60 483e
00000110: 7670 2f3e 570d ed3d 7985 443e ef14 c53d
00000120: aff1 a13e 6d00 073e 7388 d33d ab49 313e
00000130: 8a7d 143e 6df0 45bd ff19 9a3d c223 533d
00000140: f235 48bd 7786 8c3e 69be 273b 9a72 0f3e
00000150: 5be1 043e 43eb d3bd ac4a ae3d 5cbd f0bd
00000160: 5f71 b43b 596b af3d a330 103e 52d3 1a3e
00000170: 4ca5 4c3e b698 24bd a3dc 0d3e fc2e 453d
00000180: 90a3 3ebb 5624 8e3d ae11 f33d 8018 623d
00000190: 4ba2 ac3d 3f78 3d3c 0854 583e f013 083d
000001a0: e722 43bc c676 453e c14d 9f3d 6294 87bd
000001b0: 7f5a 40be 7758 473e fe91 913e 6dab 81bc
000001c0: 1295 1b3e 0589 6b3d 9c18 df3d 2ad2 8cbe
000001d0: 1578 123e 2ca3 e53b 0b4e 2a3e ffae 7e3d
000001e0: 74f6 113e b541 ddbd 9a0a 8e3c 6911 0d3e
000001f0: f26b 7cbd 9a81 3dbd 257e 113c af03 0e3e
00000200: 3b28 b33d 373e 673e 5763 8c3e 9309 b6bd
00000210: bf87 fc3c 72da 603e 315b 7e3d 1599 363d
00000220: b7d9 323e 79dd 3a3e 2cf5 983d a68e 923b
00000230: b15f 2d3c 93a9 033d e861 2eba 3692 6d3e
00000240: 9795 0e3e 1a90 263c 17a9 083e 23f8 383e
00000250: 6b64 343e 648e 863d c0cc 983d bdac 9e3d
00000260: c8bd 223d bbca f3bd b47c e83d a118 153e
00000270: df1c 03be 6778 a03d a956 a23a 65f1 e0bd
00000280: a655 6a3b 1eae 403e 0aae c9bd ca90 143d
00000290: 0884 ca3d b3e9 933d 3a0f d53d 803a cebc
000002a0: c0af b63d 2106 cb3d 0cc3 bb3c 1397 423e
000002b0: 571e 35bd da00 623e 5b9a 5abe 9aa9 34bd
000002c0: 5a01 fd3d 3f35 10bd 189f b23d 9e9e bc3d
000002d0: 151f 553d 684e 9d3d 9201 693d 0477 603d
000002e0: bb06 053d f8ae d23d 1f91 463e 2847 09bd
000002f0: 6c04 d83a cb8b 6d3d a39f 3a3d 2197 bd3b
00000300: 4c5e 133e 1dc2 16bc 736f 2ebd 1d92 63bd
00000310: bc18 a43d 42ea 4ebd 9802 0d3b 832d 923c
00000320: 6408 8c3d eeae 9a3d e305 3e3e bd53 463d
00000330: 07c4 8c3e a961 ba3d 2fe6 733d 3c01 d03d
00000340: ed59 dd3c a8d5 3b3e e9d1 183e 5c9e c53c
00000350: 5546 023e 9224 a53d b2ce 83bd 4d94 ac3d
00000360: 08eb 2b3e d2ef 8f3d 5c46 943e 17a8 653e
00000370: 3f6e 10bd ae6c eb3c 2962 253d 8323 093a
00000380: 8c28 303e f006 fa3d b0b4 d83c 9fd1 643d
00000390: 8fb5 493e c06a 2abe 02bc fbbd d166 083e
000003a0: 9660 a8bc 9410 ea3a 9a1e aa3d db83 3d3d
000003b0: 14ab a7bd 08e5 9d3d 48e3 a7bd a2a1 ea3d
000003c0: 178c 10bd 8807 203d 1104 013d 1527 70bd
000003d0: 7d67 3a3e 1257 babd a421 ed3d dc5b c6bc
000003e0: 12c3 383e 519a 253e 3f17 413d ed25 eebd
000003f0: 31b7 bd3d b60d c43d c318 833d 3b95 433e

bn1.running_mean f4 [256]
0.34109056 1.8213252 1.6965704 3.7481396 0.53980494 1.2945635 2.3556879 3.4456034
0.38455775 0.771111 0.24261844 1.2362078 1.717242 1.120463 0.35306224 10.648594
3.9532228 1.720794 2.739035 1.2681552 1.7253597 1.9217275 1.2748377 0.90314895
1.2556572 1.2258029 3.4782937 4.7469454 1.6304574 0.90402395 7.429851 2.0671477
0.43343446 0.24277155 2.6637957 2.6398358 0.7782901 0.35731333 10.186007 0.9330515
0.69023037 1.2985094 0.34608978 1.8351029 1.0463876 0.59353644 1.7132843 2.1762779
0.3676208 2.3184175 1.8558431 0.93668574 0.35257408 2.3915238 3.3109884 0.66915816
0.37683755 0.5497554 2.711063 1.1719992 0.74718106 1.298008 0.5056222 8.181057
1.9312669 5.073044 3.3344994 1.388524 5.6505604 0.6400701 3.318384 1.8336166
3.656667 2.4873786 0.74034715 1.9536601 4.2656126 1.6144825 0.48721284 0.43341938
1.5462859 2.5606098 0.79305446 0.4137156 0.97957927 0.6143233 0.41243502 6.018299
1.1714597 0.5116582 2.2326827 1.6307434 1.3969084 2.7975957 1.6978011 7.2503204
3.7793674 0.24671906 0.4990302 2.1256454 0.4953635 1.947731 0.73711276 1.7788621
0.5147542 1.7376376 1.0746036 1.6054443 1.490301 2.1717405 0.8058081 5.953172
7.9869046 2.5610533 2.88823 3.5792518 0.69992197 1.6974301 0.24099196 1.0367553
3.0227213 4.2087154 0.6829927 0.57496697 5.3377857 1.282713 0.6733847 3.3254933
4.7120085 1.5063142 2.5002782 0.705337 2.6464272 1.0692286 0.6353769 3.159359
0.22329941 1.0576191 1.4525547 4.8009396 0.09238729 0.8064847 3.2037408 3.0607646
1.0734154 1.2102833 0.5963779 0.7961385 1.0282351 0.4224433 0.30005413 6.058231
3.1510482 0.49850067 1.4782233 1.1129067 5.750909 8.380361 1.2476201 0.9395982
5.3862953 1.1246145 0.75670063 1.0041901 0.93416363 1.6856743 1.2008791 3.1811962
2.0061803 0.7239316 0.7633883 1.3692888 0.6266929 2.665573 4.38312 3.5776887
0.22667453 0.31865707 0.376965 7.067642 8.279768 0.84766096 0.23952015 0.48799115
0.8757906 1.4505472 3.1287422 1.2452691 0.58877105 1.1252512 3.8479564 3.1015599
1.3261521 1.2359205 1.2993653 0.9910678 1.1270107 1.6138388 0.96621346 4.019522
0.8299211 0.6142781 1.1757168 2.2648532 2.2177737 1.7156003 4.093069 3.6940784
0.69010025 0.36739707 3.706559 1.2787386 1.0674952 0.30282608 2.9150224 0.7284449
0.7706712 0.51529396 2.1681316 2.6916363 1.2202796 0.58397317 2.4659734 1.1772765
3.7509198 5.11758 0.3129515 0.92263156 1.4534545 1.1313937 1.1720475 8.3832
1.8770672 0.4503583 2.0999947 2.5333 0.41395178 1.0575374 1.3601326 1.0257989
0.6134899 0.80051726 5.125872 3.5586116 1.2838534 2.5767734 2.0133793 4.0639105
4.104869 0.36764023 0.07697625 4.704162 1.4580926 1.0974253 5.4969196 3.3984056
00000000: 6ca3 ae3e 2f21 e93f 3829 d93f 85e1 6f40
00000010: a830 0a3f 42b4 a53f 97c3 1640 c484 5c40
00000020: c1e4 c43e 8867 453f f870 783e 0f3c 9e3f
00000030: 96ce db3f 556b 8f3f 93c4 b43e a460 2a41
00000040: 9a01 7d40 fa42 dc3f 594c 2f40 e952 a23f
00000050: 96d8 dc3f 2bfb f53f e22d a33f c534 673f
00000060: 60b9 a03f 1ce7 9c3f 5d9c 5e40 fae6 9740
00000070: d4b2 d03f 1d6e 673f 57c1 ed40 264c 0440
00000080: 1feb dd3e 1b99 783e a17b 2a40 12f3 2840
00000090: 053e 473f c6f1 b63e e2f9 2241 77dc 6e3f
000000a0: f0b2 303f 8e35 a63f ae32 b13e a7e4 ea3f
000000b0: 07f0 853f 01f2 173f e64c db3f 2348 0b40
000000c0: cb38 bc3e f460 1440 448c ed3f a3ca 6f3f
000000d0: 9784 b43e ba0e 1940 3ce7 5340 f34d 2b3f
000000e0: daf0 c03e c5bc 0c3f 0e82 2d40 1204 963f
000000f0: 4247 3f3f 2025 a63f 7570 013f 9ce5 0241
00000100: c133 f73f 6056 a240 7068 5540 28bb b13f
00000110: 64d1 b440 a2db 233f 6760 5440 f3b3 ea3f
00000120: d506 6a40 3631 1f40 6487 3d3f 8911 fa3f
00000130: e67f 8840 5da7 ce3f f673 f93e 25e9 dd3e
00000140: b2ec c53f 08e1 2340 9e05 4b3f 88d2 d33e
00000150: b5c5 7a3f 4b44 1d3f af2a d33e e895 c040
00000160: 64f2 953f 08fc 023f 46e4 0e40 33bc d03f
00000170: e5cd b23f cf0b 3340 8c51 d93f a002 e840
00000180: 28e1 7140 eca3 7c3e e380 ff3e 930a 0840
00000190: 49a0 fd3e 404f f93f 6cb3 3c3f c1b1 e33f
000001a0: eec6 033f e96a de3f 9c8c 893f 337f cd3f
000001b0: 2fc2 be3f ccfd 0a40 7149 4e3f 6380 be40
000001c0: b994 ff40 4ce8 2340 c3d8 3840 7612 6540
000001d0: 162e 333f 6445 d93f 99c6 763e 66b4 843f
000001e0: 4474 4140 ccad 8640 9cd8 2e3f 0931 133f
000001f0: 24cf aa40 f12f a43f f162 2c3f e2d4 5440
00000200: c6c8 9640 e7ce c03f 8f04 2040 f790 343f
00000210: 105f 2940 7cdc 883f 0fa8 223f f032 4a40
00000220: 9aa8 643e 1060 873f 50ed b93f 4ca1 9940
00000230: 8c35 bd3d c875 4e3f 170a 4d40 91e3 4340
00000240: ad65 893f 90ea 9a3f 39ac 183f bccf 4b3f
00000250: 359d 833f 7d4a d83e b2a0 993e 07dd c140
00000260: c6aa 4940 7b3b ff3e 6c36 bd3f ba73 8e3f
00000270: 7207 b840 f515 0641 04b2 9f3f 8289 703f
00000280: 885c ac40 5ef3 8f3f 22b7 413f 4d89 803f
00000290: 5925 6f3f 2dc4 d73f 68b6 993f b898 4b40
000002a0: 4265 0040 9553 393f 6a6d 433f db44 af3f
000002b0: f26e 203f bf98 2a40 8542 8c40 daf8 6440
000002c0: 5e1d 683e 0527 a33e 8e01 c13e 202a e240
000002d0: ee79 0441 4f00 593f c544 753e fad9 f93e
000002e0: d033 603f 88ab b93f 503d 4840 fa64 9f3f
000002f0: b3b9 163f 3b08 903f eb44 7640 f57f 4640
00000300: 5abf a93f a532 9e3f 9a51 a63f 9fb6 7d3f
00000310: e341 903f 4592 ce3f c459 773f ed9f 8040
00000320: b675 543f 5441 1d3f e37d 963f 5bf3 1040
00000330: 01f0 0d40 ca98 db3f 6cfa 8240 c86b 6c40
00000340: 69aa 303f 781b bc3e 4338 6d40 b5ad a33f
00000350: afa3 883f 050c 9b3e ba8f 3a40 5d7b 3a3f
00000360: b54a 453f 4eea 033f abc2 0a40 c543 2c40
00000370: 1f32 9c3f 447f 153f 82d2 1d40 ffb0 963f
00000380: 120f 7040 37c3 a340 2e3b a03e 9531 6c3f
00000390: cc0a ba3f 82d1 903f a705 963f 9621 0641
000003a0: bd43 f03f 5d95 e63e 5066 0640 9621 2240
000003b0: 7df1 d33e 635d 873f d318 ae3f 614d 833f
000003c0: ad0d 1d3f b3ee 4c3f 2507 a440 4bc0 6340
000003d0: 4f55 a43f dbe9 2440 35db 0040 8e0b 8240
000003e0: 165b 8340 573b bc3e b9a5 9d3d 7f88 9640
000003f0: c7a2 ba3f 6f78 8c3f c4e6 af40 7a7f 5940

bn1.running_var f4 [256]
1.4893754 12.3310795 8.124083 23.853144 1.4525717 10.35096 6.9742107 15.569473
1.0739787 2.9231696 0.9340437 3.4457076 9.088113 7.954789 1.1171637 18.373081
25.478167 11.349239 20.869814 6.09008 3.974642 6.687728 4.8954415 3.6734345
6.9413056 6.0741 19.319172 24.891956 14.35791 6.048814 27.905994 12.67467
1.6050045 0.8126218 18.207895 15.80321 4.223905 2.0942452 5.931676 5.5604043
3.089857 4.387812 1.5681907 4.79456 6.2555556 2.791531 5.5420265 9.471404
1.4170862 5.682206 6.48271 6.3727326 1.5410637 7.639935 19.65999 2.4953723
1.9424481 1.5517598 10.686419 6.328181 4.39988 4.7550817 1.9779177 51.62719
15.013814 43.433994 15.067679 2.7416673 21.711166 1.9862051 19.485405 10.043694
19.955967 11.862976 2.5737681 11.178452 40.4701 5.660926 2.1884484 2.0342932
4.0394588 11.246572 4.019118 1.5705913 3.6623566 2.482773 1.6204782 85.20797
7.426838 0.9595364 4.865334 6.1165485 5.6698775 16.255598 7.324711 37.21379
13.495061 0.70198023 1.9127074 11.379128 1.3281689 6.323699 3.6231806 12.75106
2.567668 8.94832 3.4657898 11.860474 9.164843 9.43165 2.8017054 8.119362
19.219835 15.148035 13.469938 19.736044 3.382954 9.310141 0.94816655 5.4638796
24.596664 60.23799 2.5478075 2.945665 24.803373 7.1263103 2.7657201 18.230179
14.394139 5.266032 12.876975 2.679365 8.89245 5.37367 3.1977043 15.529211
0.95843756 4.726296 7.8560557 41.076412 0.20703305 3.0860007 11.856693 22.732607
2.5563037 5.1530156 3.3044293 2.719981 4.5218143 2.081074 1.277945 48.71144
28.079931 2.491307 7.564227 5.1893067 54.079266 42.1658 6.731948 3.8808281
50.142185 7.208137 3.6174011 6.473207 3.7440197 6.3005896 6.334081 12.212917
3.5466368 3.6701727 3.7325554 11.104803 3.57962 11.993041 32.8961 25.592867
1.1001145 1.2666627 2.2871077 70.93949 23.206512 3.1572871 0.66437507 0.5250553
3.8589191 9.398393 17.547234 5.860536 1.3836889 3.5435858 29.495167 13.691735
3.777445 2.8817503 5.09758 4.3427734 5.4820943 8.671337 4.806507 28.125128
4.6312156 4.298227 2.6601553 9.7701435 9.977192 9.334098 23.373642 13.853647
4.6584964 1.725139 4.4821362 3.8730915 3.879393 1.425111 17.411402 2.7881334
2.5372925 1.6677631 15.596263 14.633771 5.7576513 2.3175921 14.131488 6.0507913
23.365402 33.284813 1.2987527 7.3632183 3.3332307 5.2084017 6.240587 112.314125
8.315593 2.5543125 11.116513 13.68922 2.58118 1.8454405 4.2378964 4.403362
3.040456 2.1804602 47.284786 14.735565 4.0087724 13.251211 5.9400616 16.258137
23.974968 1.1442212 0.22317374 32.801647 5.3405294 1.470404 26.962269 12.82559
00000000: daa3 be3f 1a4c 4541 3efc 0141 3dd3 be41
00000010: dfed b93f 889d 2541 bc2c df40 901c 7941
00000020: 2278 893f 3615 3b40 7d1d 6f3f 7986 5c40
00000030: e968 1141 a28d fe40 38ff 8e3f 12fc 9241
00000040: 49d3 cb41 7c96 3541 61f5 a641 efe1 c240
00000050: 8960 7e40 de01 d640 75a7 9c40 8d19 6b40
00000060: 2d1f de40 075f c240 aa8d 9a41 ba22 c741
00000070: 00ba 6541 e28f c140 7a3f df41 73cb 4a41
00000080: ca70 cd3f fb07 503f c5a9 9141 f3d9 7c41
00000090: 3b2a 8740 1d08 0640 4ad0 bd40 d5ee b140
000000a0: 38c0 4540 f568 8c40 79ba c83f 096d 9940
000000b0: 832d c840 72a8 3240 4858 b140 df8a 1741
000000c0: 1563 b53f a2d4 b540 5c72 cf40 6ded cb40
000000d0: 9341 c53f 597a f440 a947 9d41 2eb4 1f40
000000e0: 24a2 f83f 11a0 c63f 92fb 2a41 7580 ca40
000000f0: d1cb 8c40 a129 9840 682c fd3f 3e82 4e42
00000100: 9538 7041 69bc 2d42 3715 7141 7a77 2f40
00000110: 78b0 ad41 f83b fe3f 1ce2 9b41 f8b2 2041
00000120: d2a5 9f41 c0ce 3d41 9eb8 2440 f0da 3241
00000130: 62e1 2142 4e26 b540 8a0f 0c40 dc31 0240
00000140: 3f43 8140 f5f1 3341 9d9c 8040 2309 c93f
00000150: 0d64 6a40 c1e5 1e40 d46b cf3f 7b6a aa42
00000160: a8a8 ed40 2da4 753f d1b0 9b40 c4ba c340
00000170: a36f b540 770b 8241 0864 ea40 ecda 1442
00000180: c5eb 5741 fab4 333f 99d3 f43f e910 3641
00000190: 7001 aa3f be5b ca40 31e2 6740 5704 4c41
000001a0: ac54 2440 522c 0f41 80cf 5d40 80c4 3d41
000001b0: 32a3 1241 0ae8 1641 244f 3340 e8e8 0141
000001c0: 39c2 9941 5a5e 7241 de84 5741 6be3 9d41
000001d0: 5182 5840 56f6 1441 0bbb 723f 1ad8 ae40
000001e0: f8c5 c441 b4f3 7042 470f 2340 c685 3c40
000001f0: 4f6d c641 bc0a e440 8f01 3140 68d7 9141
00000200: 654e 6641 5683 a840 1708 4e41 b77a 2b40
00000210: 7a47 0e41 1bf5 ab40 30a7 4c40 a677 7841
00000220: 2a5c 753f d13d 9740 cf64 fb40 3f4e 2442
00000230: 7900 543e 0981 4540 04b5 3d41 61dc b541
00000240: 7b9a 2340 81e5 a440 c57b 5340 2b14 2e40
00000250: b4b2 9040 5130 0540 b493 a33f 84d8 4242
00000260: b3a3 e041 9371 1f40 260e f240 cd0e a640
00000270: 2b51 5842 c7a9 2842 1e6c d740 7d5f 7840
00000280: 9991 4842 0fa9 e640 8083 6740 8324 cf40
00000290: 059e 6f40 6e9e c940 cbb0 ca40 1c68 4341
000002a0: 19fc 6240 1ce4 6a40 30e2 6e40 46ad 3141
000002b0: 7e18 6540 7fe3 3f41 9b95 0342 31be cc41
000002c0: 8dd0 8c3f 0122 a23f f95f 1240 05e1 8d42
000002d0: f0a6 b941 fe10 4a40 7c14 2a3f 066a 063f
000002e0: 88f8 7640 d15f 1641 bc60 8c41 8389 bb40
000002f0: b81c b13f 1cca 6240 1af6 eb41 5911 5b41
00000300: a9c1 7140 996e 3840 601f a340 00f8 8a40
00000310: 516d af40 ccbd 0a41 e8ce 9940 4300 e141
00000320: eb32 9440 138b 8940 fc3f 2a40 8252 1c41
00000330: 94a2 1f41 7758 1541 38fd ba41 8aa8 5d41
00000340: 6712 9540 5bd1 dc3f a96d 8f40 bbe0 7740
00000350: fa47 7840 0a6a b63f 8d4a 8b41 c770 3240
00000360: 0063 2240 4379 d53f 4b8a 7941 ed23 6a41
00000370: ae3e b840 6e53 1440 931a 6241 15a0 c140
00000380: 58ec ba41 a623 0542 873d a63f 7c9f eb40
00000390: a753 5540 3aab a640 e4b2 c740 d5a0 e042
000003a0: ab0c 0541 db79 2340 3ddd 3141 0c07 5b41
000003b0: 0e32 2540 6537 ec3f d99c 8740 57e8 8c40
000003c0: d596 4240 a98c 0b40 9f23 3d42 e0c4 6b41
000003d0: dd47 8040 f604 5441 fc14 be40 aa10 8241
000003e0: bccc bf41 d775 923f a887 643e e334 0342
000003f0: 9ee5 aa40 3336 bc3f bab2 d741 9e35 4d41
