critic_checkpoint0.pth (torch_old, 189858 bytes, 9 tensors)

fc1.weight f4 [256, 48]
00000000: 4375 023e 7724 343e db03 9abc c920 113e
00000010: 969d d5ba faa5 e63d 9a56 62bd 5050 c03d
00000020: 81e7 283e 7e92 bdbd ca7b cc3d 5514 5dbc
00000030: aaf8 bc3d a33a ed3d ea2b 343d 5e64 79bd
00000040: 5c27 343e be0d 653d de54 89bd 3d52 0c3e
00000050: 07b4 41be 8c94 ccbd 5ec9 6ebd 7bb1 483e
00000060: 9ee4 19be adb7 34be 39bf 2abd ef8a f0bc
00000070: 931e 86bc e7ec 71bd 3488 043e f880 85bd
00000080: c467 9e3d 4b25 6fbd 5bc4 9cbd 5540 eb3d
00000090: 87fb 163d c103 5a3e 93be 63bc d58f a2bc
000000a0: fcbf a73c 2e7e cebd 02af 093e 9bd4 633e
000000b0: 390b 533e d291 15be e5cc 203e 48a1 f43d
000000c0: 70dd 2e3e cfa3 88be d274 cdbd 6cbd 1dbe
000000d0: 975e d8bd a504 833e 364e ac3d 01a8 1dbd
000000e0: 0a06 4f3e 8b30 71be 1481 c03c c1af eabd
000000f0: 4e04 8fbd f7ee 2a3d a321 38bd b4e9 7cbd
00000100: 4c52 8e3e 5e9d 6fbe 43d8 a33d 4ba6 72bd
00000110: 474f 81be cc12 e2bd 378d b83d 6d63 983d
00000120: f7d6 3e3e 91f0 8e3c 56a0 dcbd f8b4 8cbd
00000130: 0437 d1bd 3aa0 483e 0b6c b23d 0418 283e
00000140: dfd6 79bd 03fa 983c b5aa b33b a401 483b
00000150: a884 2a3e b114 d93d 62e5 3b3c 5ee1 4fbd
00000160: d5b1 7fbd 3583 513e a8c7 753d 9838 213d
00000170: 0f49 813e 8c2f 973d f8f7 99bd 1fed 6aba
00000180: f34b eb3d 4550 0dbe e404 30bd 2117 afbc
00000190: 0ebf dbbd 4a35 16be 6cda 31bc ba6f 5d3c
000001a0: ab91 563a fea5 19be b177 16be e6d3 aa3b
000001b0: cd66 edbd d00d 44be c256 f53d 4e49 e53d
000001c0: a8a9 923c 1c4f 6ebe a2d1 bdbd 795a 65bd
000001d0: 8643 6c3d 6cb1 0dbd 8314 76bd c140 c1bd
000001e0: d6c6 bb3d 2887 33be 099c babc 4f4c a2bd
000001f0: 0470 98bd 73ad 88be 55b4 7ebd 424d c3bd
00000200: 928b 583e 133b 1bbe d5f7 db3d 3563 653d
00000210: d2d0 07be e738 af39 b766 67bd 6872 35bd
00000220: a23d 9f39 0cc1 85be 957d 143e 8cc0 f6bb
00000230: 2bb6 ac3c f651 d5bc 0def 573e a5d6 a7bd
00000240: d426 eb3c 1fb5 103e 2089 40bc b41c b73e
00000250: b50b 293e df41 0ebe 788f 4cbd e953 373e
00000260: 731e 553c c4ba f53d 7a93 2f3e 69f1 d3bd
00000270: a9df f83d 7a23 aeb8 7df5 b13d d4cd 9abd
00000280: 870b 073e f172 663e c613 453d 8d18 49be
00000290: e086 f63d 6e06 bf3d bed2 15bd 866f 603d
000002a0: b50d ec3c db20 103d 8d24 c9bc 4bbe 863d
000002b0: d77d 403d c654 7bbd faaa 0abd 8187 be3c
000002c0: d492 f5bd 540b 643e d8c4 883d 10e7 d5bd
000002d0: afdd 31bc 2e98 c23c 77c1 99bc a884 a3bc
000002e0: fe88 493d 03cf 643e 4565 3dbd 06dc 53be
000002f0: 36b6 c8bd 957f 053e bbb9 00be d1ee 65be
00000300: 31c1 d53d 1891 273e d7f0 ee3c 8f79 08be
00000310: 2002 63bd 9ecd e13d 1211 a03d d0da 77bd
00000320: 5024 90bd e8cc 1cbe 56d0 2e3e 7ddd 24be
00000330: 4db6 26bd 30c0 c73c f452 20bd 056b b1be
00000340: 14e3 11bb 48b8 cfbd 2cf1 e73d 72ac 033e
00000350: ad9a 4bbe f56c bcbd 871b ccba e268 4e3e
00000360: 98c8 053c 2096 f3bb 6ddc aa3d 6a51 813d
00000370: 3207 13bd 959a 653e d1b0 2bbd 2ea6 b63d
00000380: d3b6 0bbe 6785 423e abb6 043e f0d0 b33c
00000390: 2277 89bd e153 febc f89c c6bd 13a7 9d3d
000003a0: 1172 483d bf73 383e 78c5 a93d 834c 3abd
000003b0: 9604 8f3d 1e78 ebbd fb59 eebd 293a 5ebe
000003c0: 4158 153e bb37 bcbc 725b 9abb 8720 69bd
000003d0: 65f9 b13d 1ade 2dbd e94e 8fbd 999c 973d
000003e0: 5441 a73d 25b5 ba3d e2a8 653c d2c9 98bd
000003f0: 03e4 643e e2a4 f7ba a568 843c 2d5b d9bd
0.12740044 0.17592035 -0.018800667 0.14172663 -0.0016297575 0.11262126 -0.05525837 0.093903184
0.16494562 -0.09256457 0.099845484 -0.013493617 0.092271164 0.1158345 0.043987192 -0.060886733
0.1759314 0.05592131 -0.0670564 0.13703246 -0.18916331 -0.099892706 -0.058297507 0.19598953
-0.15028617 -0.17648192 -0.04168627 -0.029363124 -0.016372 -0.05906382 0.12942582 -0.065187395
0.077346355 -0.058385175 -0.07654639 0.1148688 0.03686097 0.21290495 -0.013900417 -0.019843975
0.020477287 -0.100826606 0.13445666 0.22249071 0.2060975 -0.14606407 0.15703161 0.119448245
0.17076659 -0.26687476 -0.10032047 -0.1540429 -0.105649166 0.2558948 0.08413355 -0.0384903
0.20217147 -0.23553674 0.02349905 -0.11459304 -0.06983243 0.0417318 -0.044953953 -0.061746314
0.27797163 -0.23399875 0.08000233 -0.05924062 -0.25255796 -0.110387415 0.090113096 0.07440839
0.1863669 0.017448695 -0.10772769 -0.068704545 -0.102155715 0.19592372 0.08712014 0.16415411
-0.060995933 0.018673902 0.0054829963 0.0030518556 0.16652167 0.1059965 0.011468263 -0.050752036
-0.062425453 0.20460208 0.06000486 0.039360613 0.25251052 0.07382116 -0.075179994 -0.00089617254
0.114890955 -0.13800152 -0.042973414 -0.021373333 -0.107298 -0.14668766 -0.0108552985 0.013515407
0.00081851584 -0.15004727 -0.14694096 0.0052132485 -0.11591873 -0.19145894 0.11979438 0.111956224
0.017903164 -0.23272365 -0.092685 -0.055994485 0.057681583 -0.03459303 -0.060078155 -0.09436179
0.09168784 -0.17532027 -0.022779481 -0.07924711 -0.0744324 -0.2669483 -0.062183697 -0.0953622
0.21146992 -0.15159254 0.107406296 0.056002814 -0.13263252 0.00033420997 -0.05649444 -0.04429856
0.00030372763 -0.26123846 0.1450103 -0.0075302776 0.021082958 -0.026040059 0.21087284 -0.08195237
0.028705038 0.14131592 -0.011751443 0.35764086 0.16508372 -0.13892315 -0.04994151 0.17903103
0.013007748 0.11998513 0.17146102 -0.1034878 0.12152035 -8.3035746e-05 0.08689401 -0.0755879
0.13187991 0.22504784 0.04811456 -0.19638272 0.12037444 0.09327398 -0.036577933 0.054793857
0.02881513 0.035187583 -0.024553562 0.06579264 0.04699501 -0.061360143 -0.033854462 0.023257973
-0.11990896 0.22269946 0.0667817 -0.10444462 -0.010856076 0.023754206 -0.018769009 -0.019960716
0.04920291 0.22344594 -0.046239156 -0.20689401 -0.09800379 0.1303695 -0.1257085 -0.22454382
0.10437239 0.16363943 0.029167576 -0.13327621 -0.05542195 0.110255465 0.07815756 -0.06051141
-0.07038176 -0.1531254 0.17071661 -0.16100116 -0.0407012 0.024383634 -0.03914161 -0.34651962
-0.0022260593 -0.10142571 0.11325297 0.12858751 -0.19883223 -0.092004694 -0.0015572169 0.20157197
0.008165501 -0.007433668 0.08342824 0.063143566 -0.035895534 0.2242225 -0.041916672 0.08918415
-0.1364396 0.18996201 0.12960307 0.021950215 -0.06712176 -0.031045856 -0.09697908 0.076978825
0.048936907 0.18012904 0.08289617 -0.045483124 0.069832966 -0.1149752 -0.11638256 -0.21701874
0.14584447 -0.022975793 -0.004710608 -0.056915786 0.08690146 -0.04244814 -0.06997473 0.074029155
0.08166757 0.09116582 0.014017316 -0.07460369 0.22352605 -0.0018893743 0.01616318 -0.106130935

fc1.bias f4 [256]
00000000: 66eb 1abd 818e 93bd 28ed 47be adb1 a4bc
00000010: b1ff f8bd 22ff 1ebe 4465 ec3c c043 8dbd
00000020: c580 2fbe 4c52 f43a fc2c 03be 59a8 3ebd
00000030: d84e 9ebc d564 a1bd e131 e9bb 9938 eabd
00000040: 5fa2 7c3d 1c90 543c df89 e0bd e7c7 233c
00000050: d663 853c 8292 25be ec44 d6be ea78 063e
00000060: 6619 62bd abcd 08bd 05a3 27be 636c bb3d
00000070: b176 073e 9654 0fbd 94c8 7dbe 9f64 d8bd
00000080: e672 923b d11a 34bd b207 0abe a14a a8bd
00000090: 39d9 17bc 65c6 dd3d e425 00be b0c7 e1ba
000000a0: 3b0b 1fbe 1dc9 c23d 6288 8fbd b1ae 2abe
000000b0: 9589 77bd d068 a4bd 0445 113a bc7c 39bd
000000c0: 42f4 95bd ee22 d83c 5f69 b5bc e709 be3c
000000d0: e2eb 10be b9b8 103b 454f 2fbe 818c 533c
000000e0: 935a 0f3e a5b0 4bbc 9a00 16be 142e f13d
000000f0: c763 12be 29c1 d83d 43e6 373c c19d dabc
00000100: 219e aa3b 41fc 5c3d 072e e23c f2f4 5fbd
00000110: 12d7 b5bd fe53 4d3c e2cb d43c 62ee 3cbe
00000120: 8602 123e d1ae 9e3d 496e 8b3d 3fdb adbc
00000130: 27f6 b53d 7cf8 0a3d b29c c1bd 3f75 f33d
00000140: 9ab6 373d 5aef d23d 5a78 32be 13f5 06be
00000150: a3ca acbd 5d20 07bd 59e7 43be 52d5 4e3e
00000160: 5c84 c33d ee96 8bbd 1559 a0be 6572 a2bd
00000170: fb59 273d d6ec e83c 5dd8 7cbb 267e 0cbc
00000180: 46f1 d0bd b2c0 1abc 13ff f13d 256e 8bbd
00000190: 8468 91be 7ec6 13be 39e0 243e c5da abbd
000001a0: c5a8 c3bd 19d8 9a3c 6723 4ebe a901 823d
000001b0: b959 1c3a 35a8 7fbd 2492 313d 560d babd
000001c0: d5b1 92be 34b7 a6bd 4fee 7dbe e260 e63d
000001d0: 5d1a e1bd 5ffd f2bc f3f9 893c 9fb0 3fbe
000001e0: e1b0 34be 7d45 94bd 1d37 dd3c 5b2c efbd
000001f0: ab28 e13a a92a ac3d 96be 0fbe 1127 223e
00000200: 9b72 003e 9c13 013e ea71 46be 1b36 fabd
00000210: 252c 1dbe 7b9f 1ebd 386b a73b 7d33 a4be
00000220: e28b f93c 5c37 57bd d813 433b 3a78 d9bd
00000230: c026 933d 42eb 4e3d 763e 5b3d 8ab6 78bc
00000240: 2ccc b8bd 8dcd edbc 2779 6e3e ed2b 873d
00000250: cc7a 123d daed a33c e5ef 6f3c a0ec 94bc
00000260: 2eb7 423d d18e 023d 6af8 93bd c48b 3ebe
00000270: ab85 2fbe 9420 55be 2edc 6a3d 112d 41be
00000280: 7f13 6abe fb38 e0bd 62ac d03d 90ff 0abd
00000290: 0204 35be 77b9 a2bb b507 0ebd d789 75be
000002a0: 9aac d33d 1a8f b73c a4f2 f73d f969 733d
000002b0: 0e95 14be c230 6dbe 28b1 9dbd b590 d7bd
000002c0: 016b 973e 8f51 0bbe 0d88 803d e26b 0fbe
000002d0: d08a 843c 5729 143d 6acf e03d 6f39 a83d
000002e0: 44dd bf3d f187 903d 1dfa 4dbd cd17 99bd
000002f0: 1133 d03d 536d 16be 9c28 233b 29e8 10be
00000300: b70a 513d a63a c6bd c9ab edbd b2b5 5abd
00000310: 5261 8b3d 9732 f33c f07f 81bc 361c 11be
00000320: 11f7 233e b79a b1bd a564 a9bd c21a 24bd
00000330: 3b9e 49bd 4d59 44be 7c38 0ebe 2e44 eb3d
00000340: 95b2 08be 0f40 ffbc c638 39be 4c46 19bd
00000350: 4484 bc3a ccb8 99bd b736 a0bc 1d1d d1bd
00000360: daed 563d 02fc 7b3c 7c79 073d 5a18 0fbe
00000370: df19 fdbc 308e 05be a46b ef3d b05c ffbd
00000380: 9b7c 86be 6cb5 283d 1a64 f43c cc08 3fbd
00000390: ac84 1fbf ddf0 c63c 6971 47be 227f 31be
000003a0: 9c7c 9f3d 8138 09be af47 7f3d facb 6cbe
000003b0: 0139 cbbd 5960 133e 6d5f b1bd 17ed 1dbe
000003c0: b6f5 1bbd 59f6 a3be 1368 f6bd b3e7 69be
000003d0: c7b1 59be 8846 3ebe 1a83 023e e4e3 d0be
000003e0: 2b5a 06bd 64d7 2b3c c8ad aabd 77a1 5c3d
000003f0: 48ac fa3d ec15 1e3e 1529 0f3d 1d80 70be
-0.03782215 -0.07204915 -0.19524062 -0.020104254 -0.12158144 -0.15527013 0.028856881 -0.06897688
-0.17138965 0.0018640249 -0.12810129 -0.046547268 -0.019324705 -0.0788056 -0.0071165417 -0.114365764
0.061678287 0.0129738115 -0.10963797 0.009996391 0.016282957 -0.1616917 -0.41849458 0.13132063
-0.055200003 -0.033399265 -0.16370781 0.091515325 0.13228871 -0.034992777 -0.24783546 -0.10566067
0.0044692634 -0.043970887 -0.13479498 -0.08217359 -0.0092680985 0.108288564 -0.12514454 -0.0017225649
-0.15531628 0.095110156 -0.07008435 -0.16668202 -0.060433943 -0.08027804 0.0005541595 -0.04528497
-0.07321979 0.026383843 -0.022144971 0.023198081 -0.14152482 0.002208276 -0.17120083 0.012911917
0.13999395 -0.012432252 -0.14648667 0.11776367 -0.14295875 0.105837174 0.011224332 -0.026686551
0.0052068387 0.053951506 0.027609838 -0.054676957 -0.08878912 0.012532232 0.025976125 -0.18450311
0.14258775 0.07748187 0.068081446 -0.021222709 0.088848405 0.03392838 -0.094537154 0.11887597
0.044851877 0.10299559 -0.17428723 -0.13179426 -0.084370874 -0.03298985 -0.19131221 0.20198563
0.0954673 -0.06815897 -0.31317964 -0.07931975 0.040857296 0.028433245 -0.003858111 -0.008574998
-0.10202269 -0.009445356 0.1181623 -0.06808118 -0.28400052 -0.14431188 0.16101159 -0.08391336
-0.095536746 0.018901872 -0.20130692 0.06347973 0.00059642975 -0.062416274 0.04335226 -0.09084575
-0.286513 -0.08140412 -0.24797939 0.11248948 -0.109913565 -0.029661832 0.016842818 -0.1871972
-0.17645599 -0.07239816 0.02700382 -0.11678382 0.0017178258 0.08406574 -0.14037547 0.15835215
0.12543719 0.12605137 -0.19379392 -0.12217351 -0.15348871 -0.03872631 0.005109217 -0.32070532
0.03046221 -0.05254303 0.0029766466 -0.106186345 0.07185125 0.050517328 0.053526364 -0.015180239
-0.09023318 -0.029028678 0.23288403 0.06600175 0.03576164 0.020010877 0.014644598 -0.018179238
0.047537975 0.03187448 -0.072251156 -0.18608004 -0.17140834 -0.20813209 0.057338886 -0.18864848
-0.22859 -0.10948368 0.101891294 -0.03393513 -0.1767731 -0.004965957 -0.03467532 -0.23978363
0.103356555 0.022407103 0.12106827 0.059427235 -0.14509985 -0.23163131 -0.076998055 -0.105256476
0.29573825 -0.13605331 0.062759496 -0.14005998 0.016179472 0.036172237 0.10977061 0.082140796
0.09368375 0.07057179 -0.050287355 -0.07475243 0.1016599 -0.14690141 0.0024896031 -0.14151062
0.05103561 -0.09679155 -0.11605031 -0.053395934 0.06805672 0.029687209 -0.015808076 -0.14170918
0.16012217 -0.08672088 -0.082711495 -0.04006458 -0.049223166 -0.1917469 -0.13888735 0.114876136
-0.13349374 -0.031158475 -0.18088064 -0.037420556 0.001438268 -0.0750595 -0.01955734 -0.10210631
0.052472927 0.015379908 0.03307484 -0.13974133 -0.030896125 -0.13042521 0.11690453 -0.124688506
-0.2626694 0.041188642 0.029832888 -0.04663925 -0.62311816 0.024284774 -0.19476856 -0.17333654
0.07787439 -0.13400461 0.062324222 -0.23124686 -0.09922982 0.14392222 -0.08660779 -0.15422474
-0.038076125 -0.32023886 -0.12031569 -0.22842292 -0.21259223 -0.18581593 0.12745324 -0.40798867
-0.032800835 0.010488365 -0.083339274 0.053864922 0.12239891 0.1543805 0.03495129 -0.23486371

fc2.weight f4 [128, 260]
00000000: 9f5f 26bd 0ba1 673d 6da0 473d cb6f b13d
00000010: 256f 0bbd dc99 8fbd aead 25bd 29ea cebb
00000020: 8850 4ebd 1526 2bbd 3c7a 89bd 016c bb3d
00000030: 7460 393d 9410 63bd a961 a8bd 0396 063b
00000040: 1f80 15bc d5f1 0d3e 48e3 e3bc 1d64 003c
00000050: ce0c 84bd f13f 443d 6145 283c 71a5 30bd
00000060: c98b 86bd ae1c 643d 161a 2ebd ac32 48bd
00000070: 6d0c e7bd aaf0 93bc dd03 493c 1cd9 9ebc
00000080: 9b9b 41bd ad8b 733b 787a 3b3c a0bd cb3d
00000090: 05c9 f0bd e466 3fbc 9365 253a fd47 903d
000000a0: e13d cb3d 0dd3 aebd 2224 c13d bf63 69bc
000000b0: 5fc5 fbbd 47d8 103d da5d e6bc f97a 13bd
000000c0: fb49 a3bc 5208 bd3c 7a10 d6bb 7788 a93c
000000d0: 404d 8ebc 9975 8cbd 3a89 953d 3285 41bd
000000e0: 80df 463c d7fb 0fbe 9d09 07bd a213 c2bd
000000f0: 25b3 52bd 15a5 03be 16fa 8fbc a584 413d
00000100: 3838 8f3d 1e61 b33d 2fe2 adbb c198 ccbc
00000110: 7831 00bd 6adf d9bb 3586 e0bd dea8 b53d
00000120: 74a8 04bd 3585 593c 0dbf 58bd 2307 0ebd
00000130: b69a ba3c 2e87 97bb 0fa2 1cbd 8994 73bd
00000140: 1ee3 323d 39e9 16be baa7 053d 04d5 a5bd
00000150: 40af 20be 96f6 733d d9e0 6c3a 4698 c73c
00000160: 4512 94bc e697 ddbd bdac 973d bcb4 273c
00000170: b41b a13d 99d3 fa3c 6ff4 c0bc 5872 f5bc
00000180: e235 a63b 0238 f5bc e42f 97bd 32ed d4bd
00000190: d2cb f3bc f071 5a3c 0eb1 21bc e15a fcbb
000001a0: 0159 ba3b fe35 a6bc 4857 33bd 96b9 20bd
000001b0: 505d bd3d feaa 4abd 1e17 2abd 64c0 8e3c
000001c0: d70e 47bc 0bd2 a9bd cf15 1c3c 51ab 3e3e
000001d0: 57af d43c 9507 af3b 6697 03be b5c2 5d3d
000001e0: c654 063d a16c 183e c437 e1bc 742a f1ba
000001f0: 2e6a 8dba 88e0 3fbd 704f bf3c 7a8c 7ebd
00000200: 8061 b0bd e783 b9bd d974 c9bc 553d 0ebc
00000210: db6e 12bb ee9a be3c a71b f2bc 0516 61bd
00000220: 07e3 b4bd df9d 333d f0b3 fcbd 5211 c9bd
00000230: 17fa d23d f720 cc3c 668b 5f3d a8ac 73bd
00000240: 748b 203d 7ff1 c8bc 4922 67bd bcbc 3dbc
00000250: 200b adbd 7182 89ba 4d13 aebd 5473 5dbc
00000260: 74d9 903c 2252 90ba 1a56 033d fc8c 9a3c
00000270: e6d4 ab3d 4c65 a73c 9508 fcbc ff14 df3d
00000280: 5ce9 9b3d 0381 19be 4eac fa3d 009a d83c
00000290: 97ba d5bd 11af d1bd 5c25 793d 35a1 773d
000002a0: 7210 f6bd 0a2e bbbc 03e7 97bd 0257 3dbd
000002b0: c54f 23bd 1a38 48bd 426b 6b3b 685a 233d
000002c0: b0b1 e73c 6d84 87ba 768f 5cbd 5bf5 233d
000002d0: 76b7 ab3d cd67 5c3c 2cc9 85bc 7fe5 dfbc
000002e0: a613 91bc 31bd b5bc 5743 80bd c613 97bd
000002f0: b56d 0c3c 43e7 c7bc f381 47bd 4700 473d
00000300: 7e6b 133d 258a d23a 5c4b 60ba a96e 3f3d
00000310: ed5b 913d 00bf bd3c ab3d 833d 4285 a9bc
00000320: 107f 4a3d 6843 98bc 9388 b8bd 1b86 30bd
00000330: bcc2 563c d035 083d b3fa 00bd e111 f83c
00000340: eb90 283d 4c08 c8bd 6fb7 653c ffd7 4abd
00000350: df2e 853d 6d5d 753d 6e44 b53d 307d 89bd
00000360: 840d babd 17d0 ffbc dd63 7b3c 941c d73b
00000370: dd7c adbc 20ba 61bc be58 b6bd aa56 54bc
00000380: 3497 37bd 3754 5dbc 8a3c a33c f653 ddbc
00000390: 0362 90bc 49a2 693c 6bd8 3d3d a22a 9abc
000003a0: 48fc 3a3d 40b7 583d f694 a0bb 9284 03be
000003b0: 26bf 85bc 09f4 3ebe e744 b23d f49d 72bc
000003c0: 830d 49bd b63e e2bc 0763 1abc 5560 ef3d
000003d0: cea9 0cbd 1337 7fbc 131b 63bd f6eb 553d
000003e0: 4802 c7bd 35c7 c4bd b64c eebb 04ee 143c
000003f0: 142e 1a3d 91ec aa3c 3027 043e 2814 843c
-0.040618535 0.056550067 0.04873698 0.08663901 -0.034041543 -0.07011768 -0.040448837 -0.006314535
-0.05036977 -0.041784365 -0.067127675 0.091514595 0.045258 -0.055435732 -0.08221752 0.0020536191
-0.009124785 0.13861783 -0.027818337 0.007836369 -0.06447755 0.04791254 0.0102704475 -0.043126527
-0.06569631 0.055691414 -0.042505346 -0.04887645 -0.11281667 -0.018059094 0.0122689875 -0.019390635
-0.047267538 0.003716211 0.011442773 0.099482775 -0.117570914 -0.011682246 0.0006309386 0.07044981
0.09923912 -0.085363485 0.0943072 -0.014244973 -0.12293505 0.03536251 -0.028120924 -0.036005948
-0.019932738 0.023075256 -0.006532726 0.020694954 -0.01737082 -0.068583675 0.073015645 -0.047246166
0.0121382475 -0.14060913 -0.032968152 -0.09476401 -0.051440377 -0.12855943 -0.017575305 0.04724564
0.06993145 0.08758758 -0.005306504 -0.024975182 -0.031297177 -0.0066489475 -0.10963098 0.088700995
-0.032387212 0.013276388 -0.052916575 -0.034674775 0.02277885 -0.004624269 -0.03824049 -0.059467826
0.043673627 -0.14737405 0.03263066 -0.0809727 -0.15691853 0.059561335 0.00090361905 0.024364602
-0.018075118 -0.10819988 0.07405994 0.0102359615 0.07866612 0.030618476 -0.023554055 -0.02996175
0.0050723413 -0.029933933 -0.07382181 -0.10396804 -0.029760275 0.013332829 -0.009868873 -0.0077012633
0.0056868796 -0.020289417 -0.04378441 -0.03923949 0.092463136 -0.049479477 -0.041525953 0.017425723
-0.012149534 -0.08292016 0.009526684 0.1862004 0.025962515 0.00534148 -0.12850723 0.054140765
0.03279569 0.14885189 -0.027492411 -0.0018399493 -0.001078909 -0.04684499 0.023353308 -0.062145688
-0.08612347 -0.090583615 -0.02459185 -0.008681615 -0.0022343907 0.023267236 -0.029554201 -0.05495264
-0.088323645 0.04385173 -0.12339008 -0.09817757 0.10301607 0.024918063 0.0545763 -0.05949083
0.039195493 -0.024529217 -0.05642918 -0.011580642 -0.084493876 -0.0010491145 -0.08499775 -0.013516266
0.017681815 -0.0011010806 0.032064535 0.018866055 0.083902165 0.020434044 -0.030765811 0.108926766
0.07612869 -0.1499062 0.12239896 0.02644062 -0.1043598 -0.102384694 0.060826644 0.060456473
-0.120148554 -0.022849102 -0.07417109 -0.046225555 -0.039870996 -0.048881628 0.0035922085 0.03988114
0.02828297 -0.0010339149 -0.053847753 0.04002891 0.08384602 0.013452482 -0.016331278 -0.027331112
-0.017709564 -0.02218494 -0.06262844 -0.07376818 0.008571078 -0.024402266 -0.048707914 0.04858425
0.035991184 0.0016062899 -0.00085561513 0.046736393 0.070976116 0.023162365 0.064082466 -0.020693425
0.049437582 -0.01858683 -0.090104245 -0.043096643 0.013107952 0.033254445 -0.031489085 0.030281963
0.04115383 -0.097672075 0.014020785 -0.049522396 0.065030806 0.05990355 0.088509426 -0.06713331
-0.09084609 -0.031227155 0.0153436335 0.006564686 -0.021177704 -0.013777286 -0.08903645 -0.012960115
-0.044821933 -0.013508848 0.019926328 -0.027017575 -0.01762486 0.014259883 0.04634897 -0.018819157
0.04565075 0.052909136 -0.00490057 -0.1284354 -0.016326498 -0.1864778 0.08704548 -0.014808167
-0.04908515 -0.027617794 -0.009423024 0.11688296 -0.034341626 -0.015577096 -0.05544574 0.052226983
-0.09717232 -0.09608308 -0.0072723283 0.0090899505 0.0376416 0.020864757 0.12905574 0.016122892

fc2.bias f4 [128]
00000000: ba0d 3bbe 10a9 a6bd de15 00be ed85 07be
00000010: 24ab c3bd e78b 01be 9df4 fdbd fc19 c0bd
00000020: 5107 18bd 6d13 27bc 4e60 27be 5d15 f1bd
00000030: 70fc febd e1aa e6bd e20f b5bd c368 9abd
00000040: fc3b e1bd ea5c b5bd 5731 babd 1858 1cbe
00000050: 24e8 b2bd 3f22 ccbd 2573 06be 4933 8dbd
00000060: e803 96bd a7ec 01be 6f4a 27be abf4 1abd
00000070: f9bc 05be b0f6 b1bd 1ecc 4fbe cd72 55bd
00000080: 239a c73c f84e e8bd 2707 12be 1e4f 24be
00000090: ff86 d5bd 4f59 a0bd 0ebc 31be edbe 00be
000000a0: 4434 12be 5d4e 1ebe 898f 1bbe cf81 4bbe
000000b0: 3f76 24be 4c97 d9bd aeef e0bd 1055 a4bd
000000c0: fc93 4bbd 6132 cfbd 4606 1cbe b0d2 07be
000000d0: f367 0ebe a758 abbd b1ad eebd f4f6 c6bd
000000e0: 1181 1ebd 2a5f 2bbe f52f bbbd a58d 43be
000000f0: 8743 bebd 3d55 8bbd f3c7 0bbe 7a68 95bd
00000100: 7777 17be d6ff 9bbc a77c 1bbe de11 6ebc
00000110: ceab e7bd 9007 0cbe deed c5bd 5dd5 54be
00000120: ce77 0bbe 00e7 49bd e8e2 d5bd 28d6 22be
00000130: 08c1 af3c 5fed f4bd c457 5fbe 171c 62bd
00000140: cbc0 91bd 489e c5bd f349 1fbe c882 b3bd
00000150: 0bdc 17be 7209 aebd 7d34 92bd 3198 e6bd
00000160: 1bde 27be e996 19be 04ba e7bd 14b9 223d
00000170: 9480 3cbd 6fa2 cdbc fbe4 88bd 44ce 2dbe
00000180: e11f c0bd 18db cbbd bec4 0cbe b033 14be
00000190: c1ed 2cbd 9cd5 3cbe f511 c5bd ef22 c2bd
000001a0: 7fa6 87bd 019a 2cbe 6990 e1bd 40c6 b6bd
000001b0: f6ae cabd 464c 1abe 93f7 99bd adb6 debd
000001c0: 3d98 1cbe e434 09be f4c1 e7bd 7d12 b6bc
000001d0: befa 55bd 4f86 14be 2a9b 9d3c f7cf 6bbd
000001e0: 842c 9ebd d54c a4bd 33f2 adbd 65eb 21be
000001f0: 94e2 b0bc 1407 23be 1e21 dfbd f545 dcbd
-0.18266955 -0.08137715 -0.12508342 -0.13234682 -0.09554127 -0.12651025 -0.12400172 -0.09379956
-0.037116352 -0.010197503 -0.16345331 -0.11771653 -0.124504924 -0.11263061 -0.0884092 -0.07539513
-0.10997769 -0.088556126 -0.09091442 -0.1526798 -0.087356836 -0.099674694 -0.13129862 -0.068945475
-0.07324964 -0.12687932 -0.16336988 -0.03783099 -0.13060369 -0.0868963 -0.20292708 -0.052111436
0.02436549 -0.11343187 -0.14260541 -0.16045806 -0.10426139 -0.07829534 -0.17356893 -0.12572832
-0.1427775 -0.1545958 -0.15191473 -0.19873737 -0.16060732 -0.10624561 -0.10983215 -0.08024037
-0.049701676 -0.10117031 -0.15236768 -0.13263965 -0.13906841 -0.083665185 -0.11654223 -0.09715071
-0.038697306 -0.16735521 -0.091400065 -0.19097002 -0.092902236 -0.06803367 -0.13650493 -0.07295318
-0.14791666 -0.01904289 -0.1518427 -0.014530627 -0.11312066 -0.1367476 -0.0966451 -0.20784517
-0.1361992 -0.049292564 -0.104436696 -0.15902007 0.02145435 -0.119593374 -0.21810824 -0.05520257
-0.071168505 -0.096493304 -0.15555553 -0.08765179 -0.14830033 -0.08497895 -0.071389176 -0.11259497
-0.1639332 -0.14998974 -0.113147765 0.039727286 -0.04602106 -0.025101868 -0.066842996 -0.16973215
-0.093810804 -0.09953898 -0.13746926 -0.14472842 -0.042218927 -0.1844086 -0.09622566 -0.09479319
-0.066235535 -0.16855623 -0.11013872 -0.08924532 -0.098966524 -0.15068159 -0.07517924 -0.108746864
-0.1529245 -0.13399082 -0.113162905 -0.022225613 -0.05224108 -0.1450436 0.019239027 -0.057571378
-0.077233344 -0.08022467 -0.084934615 -0.15812452 -0.021592416 -0.15920669 -0.108949885 -0.10755531

fc3.weight f4 [1, 128]
00000000: 6d4b f03b 82a0 b53b 4b4f 893d 8961 3fbd
00000010: 93d2 063d a8e1 ed3c e4d8 913d f8d2 00be
00000020: 7e9a 743d 107f 31bd d7f5 d83d 95b4 1c3d
00000030: 7796 aabd 93c4 35bd e1ee 66bd 69e8 fb3c
00000040: adda ce3d ed93 28bd 976f 833c d6cc cb3c
00000050: ad0f 293c 9793 603d d8c1 c43b 174a 0b3d
00000060: a9ab 493d 8db8 fdbc f99f 913d 82e1 14bd
00000070: 45e8 eb3c b002 41bd 3d84 1e3d d73f 5f3d
00000080: 0d46 023d c711 3fbd de1c 81bd 06de 273d
00000090: 348a 593d bdad 6b3c f310 a83b 206d e23c
000000a0: bbe8 a83d f613 983c c10c fabb 1392 b73d
000000b0: 644e e73c ffa7 b8bc f3cd 4f3d 4ff4 bfbc
000000c0: a83c 043d 5992 d4bc a629 2c3d 4cbe c737
000000d0: bcdd 8f3d 5dc6 debb 60ff 11be 60d1 e6bd
000000e0: 3866 1ebd 8f18 0b3e a7c2 e1bc d257 7e3d
000000f0: 5090 523d 119e 74bd 10a9 9ebc 29a3 343c
00000100: 5b8b fb3b d252 573d d21c 50bd 044f 06bd
00000110: fb00 d23c 4d31 be3d 7a94 363d 54dd 08bd
00000120: a5eb 1b3d eb00 a43b 514e c03d dd91 653d
00000130: 786a eebc 19d2 30bc 8666 113d 0b39 3f3d
00000140: 2def 993c aa73 b03c 7ffc d7bd 0db6 f5bc
00000150: 48fb 683c 3393 80bd d172 be3c d8ba df3d
00000160: 0e4f 65bb e045 88bd a9b6 e7bc 3f05 8c3c
00000170: 3795 5cba f819 683c 51a6 153d 6fdc 543b
00000180: c5c7 10bd 7956 22bd e13a e13c 1e2a 713d
00000190: f61c 0b3e b3e7 b93c a107 d4bc 9f27 303d
000001a0: d4ff 3439 cb2b e0ba afca 073d 62c7 563b
000001b0: f235 7cbb 75c2 3cbd eed3 9f3d 95cf de3c
000001c0: 6593 bc3b 19a2 c3b9 5ce9 773c b005 e63c
000001d0: 0f18 f5bd e280 56bd d067 1abd ad2d 6c3d
000001e0: ad0b d73d 2e4d 9c3d cc60 5bbd 05d0 a63c
000001f0: c96e 863d 6ca6 93bd fe7b a43d 003d 943c
0.00733321 0.0055428157 0.06704577 -0.046723876 0.032915663 0.029038265 0.07121447 -0.12580478
0.059717648 -0.043334067 0.10593765 0.038258154 -0.0832948 -0.04437692 -0.056380156 0.03075047
0.10100303 -0.041156698 0.016044421 0.024877947 0.010318679 0.054828253 0.0060045533 0.034006204
0.049235974 -0.03097179 0.071105905 -0.036347874 0.028797278 -0.047121704 0.03870033 0.05450424
0.031805087 -0.046647813 -0.06304334 0.040983222 0.053110316 0.014384684 0.0051289736 0.027639925
0.08247515 0.018564206 -0.007630915 0.08963408 0.028235622 -0.022541044 0.050733518 -0.023431925
0.03228441 -0.02594869 0.042031907 2.3811263e-05 0.07024714 -0.006798549 -0.14257574 -0.11270404
-0.038671702 0.13583587 -0.027558638 0.06209547 0.05140716 -0.059721056 -0.019367725 0.011025229
0.0076765246 0.052569218 -0.050808735 -0.0327902 0.025635233 0.09286747 0.044575192 -0.0334142
0.038066525 0.0050049922 0.09389938 0.05604731 -0.029103503 -0.010792279 0.035498165 0.04668526
0.018790806 0.021539528 -0.10546207 -0.029994035 0.014220066 -0.06278076 0.023248108 0.109243095
-0.0034989747 -0.066539526 -0.028285341 0.017092345 -0.0008414569 0.014166348 0.036535565 0.0032480021
-0.035346765 -0.039633248 0.027493896 0.058878057 0.13585266 0.02269349 -0.025882544 0.043006536
0.00017261441 -0.0017102895 0.03315228 0.003277265 -0.0038484302 -0.046083886 0.07804094 0.027198592
0.0057548755 -0.0003731407 0.015131321 0.028078884 -0.119674794 -0.052369006 -0.03769666 0.057660747
0.10500274 0.07631908 -0.05355911 0.020362863 0.06564099 -0.07209477 0.08031462 0.018095493

bn1.weight f4 [256]
00000000: 4872 093e 5c21 2d3f 11e8 ce3e 250d 883e
00000010: 7879 ce3e da11 f03e 7092 fc3e 6803 b53d
00000020: 9829 6e3e da3b b23e ed08 a03e 353c d03e
00000030: f71a 133f a95f 213e 3351 9c3d 6e18 423e
00000040: c4b5 003f 70d9 603d 7356 d13e e2ee 363e
00000050: 8343 3e3e ab22 023f 3bef b83e 5cd4 343f
00000060: c726 093f 6227 f53e b4f3 0a3f cd87 023f
00000070: da6d 3d3e fe5a e23e 56b4 c03e 43c3 1b3f
00000080: 73eb da3e 6660 753e 24c9 f43e 9916 7e3e
00000090: 64b2 1c3e f9c1 953e 674c 0d3f a0de 8a3e
000000a0: 3a9e 6e3d 4942 093e 7ec5 ac3e 6538 db3e
000000b0: 1716 94bc 7a5d 333e 2031 a63e adf2 e33e
000000c0: b36a a53e aa15 b33d 617e 093f 012c 063f
000000d0: c459 b33e 71d9 413f f924 dd3e 902d a53e
000000e0: 3ed9 283d d16c ac3e 5a2c ec3e 715f 903e
000000f0: 944e cc3e 7d57 0b3e 797b f03e 5654 843e
00000100: 7207 e83d 4cf3 2d3f 0240 4c3e 25a2 093f
00000110: 3e48 313f d3a2 f73e 4dea 623d 79f6 2d3e
00000120: d36f f03e b688 fc3e 27b6 c53e d9b5 de3e
00000130: 3dcb 1a3e a85b 663e d30f a33e 7bee e13e
00000140: d583 083f fec7 5e3c 9901 003e d14b 463f
00000150: 8fcb 423e 7129 813e 4c30 fc3d c883 da3e
00000160: ae3a 2d3f a737 b23e 59f4 6c3f 2e34 173f
00000170: 996e 293f 2eac 8d3e b57d a13e 84b6 003f
00000180: 37d7 263e 96c0 b43e b0c7 453e 0709 c83e
00000190: 13c9 833e 7f41 fe3e 33ba 0e3f b179 e73e
000001a0: 9618 9f3e 6da4 d13e e43f 093f 626b 7c3e
000001b0: a6d4 0d3d 0fe9 543d 3169 163f c8c7 463f
000001c0: 4f04 713f f30f 873e 9e36 d53e 4c0a 3d3e
000001d0: 2481 2c3f 52b2 fb3e 3478 343e a148 b83e
000001e0: 146e d23e ea31 d63d 5edd d13d dcb5 d53e
000001f0: 0bc1 a83d dc12 d83d 6e7b de3e ff0b 5d3e
00000200: 60d2 bc3e e83c 4e3f 3132 9d3e bab1 c33d
00000210: 5267 003f 5904 e93e 7436 aa3e 7402 193f
00000220: 1cd1 023e b1ae 2a3f e825 8b3e 67e8 213e
00000230: f748 d83d 2d07 b13e a5b4 823d 1776 a33e
00000240: 414a f43e f1d8 cf3e f0c7 983e 1017 eb3e
00000250: 0402 8d3e a425 3b3e 77e2 493e c832 e13e
00000260: 64b2 123f 7516 423e ddf0 ba3e aef7 333f
00000270: 89b7 be3e 0528 193f 4a80 043f c103 ee3d
00000280: 5804 263f 0602 fd3d ab30 c43d 35ae 093f
00000290: 83ad 473e 3b50 873e ce95 923e 72d4 1a3e
000002a0: 9e0b 1a3e cd77 a93e 576e 463e 1516 8b3e
000002b0: 5403 ea3d 7389 713e e461 ba3e 2983 a73e
000002c0: 1931 ac3e 87d8 5b3f 21c5 083f 3230 523f
000002d0: cd92 a83e 8daf 0f3f 5875 283c e441 3d3e
000002e0: dce4 8f3e 19c8 a53e 12db 813e fef9 c43e
000002f0: 4d8d 383e 5876 153f 3096 f13e c2a4 fc3e
00000300: dfa4 ec3e 265c 013e 76a2 1f3f fa31 f73d
00000310: b234 003f 2712 ed3d 9c6e 9e3e a5b6 083f
00000320: 6599 ec3e 9d9a d63e adcc e23b 1245 393e
00000330: 8425 f03e 6f7c bf3e 9625 8b3e a24f 333f
00000340: 2b31 403e dc27 ca3d 3cc2 0d3f eeff 9b3e
00000350: 7be5 e63e 1185 2e3e f462 3b3f 822b f03e
00000360: 935e 643e 3a43 d93e 7a1b 9a3e 1a60 4d3f
00000370: c99f 223f c5eb 163e a1f0 993e 14dc 583e
00000380: 68d7 833f 4a4a 7c3f db89 353e c3e5 263f
00000390: 7799 443f f4a3 023f 80d1 e83b 9ac2 7c3f
000003a0: 17cf db3e b613 a53d 4fc4 523e 93d3 633e
000003b0: 2c0e cd3e b7ee 1c3f 8c50 0f3f 88d7 093f
000003c0: 60d4 cf3e d1c0 453f ca05 873e b03b 333f
000003d0: 7e38 4e3f 8c5f eb3d b57f 903e 2f64 cd3e
000003e0: 3d8e 1b3e b235 693f f0ef 0b3e 1c92 f93e
000003f0: 3876 8c3e 900b 213f 8340 8b3d 62c9 3a3f
0.13422501 0.6762903 0.40411428 0.26572528 0.40327048 0.4688862 0.49330473 0.0883854
0.23258054 0.34811288 0.3125681 0.40670934 0.5746302 0.15759148 0.07632675 0.18954632
0.5027735 0.054894865 0.40886268 0.17864564 0.18580441 0.5083415 0.36120018 0.70636535
0.53574795 0.4788161 0.5427811 0.50988466 0.18498936 0.44210047 0.37637585 0.6084482
0.42757758 0.23962554 0.47809708 0.24813308 0.15302426 0.29249552 0.55194706 0.27122974
0.058256365 0.13404192 0.33744425 0.42816463 -0.01807694 0.17516127 0.32459354 0.44521084
0.32307968 0.087443665 0.53708464 0.52410895 0.35029423 0.75722414 0.4319227 0.32261324
0.041222803 0.3367677 0.46127588 0.28197816 0.399037 0.13607593 0.46969202 0.25845593
0.11329545 0.67949367 0.19946292 0.5376304 0.6925086 0.48366413 0.055399228 0.16988553
0.46960315 0.49323052 0.38615534 0.43498114 0.15116592 0.22495902 0.3184801 0.4412726
0.5332616 0.013597487 0.1250061 0.77459437 0.19022964 0.2522693 0.123138994 0.42678666
0.67667663 0.34808084 0.92560345 0.59063995 0.66184384 0.27670425 0.3154122 0.50278497
0.16293035 0.3530318 0.19314456 0.39069387 0.25739345 0.49659345 0.5575287 0.4521003
0.31073445 0.4094576 0.53613114 0.24650338 0.034626625 0.051980074 0.5875426 0.7764859
0.941472 0.26379356 0.41643232 0.18460959 0.6738455 0.49159485 0.17623979 0.3599291
0.41099608 0.10458739 0.102473006 0.4174031 0.08239945 0.10550472 0.43453544 0.21586607
0.36879253 0.80561686 0.30702356 0.09555383 0.50157654 0.4551113 0.3324467 0.5976937
0.12775081 0.6667281 0.27177358 0.1581131 0.10560792 0.34575787 0.063821115 0.31926033
0.477129 0.405952 0.2984004 0.45916033 0.275406 0.18276078 0.19715296 0.43984056
0.5730345 0.18953879 0.3651189 0.70299804 0.372494 0.5982669 0.51758254 0.1162181
0.6485038 0.123539016 0.09579595 0.53781444 0.19499783 0.26428398 0.28629917 0.15120104
0.15043494 0.33099213 0.19378029 0.27165285 0.11426416 0.23587589 0.3640281 0.32717255
0.3363121 0.8587727 0.53425795 0.8210479 0.329245 0.56127244 0.010281883 0.18482167
0.28104293 0.32379225 0.2536245 0.3847198 0.18022652 0.58383703 0.47184896 0.4934445
0.46219537 0.12632808 0.6235727 0.12070079 0.50080407 0.11575728 0.30943763 0.53403693
0.4621078 0.41914836 0.006921372 0.18092754 0.46903622 0.37399623 0.27177113 0.70043385
0.18768756 0.09870884 0.55374503 0.30468696 0.45096955 0.17042948 0.73197865 0.46908194
0.22301702 0.42434102 0.30099088 0.80224764 0.6352506 0.14738376 0.30066398 0.21177703
1.0300112 0.98550856 0.17728369 0.6519434 0.7679667 0.5103142 0.0071050525 0.9873444
0.42931435 0.080604 0.20582698 0.22248678 0.40049875 0.6130175 0.5598228 0.538445
0.40591717 0.7724734 0.26371604 0.7001295 0.8055495 0.114928335 0.28222433 0.40115497
0.15190978 0.9109756 0.13665748 0.48744285 0.27433944 0.6290827 0.06799414 0.72963536

bn1.bias f4 [256]
00000000: 9ef5 a23d 3a07 d63d acb7 303d 22d0 90bd
00000010: 44ef 283d fa12 8c3e f54b a63a 6916 f9bd
00000020: bc79 903d 66cd 143e f81a 133e ae89 923c
00000030: 7028 043e 9dee ac3d 41c6 3a3e 6e11 843c
00000040: da5c 183e 0093 a2bd b9fa 693d 661d fcbc
00000050: af68 e53b 744d 0cbe 9b66 63bd 892d 893e
00000060: 4b5e 3f3e 5488 403e 3ed5 8f3e a8ac e93d
00000070: b23c 1e3e 2fc0 083e 6d72 1cbe 6999 47bc
00000080: af08 143d 00ce 053e c8f0 09bd 0881 e7bd
00000090: 3b15 3e3d 3968 de3d 0a13 633d cb66 5a3d
000000a0: 836a 39be 4a2c 0e3e 1e0a 333d 0352 023e
000000b0: 7357 123e a2e5 803c 9e90 3f3e ccd8 0c3e
000000c0: 9b21 703e fe04 1bbe c712 613e 4381 193e
000000d0: ea5e 403e b6d7 cb3d 084d 7f3d cd97 1b3e
000000e0: 19d4 36bd 19bf 413e 460d a73d b309 323d
000000f0: 50a8 653c e20c 853e 8b21 563e a30e d5bd
00000100: 17e5 dbbb 5632 1f3e 1ece bb3d ae30 2a3d
00000110: a2e1 0e3e a95d d13d 239a c73d 5f45 bebc
00000120: c408 d43d 6e51 0d3e e7e8 713d 92c5 5c3e
00000130: 95aa 423d 2854 17be c536 173d 8552 383e
00000140: bf62 b63d 2d4a 873e 0be9 12bd ed0d b13d
00000150: 9e03 633e 9551 fcbd be48 973d cac8 18be
00000160: 1022 d73c d961 153e 5c73 383e 307a c73c
00000170: c83f 1d3e 08a4 a23d 55ec a9bb 9541 693c
00000180: a1c7 0abe 0ca8 083e 5682 e73d 4109 7c3d
00000190: 0cd0 d53d ff73 223c 91af ed3d 6310 4d3b
000001a0: de0c 8a3d 79d3 bb3b 96a8 023e d0c6 8fbd
000001b0: 7e12 3cbe bbdf 5e3e 426a 923e a640 57bd
000001c0: ed81 033e e04c d73d 2498 363e 4bbe 6bbe
000001d0: 6bcd 263d 4af9 d93d 1678 403e 94dc e8bd
000001e0: 5ed2 203e d52b 43be 112a dbbd 0852 3c3e
000001f0: 390c b6bd dc6e 89bd 6dfc b93d 4ee3 8f3d
00000200: 09ee 613e af55 963d 5609 883e 6446 f7bc
00000210: 5392 bb3d 6db3 543d 2db1 073e 8fe8 6d3c
00000220: ae1b 243e 2fd5 5f3e a2bc f73d 6a2d 0f3e
00000230: ff4f efbd 19e2 a0bb a527 02bd 1099 203e
00000240: 88f4 063d 70b2 4f3e 6afe 3e3e c96d ef3d
00000250: 9223 193e 2d2e 6dbd 96ea 283e b5ff 113d
00000260: 7ab2 4b3d e788 92bc e95a 913d 7107 9d3d
00000270: af3d 503d e948 ca3c 5cbf 3a3d 0d18 ccbd
00000280: 490d adbd 1e42 233e 9137 45be 24d6 0b3e
00000290: 7b68 4a3e 8823 943d ed0a 6c3d 6765 26bd
000002a0: f95f 133e 6e5e b63d caa9 c33d be57 193e
000002b0: 1fa6 a13d 1621 563e f498 40be 4380 25bc
000002c0: 6857 61bd 6d27 b63d 7c9a a83d 5d27 703d
000002d0: c01c d33d 5611 30bc 351b d73a c020 8a3d
000002e0: ad24 1b3e 9561 193e 6918 533d 3816 343e
000002f0: dd96 17be 3862 873e d834 27bc e2a3 31be
00000300: a5d2 193d 2d85 4dbd e672 053e 446e f4bd
00000310: f621 1f3e f25a 123d 2572 62bd a484 0a3e
00000320: 1c95 e03d e552 333e caee 353e 771e d53d
00000330: 60f7 1c3e 0a24 043e 8771 243d 5a93 d03d
00000340: 0858 553d 6a9f 383e ad53 e2bc 5619 753c
00000350: 5885 2a3e ae46 65bc 781a fe3d 06fd 083e
00000360: 99b4 623d eaf3 1c3e d7a0 2a3e 9d0b 8d3e
00000370: b7ee 1a3e cee3 40bd a7d3 1e3e 6b38 b0bd
00000380: c417 4d3e 75a4 b23d 3068 b03d 5ef1 eabd
00000390: 74dc 96bd eadf 4fbc 4077 c7bd 94a3 763e
000003a0: e9b1 513d ff8e 92bd 2347 b73c c5c0 0e3e
000003b0: 5fde cabd f230 083e 4b93 e03c 8a75 c53d
000003c0: 3dec 2d3e 50b3 5a3b 48a4 2a3e 20e5 323e
000003d0: 89be 353e ffe0 d63d c2d2 aabc 741b 0cbd
000003e0: a179 823d f42a 2d3e d91b 38bd 2d69 dc3d
000003f0: a5b0 e53d e92d 263e dc77 2fbe 93eb 2e3a
0.07957004 0.10450597 0.043143913 -0.07070948 0.041243806 0.27358228 0.0012687432 -0.121624775
0.07054469 0.14531478 0.14365757 0.017887916 0.1290605 0.08443949 0.1823969 0.016121592
0.1487917 -0.07938194 0.057123873 -0.030775737 0.0070010046 -0.13701421 -0.055517774 0.26792553
0.18688314 0.18802005 0.28092378 0.11409885 0.15452841 0.13354562 -0.15278025 -0.012182572
0.036141094 0.13066864 -0.033676893 -0.11303908 0.046406966 0.10859723 0.05543808 0.053320687
-0.18107037 0.13884082 0.04371082 0.12726597 0.14291172 0.015734497 0.18707511 0.13754576
0.2345032 -0.15138623 0.21979819 0.14990716 0.18786207 0.09953253 0.062329322 0.15194626
-0.044635866 0.18920554 0.081568286 0.04346628 0.01401718 0.2598639 0.20911233 -0.10403182
-0.0067106592 0.15546545 0.09170173 0.04155033 0.1395326 0.102229424 0.09746196 -0.023226438
0.103532344 0.13800594 0.059060004 0.21559742 0.04752596 -0.14778197 0.036917467 0.18000229
0.08905553 0.2642378 -0.03586678 0.08645234 0.22169349 -0.12320248 0.07386921 -0.14920345
0.02626136 0.14588107 0.18012756 0.024350256 0.15356362 0.07941443 -0.0051856437 0.014236827
-0.13552715 0.13345355 0.113041565 0.061532263 0.104400724 0.009915351 0.11605752 0.0031290285
0.067407355 0.0057319966 0.12759623 -0.07020342 -0.18366429 0.21765034 0.28596693 -0.052551888
0.12842532 0.105127096 0.17831475 -0.2302181 0.040723246 0.10643251 0.18795809 -0.11370197
0.15705249 -0.1905969 -0.10701383 0.18390667 -0.0888905 -0.06710598 0.090813495 0.07025777
0.2206346 0.073405616 0.26569623 -0.030184932 0.091587685 0.051928926 0.13251181 0.014520778
0.16026184 0.21858667 0.12096526 0.13982168 -0.1168518 -0.0049097654 -0.03177609 0.15683389
0.032948047 0.20282912 0.18651739 0.11690862 0.14954975 -0.057905365 0.16495737 0.03564425
0.049730755 -0.017887546 0.07097418 0.07667435 0.050840076 0.02469297 0.04559265 -0.09965525
-0.084497996 0.1594319 -0.19259478 0.13655907 0.19766419 0.072333395 0.057627607 -0.04062405
0.1439208 0.0890473 0.09553869 0.14974877 0.07893013 0.20911059 -0.18808347 -0.010101381
-0.055014998 0.088942386 0.082325906 0.05863129 0.10308218 -0.010746321 0.0016411307 0.06744528
0.1515071 0.14978631 0.05153695 0.17586601 -0.14803644 0.26442122 -0.01020547 -0.17347673
0.037554402 -0.050175834 0.13032112 -0.11935094 0.15540299 0.035731263 -0.055284638 0.13527161
0.1096594 0.1751209 0.17766872 0.10406201 0.15328741 0.12904373 0.04014733 0.10184355
0.052085906 0.18029562 -0.02762779 0.014959654 0.16652429 -0.013993902 0.12407392 0.13377771
0.055348013 0.15327421 0.16662918 0.27547923 0.15130125 -0.04709225 0.15510426 -0.08604511
0.20028597 0.08722774 0.08613622 -0.114718184 -0.07366267 -0.012687663 -0.09739542 0.24085838
0.05119506 -0.071561806 0.022372788 0.13940723 -0.09905695 0.13299921 0.027413985 0.096415594
0.16984649 0.0033371039 0.16664231 0.17470217 0.17748465 0.10492133 -0.02085245 -0.03420587
0.06370855 0.16910917 -0.044948433 0.10762248 0.11215333 0.16228451 -0.17135566 0.00066726765

bn1.running_mean f4 [256]
00000000: 6c31 c43f e310 d23f f61f 9e3f 3dd8 b23f
00000010: 31e8 5040 0996 2240 c629 2440 ed83 1840
00000020: 3ca3 813e 468d a43f 9692 013f 900a ee3e
00000030: 258c 0c40 9d53 4040 425f 5b40 d387 fe40
00000040: 66c7 2b3f 0a7b 9f40 b5a7 6f40 a667 9640
00000050: 62de ae3f 9071 8240 76d1 aa40 3f26 9f40
00000060: df18 e13f 4830 de3e 1c7d 8b3f 6a5f 1c40
00000070: 0e18 c23f 11e7 4d40 44d4 bb40 65e9 c13f
00000080: 1eb7 e33e d800 e73f 304b 2d40 e253 7840
00000090: 1523 eb3e 740a 013f 567e e540 cf14 b73f
000000a0: 569b 813e 89d5 6940 e465 4a3e 9a81 8240
000000b0: 2c83 3c40 c190 bb3f ede5 5440 3802 473f
000000c0: 39f5 5240 2981 9740 1af3 df3e 4832 c93f
000000d0: a50d 843f 6317 5240 762a 8f3e b637 eb3f
000000e0: a0bb 7440 0a83 773f ee0f 5d3f 9058 a53f
000000f0: 3e9a aa3f f59a bf3e 4709 733f 86a1 ba40
00000100: 7025 a13f 4832 7040 17b2 a33f 027e 453f
00000110: b335 d140 a431 2a3f cbdb e940 f6c3 953f
00000120: 608c 8f40 47dc 3e40 0b25 d33f 3989 9c40
00000130: 28c0 c83f 817a 4c41 8c11 0b3f 6987 c13e
00000140: c902 0540 3f94 d940 0c00 f73f e3fd 093f
00000150: dd39 a53e 58a6 f73f 681e 9440 2152 8740
00000160: ca37 f53f 88a9 973e 3fb8 9540 f98c 4740
00000170: d745 a43f be2d e940 24d9 8e40 d247 b040
00000180: f855 3d40 fa50 0b3f 1897 663f 968d a63e
00000190: acbb 943f 8087 ac3f bea9 343f ecae 6f40
000001a0: 2441 da3e 635a 5b40 ddff 1c3f 0a61 0e40
000001b0: 426a be3f aa31 8040 2ad2 e03f fb48 5c40
000001c0: a6a6 733f 5bae 2e40 23d1 5e3f f323 4440
000001d0: ee26 4540 6e03 0041 33b7 6e40 d142 e73f
000001e0: 9e9b 253f 318d 403f 932c b040 b6f7 043f
000001f0: 583d 8f40 d029 4740 0e2e dc3e d8a8 6d3f
00000200: ed7e 1b40 058f 1e40 e93c 8e3f a57e 593d
00000210: 931d d63f 1c90 573f 4e45 6c3f a6ef 8a40
00000220: b909 f43f d977 1540 101e d03e 34f7 8a40
00000230: 7838 1140 5035 033f 31a7 1c40 c58d d23f
00000240: 4d13 503f bfcd cb40 b937 af3f 25b6 2340
00000250: 29d8 5340 9e1c a93f 1e34 393f 911d b13f
00000260: 15ab 2a3f 9105 be3f a3d0 4340 44a3 823f
00000270: eb8f 3740 615b ad40 0fca 4b3f e965 423e
00000280: 3102 5e3e e06c 743f 9cde 0f40 436c 273f
00000290: ae7e 3240 a1f6 923e 51a6 b43f d852 983f
000002a0: ba46 5840 77dc 9940 d350 a93f 271c a13f
000002b0: 8335 fe3f 6917 7140 935e 1841 8106 6640
000002c0: 6b93 7c3f 87f9 9640 d805 2740 93d3 b03f
000002d0: 730a b93f cdf8 4a40 15fd d63e 4c16 0840
000002e0: 04c2 9040 d6d3 223f ce44 b63f c00f c43f
000002f0: 62e8 c340 742e 2c40 a03c 5040 0c07 873f
00000300: 2e85 1d41 21a6 4540 5297 923e b02e 7b3f
00000310: 207e 1840 a0dc c440 83e0 0340 78b3 0b40
00000320: 7d0c 3f3e bf89 e03f e04f b440 b8ac 2240
00000330: 0583 2840 97f1 cb3e ba56 7a3f ad80 8a3e
00000340: 0548 503f 35b9 af3f f9f0 da40 eaa2 5f40
00000350: af7c 973f 1e38 6f3f e5e8 0a40 aa3f 7b3f
00000360: 25c8 533f 184e 9e3f 52e6 6a3f d553 0e3f
00000370: e751 0040 367f 223f 7d66 3640 bf56 5e40
00000380: bc6e 063f 1a4f d040 aebe e63e 415f f83f
00000390: 769f 4340 5ace 8c40 ac06 b93f 808a 9f40
000003a0: 987c 0e40 be4d 223f 0056 a73f 390a 8a40
000003b0: d978 0540 046b cc3e e49e f23f ab4f a340
000003c0: 1044 b23f 23af 443f c5ca 2540 35f5 893f
000003d0: 7340 a13f 9acb 9140 b3bc a740 8801 9340
000003e0: 2d89 5840 6cb0 0841 a9e6 c63e e66a 2440
000003f0: b92f 1740 4c2e a73e 2bcd d440 3a5a bc40
1.5327582 1.6411403 1.2353504 1.3972241 3.2641718 2.5404074 2.5650496 2.383052
0.2531985 1.2855613 0.506143 0.46492434 2.1960537 3.0051033 3.427689 7.95408
0.6710113 4.9837694 3.744611 4.7001524 1.3661616 4.0763626 5.338069 4.9734187
1.7585715 0.4339621 1.0897555 2.4433236 1.5163591 3.2172282 5.8696613 1.5149351
0.44475645 1.8047132 2.707714 3.8801198 0.45925203 0.50406575 7.171672 1.4303225
0.25313824 3.6536582 0.1976543 4.0783205 2.945506 1.465355 3.3265336 0.7773776
3.2962172 4.7345166 0.4374016 1.571847 1.0316664 3.2826774 0.27962083 1.8376377
3.8239517 0.96684325 0.8635243 1.2917652 1.3328321 0.3742291 0.9493603 5.832217
1.258955 3.753069 1.2788724 0.771454 6.537805 0.66481996 7.30808 1.1700428
4.4858856 2.9821947 1.649568 4.891751 1.5683641 12.779908 0.5432365 0.37798622
2.078295 6.7993464 1.9296889 0.53903025 0.3227071 1.9347639 4.6287117 4.2287755
1.915765 0.2962153 4.678741 3.1179793 1.2833813 7.286834 4.4640064 5.508767
2.958372 0.54420435 0.900743 0.32529896 1.1619773 1.3478851 0.70571506 3.7450514
0.42627823 3.4273918 0.61327916 2.2246728 1.4876177 4.0060625 1.7564137 3.4419544
0.9517616 2.7293918 0.8703787 3.0646942 3.080501 8.000837 3.7299316 1.8067266
0.6469058 0.7521544 5.505441 0.51940477 4.4762383 3.111927 0.43003887 0.9283576
2.429622 2.4774792 1.1112338 0.053099293 1.6727775 0.8420427 0.9229325 4.341754
1.9065467 2.33544 0.40647936 4.342676 2.2690716 0.51253223 2.4477046 1.6449515
0.8127945 6.3688655 1.368888 2.5579922 3.3100684 1.3211858 0.7234515 1.3837148
0.666673 1.4845449 3.0596092 1.0206075 2.868159 5.4174047 0.7960519 0.18984188
0.21680523 0.9547863 2.247962 0.6539957 2.788982 0.28703788 1.4113256 1.1900282
3.3793168 4.808162 1.322779 1.2586716 1.986008 3.7670538 9.523089 3.594147
0.9866244 4.71796 2.6097317 1.3814567 1.4456314 3.1714356 0.4198996 2.126361
4.5236835 0.63604486 1.4239748 1.5317307 6.122117 2.6903353 3.2537003 1.0549026
9.845015 3.0882647 0.28631073 0.98118114 2.382698 6.151932 2.060578 2.182829
0.18657108 1.7542037 5.6347504 2.541792 2.6329968 0.39832756 0.97788584 0.27051297
0.81359893 1.3728396 6.8419156 3.4943185 1.1834925 0.93445003 2.1704648 0.9814402
0.8272727 1.2367582 0.9175769 0.5559667 2.004999 0.6347536 2.8500054 3.4740446
0.5251272 6.509656 0.45067352 1.9404069 3.0566077 4.4001894 1.4455161 4.9856567
2.2263546 0.63399875 1.307312 4.313748 2.085501 0.39925396 1.895474 5.103475
1.3927021 0.7682974 2.590501 1.0777956 1.2597793 4.5561037 5.2417846 4.593937
3.3833725 8.543072 0.38847855 2.5690246 2.3622878 0.3265251 6.650045 5.886014

bn1.running_var f4 [256]
00000000: b8d7 f540 d3b8 1741 49cf cd40 26ee c440
00000010: dda8 9741 1678 9041 c704 f640 e5f7 5141
00000020: f621 983f 153b 0341 2972 0c40 3380 8c3f
00000030: 23ba a141 2ad2 8a41 6571 9141 9353 0042
00000040: 504a 0d40 0b5e 7b42 2579 7d41 7e0a d241
00000050: 8cb2 0241 5cb9 ae41 e740 6641 f389 2442
00000060: 8ff5 3c41 9ac5 9c3f 2613 8940 446e 5f41
00000070: e87c f840 e80d 8b41 f793 0b42 f1e6 b640
00000080: 85a1 e63f c645 0241 23df 6841 17d0 2b41
00000090: 9d61 2740 9ea0 0040 b953 7142 483f c740
000000a0: f808 ff3f 277b a141 96cd 6f3f 750e 0242
000000b0: fa35 7b41 8be8 0041 f2e6 6341 98a9 2240
000000c0: 7810 d341 a3fe b841 ea46 963f f85d d740
000000d0: f2ad 2c40 b7df 3e41 5df8 763f 0c7a 1941
000000e0: eff3 cd41 673e d540 3b2b 8340 6980 d340
000000f0: de73 db40 8eec e73f f7b5 b340 cce0 1342
00000100: 7b78 a540 227d 2342 b06d fb40 e058 2240
00000110: d952 ce41 e03b 2b40 abbe a042 7813 b640
00000120: d1ea 6941 0644 4d41 56b1 1641 561e ee41
00000130: c269 9140 7ab0 a841 5cb5 2540 3932 c43f
00000140: 3ac4 c340 3a76 bd41 869a c440 3c29 bc3f
00000150: eae7 b33f b5dd 1141 e854 7041 8aab a641
00000160: bad9 5e41 3ae2 433f f1ce 6a41 01e4 7341
00000170: 94b1 af40 6d58 1d42 7a37 cd41 bba6 1042
00000180: a379 8e41 99ea 0340 d618 8440 810f 6b3f
00000190: 654b 5c40 99de ad40 ae74 5a40 89bb e641
000001a0: d139 883f d8f9 4841 2ec6 0c40 4fdd 9841
000001b0: 54c3 2541 d3cd 0142 42e7 2e41 6df1 4c40
000001c0: 1066 063f 9042 9041 1236 5940 b591 5941
000001d0: b0e3 0041 a411 b941 faed 0442 4467 eb40
000001e0: 69d6 3d40 96a8 a940 31f1 e441 6f6a 3240
000001f0: b782 a741 9222 7d41 02a3 f93f 32aa ae40
00000200: 5745 5541 29d3 0b41 85a3 8340 c973 bb3d
00000210: 232e a440 9dcf 5140 38f2 6d40 46fd ab40
00000220: d885 0441 8edd fb40 7e84 e93f 3584 0742
00000230: 712f 4341 ec6f f83f 02b8 2d41 f07f 4941
00000240: ce0e 7440 633e 5842 7b40 1441 1c9b 0941
00000250: 8064 6041 0596 0441 0847 2b40 6b8c a140
00000260: 355d 5240 496e 6440 8313 4a41 9093 f43f
00000270: a19d 0a41 b150 f240 f180 2040 97df 6f3f
00000280: dbd5 233f a8cf b140 218d 5c41 cc80 7040
00000290: 05d5 5641 102d 703f e41c de40 8644 8a40
000002a0: 12ed c841 45dd 7a41 ac09 7a40 336b 1041
000002b0: d0ca 3241 b1cf 9a41 8c1c 7841 8092 b241
000002c0: 7815 9c40 d505 3742 076a 9841 9a78 5d40
000002d0: 2220 bf40 659a ea40 d39b f33f e12b a341
000002e0: c4b6 8041 325e 3340 6b1a b440 26d8 1241
000002f0: 23c4 3d42 3978 8941 5ce2 0342 085d 7f40
00000300: d53b 2441 3793 4e41 92fc 323f 2457 c240
00000310: d22c 3241 0334 7041 3ad9 7641 db9f 9341
00000320: 04fa 133f eaf5 3341 b585 1542 8138 9741
00000330: 3b89 9d41 b25f 983f 9a9f cc40 5cf7 623f
00000340: eb5e 6040 e7af 0b41 1f46 d041 5ff9 8d41
00000350: 7a08 a740 3d3f 5d40 747d 5041 a99f 8a40
00000360: 3121 3540 3d5c cc40 6288 a040 6219 2c40
00000370: 58cf 4141 c3fc c53f 814c 8341 1dc7 1341
00000380: 74ad 3b3f 223c 3742 b546 2540 d4b7 0a41
00000390: e55f 3f40 cf19 0542 279a 2941 8747 4642
000003a0: 83a2 1e41 524a 6040 4dd6 2441 9384 5842
000003b0: 2c23 9840 e9a8 1040 ceba 6a41 df00 6a42
000003c0: bd90 c140 99d1 2640 f5ac 2241 f1dd 8640
000003d0: 02c5 6640 c289 0a42 f1d6 0142 23b0 dc40
000003e0: 4f15 8741 b1ec f742 3a75 ea3f 9572 6741
000003f0: c6f0 0441 8933 833f 34fb 4042 a7ed 2342
7.682583 9.482623 6.4315534 6.154071 18.957453 18.058636 7.688083 13.123021
1.1885364 8.201924 2.1944678 1.0976623 20.215887 17.35262 18.180368 32.081615
2.2076607 62.84184 15.842076 26.255123 8.168591 21.840508 14.390845 41.134716
11.809951 1.2247803 4.2835875 13.96442 7.7652473 17.38179 34.894497 5.715691
1.8018042 8.142035 14.554477 10.738303 2.6153328 2.0098033 60.33176 6.226475
1.9924612 20.185133 0.93673074 32.51412 15.700678 8.056773 14.243883 2.5416012
26.383041 23.124334 1.1740391 6.730221 2.6981168 11.929618 0.9647272 9.592297
25.744108 6.6638675 4.099027 6.609425 6.857894 1.8119066 5.6159625 36.96953
5.170957 40.8722 7.8571396 2.5366745 25.790453 2.6755295 80.3724 5.6898766
14.619828 12.829107 9.418295 29.764812 4.54416 21.08617 2.5891943 1.5327827
6.1177034 23.682728 6.1438627 1.4700084 1.405515 9.116628 15.020729 20.83376
13.928156 0.7651707 14.675523 15.243165 5.490427 39.336353 25.652088 36.162823
17.809393 2.0611937 4.1280317 0.9182053 3.4421017 5.4334226 3.4133716 28.84157
1.0642644 12.560997 2.199596 19.10806 10.360188 32.451 10.931459 3.2022355
0.52499485 18.032501 3.3939252 13.598073 8.055588 23.133614 33.2324 7.3563557
2.9662116 5.3018293 28.61777 2.7877462 20.938826 15.82094 1.9502871 5.458276
13.329429 8.739053 4.113711 0.09152944 5.130632 3.2782967 3.7179089 5.374667
8.282677 7.8707952 1.8243558 33.87911 12.199082 1.9409156 10.857424 12.593735
3.8134036 54.060925 9.265742 8.6003685 14.024536 8.286626 2.6762104 5.048391
3.286939 3.5692313 12.629764 1.9107533 8.663484 7.57235 2.50787 0.93700546
0.6399819 5.5565987 13.784455 3.7578611 13.427007 0.9381876 6.9410267 4.3208647
25.115757 15.679021 3.9068403 9.026172 11.174515 19.351412 15.506969 22.321533
4.8776207 45.755695 19.051771 3.460486 5.9726725 7.331347 1.9031929 20.396425
16.089241 2.8026242 5.628225 9.177771 47.44154 17.183702 32.971054 3.9900532
10.264607 12.910941 0.6991664 6.0731373 11.135942 15.012698 15.428034 18.453054
0.5780337 11.247538 37.380573 18.90259 19.692007 1.1904204 6.3944826 0.8865869
3.5057933 8.730445 26.034239 17.746763 5.2197847 3.4569848 13.030628 4.33199
2.8301508 6.3862596 5.0166483 2.6890492 12.113121 1.5467762 16.412355 9.236112
0.73311543 45.808723 2.5824406 8.66988 2.990228 33.275204 10.600135 49.56985
9.914676 3.5045362 10.30232 54.129467 4.7542934 2.2603095 14.670607 58.50085
6.0489182 2.6065428 10.167226 4.2145925 3.6057744 34.63453 32.459904 6.896501
16.885405 123.96229 1.8317025 14.465474 8.308783 1.0250102 48.245316 40.982082
